alad/train/10A_2layer_1c/model.pt (torch, 41238 bytes, 73 tensors)

_model._radial_embedding.bessel_fn.bessel_weights f4 [10]
000000 7c d9 a0 3e 7c d9 20 3f 3a 46 71 3f 7c d9 a0 3f
       0.31415927 0.62831855 0.9424778 1.2566371
000010 db 0f c9 3f 3a 46 f1 3f 4c be 0c 40 7c d9 20 40
       1.5707964 1.8849556 2.1991148 2.5132742
000020 ac f4 34 40 db 0f 49 40
       2.8274336 3.1415927

_model.W_e.0.scalar_norm.weight f4 [10]
000000 92 9a 87 3f bd 04 92 3f fc ab 98 3f 02 5a 94 3f
       1.0594046 1.1407696 1.1927485 1.1589968
000010 50 3b 93 3f 31 eb 8e 3f 77 6d 79 3f 90 95 8c 3f
       1.1502476 1.1165525 0.97432655 1.0983143
000020 e2 fe 56 3f 82 ce 99 3f
       0.8398267 1.2016146

_model.W_e.0.scalar_norm.bias f4 [10]
000000 0f 1c 71 bd e7 ab 89 bd 27 c0 a6 bd e2 37 2a bd
       -0.05886465 -0.06722241 -0.08142119 -0.0415572
000010 06 b6 a1 3d 87 8e 61 bd bc 91 0f bc 05 36 43 3d
       0.07896046 -0.055067565 -0.008762773 0.04765894
000020 f1 0c 97 bc a0 52 15 bd
       -0.018438788 -0.03645575

_model.W_e.1.ws.weight f4 [6, 11]
000000 1a 11 ad bc 6d e9 e4 3e 03 39 ce 3e 37 5c 9e bd
       -0.021126319 0.4470934 0.4027787 -0.07732432
000010 65 62 01 be 5f a0 eb bd 66 2d ea 3d ac 8f 31 be
       -0.12635191 -0.11505198 0.1143444 -0.17339963
000020 2d 11 f7 3d c9 5f 08 3e 7f e1 29 3e 9e fb 57 3d
       0.12063823 0.13317789 0.16589926 0.052730195
000030 97 2f f4 bd 9b da c4 3d ae db e2 3e 33 45 e9 bd
       -0.119231395 0.09612008 0.44308227 -0.11390152
000040 aa 79 c4 3e fe 9b 5c bd 0d b2 02 be 4b c3 fc 3d
       0.38374072 -0.053859703 -0.12763233 0.12341937
000050 bd 80 a9 be ae c0 cf bd c9 c5 6e bd 5a 56 9a 3e
       -0.33106032 -0.101441726 -0.05829409 0.30144006
000060 df 85 86 3e bb 74 d1 3d 61 13 dd be 12 98 77 3c
       0.2627401 0.10227343 -0.43178847 0.01511194
000070 dc 64 40 bd 1c b8 ee 3d 94 09 7f 3d c0 61 9a 3e
       -0.046971187 0.1165621 0.062264994 0.30152702
000080 ff 25 35 3e 25 e4 46 be d7 60 da 3d a8 28 97 3e
       0.17690276 -0.19422968 0.10663002 0.29523206
000090 14 bd 1c 3e 83 61 82 bd e4 e1 24 3e 2f 2e ed 3e
       0.15306503 -0.06366255 0.16101795 0.46324298
0000a0 42 12 33 3e 84 c5 b8 3c 20 b6 f9 be 34 d4 9d 3d
       0.17487434 0.02255512 -0.48771763 0.0770649
0000b0 f3 3f b8 bd 84 a8 98 3e fd de 76 be 2d 1d f7 be
       -0.08996572 0.29816067 -0.24108501 -0.48264447
0000c0 04 62 b5 be a5 a8 09 3b cc 1c 72 be ea f2 8b 3e
       -0.35426342 0.002100506 -0.23643798 0.27333766
0000d0 47 9d 03 be bb 61 14 be c5 61 3f 3b cc f7 d6 be
       -0.12852965 -0.14490406 0.0029202562 -0.4198593
0000e0 8e d3 2b 3e c3 01 11 3e 4f ca 80 be 55 4a 1d be
       0.1677992 0.14160828 -0.2515435 -0.15360387
0000f0 c1 46 54 be 5e 8a d2 3d ec 62 c5 3e 33 84 3e 3e
       -0.20730115 0.10280298 0.38552034 0.18605117
000100 e2 7c c4 bc 4f f0 ea 3d
       -0.02398533 0.114716165

_model.W_e.1.ws.bias f4 [6]
000000 23 82 42 3c 51 da a0 3d 17 c1 a5 bb 9f 17 4f be
       0.011871847 0.078541405 -0.0050584185 -0.20223854
000010 45 6e a5 3e 8c 72 77 3e
       0.3231069 0.2416479

_model.W_e.1.wsv.weight f4 [1, 6]
000000 d7 b6 29 3e 8c 82 2b be a2 2e 40 3c c8 e2 d7 3d
       0.16573654 -0.16749018 0.011729868 0.10541302
000010 10 38 a8 be 79 a9 a3 3e
       -0.32855272 0.31965235

_model.W_v.0.scalar_norm.weight f4 [3]
000000 b7 f4 84 3f 68 b0 67 3f a2 fb 82 3f
       1.0387181 0.9050355 1.0233042

_model.W_v.0.scalar_norm.bias f4 [3]
000000 08 87 5c bd df 34 f3 bc 10 04 8c 3c
       -0.053839713 -0.029688297 0.01709178

_model.W_v.1.ws.weight f4 [6, 3]
000000 02 42 a0 3d 1e 24 b4 3e d7 dd ac 3e ed 01 27 be
       0.0782509 0.35183805 0.33763 -0.16309328
000010 e5 b4 5d 3d 18 9c 7e 3e bc 71 f8 3c 5b 6b 7e be
       0.054127593 0.24864233 0.03032767 -0.2484564
000020 d8 55 d9 be ca a1 02 bf af 7f dd be 97 f5 df 3e
       -0.42448306 -0.5102812 -0.43261477 0.43742058
000030 76 d7 59 3e 9b 35 ab bc c1 47 03 3f 14 dc eb bc
       0.21273598 -0.020899585 0.5128136 -0.028791465
000040 94 27 ae 3e 03 c2 b4 be
       0.3401457 -0.3530427

_model.W_v.1.ws.bias f4 [6]
000000 cd 99 19 be 6d cf 9c 3e 77 35 e8 bd 05 a6 e3 be
       -0.15000077 0.30627003 -0.113383226 -0.444626
000010 62 73 34 be aa ed de be
       -0.1762214 -0.43540698

_model.layers.0.conv._module_list.0.wh.weight f4 [5, 5]
000000 ef 6c 50 1a ae 6e 8c 1b bc a5 87 be 8b f9 a8 1f
       4.3101388e-23 2.3232582e-22 -0.26493633 7.15636e-20
000010 5c bd fa 2b 91 31 25 1c 12 2c cb 9c 54 d1 cf be
       1.7816126e-12 5.4657984e-22 -1.3444805e-21 -0.40589392
000020 62 bc 21 9b 9f af e9 1a ff 70 f1 1b 2a 05 6c 29
       -1.3378478e-22 9.665027e-23 3.9943128e-22 5.2407006e-14
000030 d5 f2 98 be 2a 7f 46 9b 53 18 f8 9d 3d 24 c6 9b
       -0.29872766 -1.6419265e-22 -6.5670204e-21 -3.277977e-22
000040 f1 03 e5 1d a0 62 14 bd 96 c4 d4 1c 01 ab 8d 2b
       6.061987e-21 -0.03622687 1.4079799e-21 1.0066116e-12
000050 22 dd 86 a7 7b 1d 73 9b e1 2a f1 3b 1b ba 04 1f
       -3.7432224e-15 -2.0110015e-22 0.007359848 2.810603e-20
000060 ac 7c 97 1f
       6.415724e-20

_model.layers.0.conv._module_list.0.ws.weight f4 [6, 23]
000000 0b 79 73 3e 65 11 e9 3d c2 1a 00 bf 5a 1d ac 3d
       0.23776643 0.11380271 -0.5004083 0.08404036
000010 1d 5d 06 be 2a 8d 78 3e 9e d1 91 3e 52 79 05 be
       -0.13121457 0.242726 0.28480238 -0.13034561
000020 0b a9 2e 3e ff cc 7c 3e 72 0a b7 3d 48 53 fb bd
       0.17056672 0.24687575 0.08937539 -0.12271744
000030 4f 72 91 bd 78 b9 00 3e 82 24 27 3e e1 56 7e 3e
       -0.07101881 0.1257075 0.1632252 0.24837829
000040 dd 9b 0c 3c df 3e 45 be 12 58 7e 3d 84 b9 45 be
       0.008582083 -0.19262265 0.06209571 -0.1930905
000050 a3 9e 4f bd 8b 11 83 bc 68 d7 06 ba 39 17 c7 bc
       -0.050688397 -0.015999576 -0.00051437924 -0.024303066
000060 2b 4c eb be 7f cc 6c 3e 3c 2e c4 be 8b 42 94 be
       -0.4595655 0.23124884 -0.38316524 -0.28957018
000070 0f 9c 43 3e 08 06 50 be 10 fe 57 3e ce 8e 86 be
       0.191025 -0.203148 0.21093011 -0.26280826
000080 5d 20 94 3e 32 f8 8d be 82 fa 27 bc ed a3 92 3d
       0.2893094 -0.2772842 -0.010252597 0.071601726
000090 ce f9 22 be 92 28 d9 bd a9 41 39 3e d4 90 9e 3d
       -0.15915605 -0.10603441 0.18091454 0.077424675
0000a0 07 15 cc 3d 03 89 2a 3e 36 85 31 3e a7 88 2f 3e
       0.09964948 0.16653828 0.17335972 0.17141972
0000b0 35 ea 50 3c ec 59 9f 3b 04 97 14 bd 05 59 58 bd
       0.012751152 0.0048630144 -0.036276832 -0.05281927
0000c0 58 f5 6c 3e 17 18 5c be 44 30 9c 3d 14 67 4f be
       0.23140466 -0.21493565 0.076263934 -0.20254165
0000d0 71 d6 86 3d 4a 70 3f be ad 23 34 bc 6c 6b c3 3c
       0.0658387 -0.18695179 -0.010994834 0.023854934
0000e0 c3 f2 6c 3e cf 78 94 3e d6 a9 1e be aa d2 bc 3d
       0.23139481 0.2899842 -0.15494475 0.092198685
0000f0 45 ab a8 bd 32 d0 ac bd ed d9 24 be 44 46 0e 3d
       -0.08235792 -0.084381476 -0.16098757 0.03473498
000100 7b 33 68 3d 4f 22 78 3e 1d 0c 3d 3e 9d 40 fe 3c
       0.05668972 0.24231838 0.18461652 0.03103667
000110 f5 fd fe 3a 4b 2f 7a 3d 94 31 ef 3d f3 89 8d bd
       0.0019454347 0.06108026 0.11679378 -0.06911077
000120 66 bb 81 3e 19 27 be 3b e3 3f 31 be 33 81 01 be
       0.25338286 0.0058030006 -0.17309527 -0.12646942
000130 6a 43 28 be 04 e1 d6 3d 93 55 34 be 6d 85 b8 bd
       -0.16431966 0.10492137 -0.17610769 -0.09009824
000140 16 1b c2 bd 23 2e f2 bc 51 18 41 be 57 5d c1 bb
       -0.094778225 -0.029563015 -0.18856932 -0.0059010196
000150 2a c1 43 3e 23 1d 30 3e eb 57 10 be d4 02 01 3e
       0.19116655 0.17198615 -0.14096038 0.12598735
000160 8a 5f 21 bd ec 54 4d bd b5 3c f1 bb 6f d1 99 bb
       -0.039397754 -0.050129816 -0.007361973 -0.004694156
000170 1e e3 cc 3d 81 32 c7 3c a3 75 87 3d b6 c0 7c bd
       0.10004257 0.024316074 0.06614234 -0.06170722
000180 88 5a 94 3e bc 87 1c be c8 f6 12 be 23 1f 53 3e
       0.2897532 -0.15286154 -0.14351952 0.20617346
000190 7a 61 16 bc a5 51 de bd 25 d6 8c be 78 09 32 be
       -0.009178514 -0.10855416 -0.2750713 -0.17386425
0001a0 fc c2 62 be 4c ee de bd e2 0a d3 bd 49 e7 91 3d
       -0.22144693 -0.10885295 -0.1030481 0.07124192
0001b0 2b 8b 71 3d 2d b8 b6 bd 76 f5 1d ba 9c 6d bb 3d
       0.05897061 -0.089218475 -0.0006025651 0.09151766
0001c0 8f 04 58 bc 52 04 07 3d c3 19 2d 3b 80 12 55 bc
       -0.013184681 0.032963105 0.002641306 -0.013004899
0001d0 db 45 c4 bd 66 66 2c be c0 ee 0b 3d 8c b5 0e bb
       -0.095836364 -0.16835937 0.034163237 -0.002177569
0001e0 37 80 d2 3b d4 c8 90 3e 00 14 01 be 18 b6 a1 3e
       0.006423976 0.2827822 -0.12605286 0.3158424
0001f0 d4 c2 61 3d be 1a ed bd be a9 08 3e e5 29 23 3e
       0.055117443 -0.11577366 0.13346002 0.1593395
000200 4b f5 56 3e 1b 2c 0d 3d 59 bb 98 3d a0 88 cf 3c
       0.2099201 0.03446589 0.07457609 0.025333703
000210 ae 28 52 3c 17 c1 87 3c cf 8b 4d bc 82 f4 29 be
       0.012827082 0.016571565 -0.01254554 -0.16597179
000220 ec de 44 3d 84 96 2c bb
       0.048064157 -0.0026334831

_model.layers.0.conv._module_list.0.ws.bias f4 [6]
000000 cc 3d 70 3d 7c b6 95 3d 08 a0 12 3e 7f b0 0e be
       0.058652684 0.07310197 0.1431886 -0.13934515
000010 61 c8 a8 3d 6d 4b e5 bd
       0.08241344 -0.11196027

_model.layers.0.conv._module_list.0.wv.weight f4 [2, 5]
000000 2f ed c4 3e e5 22 99 3d db 5d dc bc 31 04 29 3e
       0.38462207 0.07477359 -0.026900223 0.16505505
000010 b9 44 fb bd 3b 16 c8 3e 26 e2 3d 3e 0b 9c 99 3d
       -0.12268967 0.3907946 0.185433 0.07500466
000020 62 a3 93 3e 03 9b 4e be
       0.2883559 -0.2017632

_model.layers.0.conv._module_list.0.wsv.weight f4 [2, 6]
000000 8e 70 10 bf 91 d3 c3 3e ff 08 81 3e ec 35 d1 be
       -0.56421745 0.3824735 0.25202176 -0.40861452
000010 c1 9d 91 3d 1f b4 36 3e bf 39 08 3f 70 77 ee be
       0.07110167 0.17842148 0.53213114 -0.465755
000020 34 19 cc be a0 1c 5d be ac 17 26 3c 9d ad cc bd
       -0.39862978 -0.21592951 0.01013748 -0.099940516

_model.layers.0.conv._module_list.0.wsv.bias f4 [2]
000000 bd 81 c0 bd 15 7c 5b be
       -0.093997456 -0.21434052

_model.layers.0.conv._module_list.1.wh.weight f4 [2, 2]
000000 34 fd ef bd 12 00 31 bf fa e2 23 bf de 31 24 3e
       -0.117182165 -0.6914073 -0.64018214 0.16034648

_model.layers.0.conv._module_list.1.ws.weight f4 [6, 8]
000000 67 2a fe 3d 47 26 44 be 2d 73 6a 3e 6e c8 5d be
       0.12410431 -0.19155227 0.22895499 -0.21658489
000010 b8 0d 34 bc 34 9e a7 3d 1e 1b 61 3d 8d fc 78 3d
       -0.010989599 0.08184472 0.0549575 0.060787726
000020 8f 06 fb bc d9 f4 26 bb 2f c3 c7 be 25 7a 06 bd
       -0.030642776 -0.002547553 -0.390161 -0.03283133
000030 ab 40 2e bd 63 da 0e bf 51 c7 32 3d 17 93 d6 3c
       -0.04254214 -0.5580198 0.043647114 0.026193185
000040 2a bf 84 3e d6 ab fa 3e cd 54 eb 3d ed 28 69 3e
       0.25927097 0.48959225 0.11490784 0.22769518
000050 ec 25 f8 3d bb 1c c3 be d7 da 14 be d6 6f 83 3c
       0.12116608 -0.38107857 -0.14536606 0.016044538
000060 ec 5c 17 be e4 10 4d bd d9 b8 e0 3e 84 12 b5 bd
       -0.1478154 -0.050064936 0.43891028 -0.08841422
000070 f6 15 d8 be fd 7f 19 3d 8f ff 47 3d b5 3f 48 bc
       -0.42204255 0.037475575 0.048827704 -0.01222222
000080 47 bd 14 3e ac f6 32 be 80 14 9e 3e 0c 07 64 be
       0.14525329 -0.1747691 0.30875015 -0.22268313
000090 23 ca 0c be d7 89 f0 3c fc df 4d 3d 9a 0e 3c bc
       -0.13748984 0.029362602 0.050262436 -0.011478091
0000a0 14 77 d4 3e de b9 fc be 3a c8 bf 3d 2d 5b a1 be
       0.414971 -0.49360555 0.09364362 -0.31514874
0000b0 b7 01 95 be 61 f9 a5 3e e4 c1 42 be ac e3 ce bd
       -0.2910287 0.32416824 -0.19019276 -0.10102019

_model.layers.0.conv._module_list.1.ws.bias f4 [6]
000000 ff 3b 6f 3d ad 02 46 3d 0b ae f4 3d 4b 14 2b be
       0.058406826 0.048342396 0.119472586 -0.1670696
000010 2c c8 93 3e 84 12 bb bd
       0.28863657 -0.09134391

_model.layers.0.conv._module_list.1.wv.weight f4 [2, 2]
000000 aa 4d 24 3e b7 35 34 bf 05 79 b8 3e 76 38 0a 3f
       0.16045251 -0.7039446 0.3602983 0.539924

_model.layers.0.conv._module_list.1.wsv.weight f4 [2, 6]
000000 a4 cb a4 bd e7 6f 64 bd ed 64 9d be 43 ee 6f be
       -0.08046654 -0.05577078 -0.30741063 -0.23430733
000010 95 e2 35 bd db 97 f7 3d bf 3c fe be 87 52 b2 3e
       -0.04440554 0.12089511 -0.4965572 0.34828588
000020 46 d1 e9 3e 54 01 c1 be 3e 27 41 be 06 5a 2c bf
       0.45667475 -0.37696326 -0.18862626 -0.67324865

_model.layers.0.conv._module_list.1.wsv.bias f4 [2]
000000 f9 f5 a2 3e 14 ec ed be
       0.31828287 -0.46469176

_model.layers.0.norm.0.scalar_norm.weight f4 [6]
000000 96 94 5b 3f e4 db 7a 3f df 4d 92 3f 71 70 7c 3f
       0.857736 0.97991776 1.1430014 0.9860907
000010 7b b9 72 3f 7c 42 85 3f
       0.9481427 1.0410914

_model.layers.0.norm.0.scalar_norm.bias f4 [6]
000000 03 5d 33 ba 0a 4b fe bc d5 14 86 bc 3e 20 38 3b
       -0.0006842168 -0.03104164 -0.016367355 0.002809539
000010 05 de c6 bc bc cb 4f 3d
       -0.024275789 0.050731406

_model.layers.0.norm.1.scalar_norm.weight f4 [6]
000000 aa 49 5d 3f ec ee 7b 3f 37 b8 6c 3f 5c 70 60 3f
       0.8644053 0.9841144 0.9246859 0.87671447
000010 31 7f 5d 3f d1 27 82 3f
       0.86522204 1.0168401

_model.layers.0.norm.1.scalar_norm.bias f4 [6]
000000 7c 1f 42 3d c6 1f a0 bc b8 b4 03 be e3 0e 43 3e
       0.047393307 -0.0195464 -0.12861907 0.19048648
000010 22 6c 95 bd 59 de 53 3d
       -0.07296015 0.05172572

_model.layers.0._module_list.0.wh.weight f4 [4, 2]
000000 1d bd f0 be 8a 4c 3f bd 1d fd c9 3d 91 04 2d 3e
       -0.47019282 -0.046703853 0.09862731 0.16896273
000010 0e 44 ff be b7 d5 10 3e 18 40 b4 be 5b 46 c7 be
       -0.4985661 0.14144026 -0.3520515 -0.38920864

_model.layers.0._module_list.0.ws.weight f4 [24, 10]
000000 37 59 2c 3d b6 1f 3c 3e 18 bf b4 bd d1 8c 5c be
       0.04207727 0.18371472 -0.08825511 -0.21538092
000010 2a 60 3b 3e 60 51 9f bd 98 2e f3 bd fb e4 a4 bd
       0.18298402 -0.07779193 -0.118741214 -0.08051487
000020 06 63 f3 bd 97 ff 6f 3d e0 57 f7 3d 7b c8 28 be
       -0.118841216 0.05859336 0.12077308 -0.16482727
000030 1a c0 b7 3e 45 48 e2 bd 69 39 6d be 40 87 ca be
       0.3588875 -0.110489406 -0.23166431 -0.39556313
000040 3c 13 c0 3d 85 01 7f bc 73 d1 c0 3d 0b 29 47 3e
       0.09378669 -0.015564327 0.09414949 0.1944925
000050 bf 30 ff 3d f1 b0 da bd 30 2b 34 be a9 1a b4 3d
       0.124604695 -0.1067828 -0.175946 0.087941475
000060 43 52 86 3e 7e 02 a0 bd e2 74 4d be 82 6d 4d 3e
       0.26234636 -0.07812975 -0.20064119 0.20061305
000070 f7 f9 d7 3c 50 72 b7 3e e4 79 58 3e fe a3 42 3e
       0.02636431 0.358294 0.21140248 0.1900787
000080 d8 eb c8 bd 1c 61 e5 bd c9 93 45 be 93 15 55 be
       -0.098106086 -0.11200163 -0.19294657 -0.20809011
000090 55 58 19 bd 28 e6 07 3e 82 b8 4f be 1e 6f ae be
       -0.037437756 0.13271391 -0.20285228 -0.3406915
0000a0 5a e4 17 bd 58 ca 96 bd e2 a2 87 bd 15 e9 95 bc
       -0.037083007 -0.07362813 -0.06622864 -0.018299619
0000b0 a3 54 33 be 83 a3 f5 bd ed 19 74 bd b7 de 50 be
       -0.17512755 -0.11994078 -0.059595037 -0.20397459
0000c0 e1 23 71 3e df fe dd bd ba f3 16 3e 13 99 1e 3d
       0.23548843 -0.108396284 0.14741412 0.0387202
0000d0 6f 4b 0b be ad 5d 2c be f8 4a 01 3e d2 7e c8 3e
       -0.13602994 -0.1683261 0.12626255 0.39159256
0000e0 f3 39 0f 3e 13 31 80 3c 2b b9 4f 3e c5 2f fc bd
       0.1398695 0.0156484 0.2028548 -0.12313799
0000f0 39 ba cd bb 79 bf 8a 3e b7 e2 5c be 94 f1 01 be
       -0.006278303 0.27099207 -0.2157086 -0.12689811
000100 ed 83 c2 bd a3 b3 14 be 4e aa 8a 3d fd 50 21 bc
       -0.09497819 -0.14521651 0.06770764 -0.009845969
000110 25 aa bb 3d 07 5c 3a 3e e8 ad 2c 3e 1a 3c 8b bd
       0.09163312 0.18199168 0.16863215 -0.06798573
000120 7c e0 02 3e 97 9c 62 3e 03 84 96 bd fb 41 90 3e
       0.12780946 0.22130047 -0.07349398 0.2817534
000130 f8 57 f0 bc 83 ac e2 3d 03 07 b9 bb 21 ec 1e bc
       -0.029338822 0.1106806 -0.005646588 -0.009699852
000140 64 18 6f 3e 50 67 d5 3b bb 5d 31 3d 7e 19 81 be
       0.23349148 0.00651256 0.04330228 -0.25214761
000150 8d 3d aa 3e 83 4b a6 3e db cf 01 be ed 46 2a be
       0.33250085 0.32479486 -0.12676947 -0.16628619
000160 17 98 63 bd 6b 34 42 3b 55 c9 e0 bd 18 bd 34 be
       -0.055564966 0.0029633294 -0.10975901 -0.17650259
000170 90 b3 51 3e 94 09 c4 bd 6e fd e8 bd ef fd cc 3d
       0.20478654 -0.095721394 -0.11376463 0.100093715
000180 81 a4 72 3d 41 67 1a bd 9d df 31 3d d2 91 50 3d
       0.059238914 -0.037696127 0.043426145 0.050920315
000190 b2 dd 24 3d 1a f1 41 be 0a eb ca be 73 9a 91 3d
       0.040250488 -0.18939629 -0.39632446 0.07109537
0001a0 0d 52 81 3e 06 38 d1 bd b7 55 0f bc f7 a4 0a 3e
       0.25257912 -0.10215764 -0.008748463 0.13539492
0001b0 54 c8 51 3d 18 20 cb 3d 25 47 e1 3c 53 60 70 3b
       0.05121644 0.09918231 0.027499745 0.0036678507
0001c0 83 cc e6 bd 0a 9b 96 3e 23 75 c1 3d 86 74 7e be
       -0.11269476 0.2941516 0.0944617 -0.24849138
0001d0 1a 1f 46 be bd e1 fb 3d 5e a8 b4 be 15 ae 25 be
       -0.19347802 0.122989155 -0.35284704 -0.16179688
0001e0 41 d5 6d 3e 4c 40 94 bd 32 df a3 be 97 a7 1d be
       0.23225881 -0.07238826 -0.32006222 -0.15395962
0001f0 aa b4 ed 3d f4 0a f1 3d ea 6e 7a 3e 1f 6c 5a 3e
       0.116067246 0.11769667 0.24456373 0.21330307
000200 d4 ba 3a 3e b6 cf 5d bc da d7 84 be 28 53 63 3c
       0.18235332 -0.013538292 -0.25945932 0.013874806
000210 d5 ed 57 3d c4 9e ce 3d d9 cf 16 3d 3d ba a2 bd
       0.05271705 0.10088876 0.036819313 -0.079456784
000220 70 b5 76 bd be 7d 86 bd 26 72 4a 3d 59 63 3b 3c
       -0.060231626 -0.06566952 0.049425267 0.011437261
000230 c4 99 2b 3e 58 6c 1e 3d ce 38 4c 3e ad 15 14 be
       0.16757876 0.038677543 0.19943544 -0.14461394
000240 d4 99 99 be c7 10 11 be d1 fe be bd a6 0d 8b bd
       -0.30000174 -0.14166556 -0.09325946 -0.067897126
000250 78 de 26 3d 80 ab 40 3e bd 06 93 bc d2 dc 2b be
       0.040739506 0.18815422 -0.017947549 -0.16783455
000260 78 ef 39 be ca 54 29 be fa 59 b4 3d 3b 1f f1 3d
       -0.18157756 -0.1653625 0.08806224 0.11773535
000270 e1 cb a4 3c 49 bb b8 bc d3 c4 dd bd 1c 01 29 3d
       0.020116748 -0.022550242 -0.10828557 0.041260824
000280 22 96 53 be 98 db 6b 3c de 7e 0b 3e d2 13 95 be
       -0.2066274 0.014395617 0.13622615 -0.29116684
000290 41 36 a2 3d c8 9d 8d be 36 3a 67 be d1 bf 7d 3b
       0.07920504 -0.2765944 -0.225808 0.0038719068
0002a0 07 ab e4 bd a3 23 e5 bd 87 3c d5 bd 59 39 0e bd
       -0.111654334 -0.11188438 -0.10411935 -0.03472266
0002b0 5f 88 79 be cd 79 47 3e 47 2d 19 be 3d 07 d2 bd
       -0.24368428 0.19480057 -0.14958678 -0.10255287
0002c0 ff e9 a4 3c 23 72 0c 3e 63 66 44 be 28 7d 44 be
       0.02013111 0.13715415 -0.19179682 -0.19188368
0002d0 37 77 09 be 2e ad 68 be bf 95 88 3d 06 e0 0e 3d
       -0.13424383 -0.22722313 0.06669187 0.034881614
0002e0 a1 98 b5 3c 33 2e c9 bd 90 3d 32 bd f1 ea 18 be
       0.022167506 -0.09823265 -0.04351574 -0.14933373
0002f0 53 af 49 3e 8e 6a 0b 3c b2 f6 65 3d 54 68 90 3d
       0.19695787 0.008509291 0.05614347 0.07051149
000300 be 5c a0 be e3 e3 2b 3e 45 7c 98 bd 7a f6 a4 bd
       -0.31320757 0.1678615 -0.074455775 -0.08054824
000310 6f 79 8e bd aa ac 81 3e 0d 6d 56 bd f2 87 67 3e
       -0.06956755 0.25327045 -0.052350093 0.22610453
000320 00 c7 8c bd bf 57 e0 3d 34 47 8c 3d 38 d7 41 3e
       -0.06873894 0.10954236 0.068495184 0.18929756
000330 22 f0 dd bd 77 72 dd 3d 01 f6 56 3e fd 0f d1 3d
       -0.10836817 0.10812848 0.2099228 0.10208128
000340 1b 0e 92 be 74 37 90 bd f9 89 76 3e eb 4c 85 be
       -0.28526387 -0.07041827 0.2407607 -0.26035246
000350 08 38 a6 be 15 17 03 3d a3 cc 61 bc 37 c5 80 3e
       -0.32464623 0.032004435 -0.013781699 0.25150463
000360 78 00 82 3e b5 b2 79 be 57 7c 98 3e 5e 23 c1 3c
       0.25390983 -0.24384578 0.29782364 0.023576435
000370 07 b7 80 bd f5 8d ad bd 78 66 05 be 5c 7e e0 bd
       -0.0628491 -0.08474342 -0.1302737 -0.10961601
000380 44 c9 4f 3e 90 f9 92 be 54 58 2b 3b e6 ed a9 bd
       0.2029162 -0.28706026 0.0026145177 -0.08297329
000390 e8 a5 c1 3d 19 65 0b bd c3 cd 86 3e 2b d5 91 bb
       0.09455472 -0.03403196 0.2632886 -0.0044504604
0003a0 7f ed b0 3e 2e 61 48 bd a4 8f 61 bc 69 e4 19 be
       0.34556195 -0.048920803 -0.013767157 -0.15028538
0003b0 f0 84 39 3e 4b 1f 9c 3d 69 5d 16 3e b7 5b 25 be
       0.18117118 0.07623156 0.1468407 -0.16148268

_model.layers.0._module_list.0.ws.bias f4 [24]
000000 8f 05 04 be b3 1e 1e 3e c0 27 5b 3e 14 a4 98 be
       -0.12892745 0.15441398 0.21401882 -0.29812682
000010 83 73 49 be 13 ec 90 be 2e 4d 29 3e 98 ce 65 3e
       -0.1967297 -0.2830511 0.16533348 0.2244209
000020 44 b6 c4 bd 16 1d 8d bd 55 4b 8c 3e 9c f5 62 bc
       -0.09605077 -0.06890313 0.27401224 -0.013852503
000030 74 c4 16 be 70 d8 d3 3d 17 f2 65 be c9 bf b7 bc
       -0.14723378 0.103440166 -0.22455631 -0.022430317
000040 59 f0 2c 3e ca dd d2 3d be e1 94 3d ba dd e9 bd
       0.1688856 0.10296209 0.072696194 -0.11419244
000050 fd 1e 32 be 10 12 80 3e fc 3d 48 3e 6e f7 80 be
       -0.17394634 0.2501378 0.19554895 -0.25188774

_model.layers.0._module_list.0.wv.weight f4 [4, 4]
000000 4f d7 5c be 73 3b 67 3c aa d5 e3 bc b0 1b 48 ba
       -0.21566509 0.014113295 -0.027811844 -0.000763352
000010 1e f8 5b 3d 65 34 27 3e 33 f2 89 bc 3c f6 c1 be
       0.05370342 0.1632858 -0.016839122 -0.37883174
000020 d5 db 02 3e 7b 7d 29 be 39 2c fc 3d 48 b6 8c 3a
       0.12779172 -0.16551773 0.12313122 0.0010735476
000030 b9 02 9c 3e aa 67 1c be 95 34 9c be 8c e0 a1 3e
       0.30470827 -0.1527392 -0.30508867 0.31616628

_model.layers.0._module_list.0.wsv.weight f4 [4, 24]
000000 3d f6 a6 bb 4a 2b 70 ba e8 18 18 3c b3 9e 3c 3b
       -0.005095272 -0.0009161724 0.009283282 0.0028781116
000010 04 c5 cb 3b 89 80 79 bc d1 f0 51 bb 6c a0 ab ba
       0.0062185545 -0.015228399 -0.0032034407 -0.0013094074
000020 55 98 94 bc 48 60 3a bc 37 ac 55 3c 8d db b9 3c
       -0.018139044 -0.011375494 0.0130415475 0.022687698
000030 bb 16 d9 bb 59 cb df 3b 09 20 0a bc 60 09 ef bb
       -0.006625024 0.006829661 -0.008430489 -0.0072948188
000040 ab 09 0d bc 64 9d 57 3c 3c 85 cf 3b f3 04 07 3c
       -0.008608262 0.013160083 0.0063330214 0.008240926
000050 9b d7 1f b8 02 54 12 bb 1c 12 17 3c 0c 11 8c bb
       -3.8109352e-05 -0.0022327905 0.009220626 -0.004274493
000060 54 6c 4f bb dd 6c b8 3d 4f 7f 3b 3d 58 21 85 bd
       -0.0031650262 0.09005139 0.045775708 -0.065005004
000070 3c a5 c7 bb c3 6b 68 bd b5 5c 2a bd 54 61 b4 bc
       -0.0060926955 -0.056743395 -0.04159232 -0.022019066
000080 6c 5f ff bc dd e0 d1 3b 1c 4f 4d 3c a1 cd 94 3d
       -0.03117343 0.0064049796 0.012531068 0.07265783
000090 65 54 19 bd 91 b7 06 3d cd 1f 93 bc 8e 4e aa bc
       -0.037434 0.032889906 -0.0179595 -0.02078941
0000a0 f8 ac 2a 3c 3b 83 95 bc 6b 79 7e 3d e7 b0 78 3a
       0.0104172155 -0.018251052 0.062127512 0.000948681
0000b0 44 9d 39 bd 7a 5c 73 bd 2c 9d 64 3d 55 a6 09 3d
       -0.045315996 -0.059414364 0.055813953 0.033605892
0000c0 ec 15 e2 b9 95 e4 21 bc d3 bd a5 3c dc e8 58 bb
       -0.00043122412 -0.009881158 0.020232117 -0.003309778
0000d0 1b 25 c9 b9 a6 8a fc bb ca c5 38 3b 17 46 13 b7
       -0.00038365353 -0.007706958 0.0028194063 -8.778202e-06
0000e0 f9 4c e2 bb d5 b5 2f bc 29 fb f6 3c a4 f7 89 3c
       -0.0069061485 -0.0107245045 0.03014906 0.016841717
0000f0 49 7b b9 3b 84 09 c1 3b 63 0a 8d bc ca ed 1f 3b
       0.0056604487 0.005891027 -0.017216867 0.0024403208
000100 3c 2c b2 bb 53 67 33 3c b7 02 90 3b 0f e6 63 3c
       -0.005437402 0.010949927 0.004394855 0.013909831
000110 f4 7e 70 bb 74 41 52 3c a5 3b 0a 3c a2 f4 42 bc
       -0.0036696764 0.012832988 0.008437072 -0.011899145
000120 7a 67 61 bc 95 9d 5d bd 7c 73 2c bb 5d b3 94 bb
       -0.013757581 -0.05410536 -0.0026313951 -0.0045379833
000130 06 7c 26 bd a4 eb 17 3d e9 e9 02 bb 09 2a 91 3c
       -0.04064562 0.03708996 -0.0019975847 0.01772024
000140 7f 3b 81 3d b6 36 cd bc 64 bb a6 3c 9b 50 1c 3d
       0.06310176 -0.025050502 0.020353027 0.03816281
000150 f9 83 03 3d 57 88 c4 bc 33 3f 5c bb fe a6 cf 3c
       0.03210828 -0.023990793 -0.0033607006 0.025348183
000160 cd 46 a3 bc 9b fa 06 3d e7 1e cd bc be fe cc 3c
       -0.019931221 0.03295384 -0.02503915 0.025023814
000170 4c 46 e0 3c af 2c 2e 3d 67 66 87 bd 73 0a 39 bd
       0.02737727 0.042523082 -0.066113286 -0.04517598

_model.layers.0._module_list.0.wsv.bias f4 [4]
000000 4c c0 31 bb 13 e0 85 3c 15 22 24 3a 9a 61 65 3d
       -0.0027122675 0.016342198 0.0006261182 0.056001283

_model.layers.0._module_list.1.wh.weight f4 [4, 4]
000000 b5 4a 14 bd 07 49 b7 be 66 03 0c 3e 8f 07 7d 3e
       -0.03620406 -0.35797903 0.13673171 0.24709915
000010 40 88 da bd da 16 34 3b d7 99 95 bd 93 65 94 3e
       -0.10670519 0.002747944 -0.07304733 0.28983745
000020 b3 b2 8d be ef 37 b1 3e 2c df 69 3c 3d 43 88 3e
       -0.276754 0.34612986 0.0142744 0.266138
000030 fd 55 99 bd f8 53 cc 3c 42 07 a8 3d 36 b2 59 be
       -0.07487104 0.024942383 0.08204509 -0.21259388

_model.layers.0._module_list.1.ws.weight f4 [6, 28]
000000 87 79 a6 3d a4 ab a1 3d 31 0e 84 3d d3 c9 08 be
       0.08128648 0.07894066 0.06448019 -0.1335824
000010 78 27 09 be 27 7b 11 3e e2 6a 8d bc d5 56 8f 3c
       -0.13393962 0.14207135 -0.01726288 0.01749746
000020 41 ba 01 bd b8 ff c2 3c 96 8e 1b be 88 e5 16 3e
       -0.031671766 0.023803577 -0.15191111 0.14735997
000030 29 3b 78 3d d2 be 52 bc ca e7 be bd e5 98 e5 bc
       0.060603295 -0.012862878 -0.09321554 -0.028027007
000040 91 83 fd bb 12 2e dd 3d 24 8b 15 bd 1f d8 80 bc
       -0.007736631 0.10799803 -0.036509648 -0.015728055
000050 85 f4 0a 3d b6 0e a7 3d d6 18 55 bd 14 f3 9b 3a
       0.0339246 0.08157103 -0.05202564 0.0011898004
000060 aa 2f 3f 3e bd 6f 41 bd 01 7b 1c bd 12 a6 76 3d
       0.18670526 -0.047225703 -0.038203243 0.06021697
000070 9c b3 93 3d fb bc 76 3e e1 57 2c bd 5f db 14 3e
       0.07211992 0.24095528 -0.042075995 0.14536808
000080 df 8a e8 bd 52 af 78 be 29 5b a5 3d 40 cb eb bd
       -0.113546126 -0.2428563 0.08074028 -0.11513376
000090 b3 f2 1f be df 26 b2 3d 78 a6 92 be 7d 9e 08 3e
       -0.15619926 0.0869882 -0.2864263 0.13341708
0000a0 ee c1 a7 be 29 ee 0c 3e 77 5a 5f 3e f9 e2 54 3c
       -0.32765144 0.13762726 0.21811853 0.012993568
0000b0 f4 bf 2b 3e a6 8d f3 bd 13 e1 a3 bd be 68 e4 bd
       0.16772443 -0.11892252 -0.08001914 -0.111527905
0000c0 f8 72 ff 3d 9e c8 8e be 2e b3 cc bd ef ac 13 bd
       0.124731004 -0.27887434 -0.09995113 -0.036053594
0000d0 69 e5 0a 3e 44 71 c4 bd 6e 5a 20 be a3 01 14 be
       0.13564076 -0.09591916 -0.15659496 -0.1445375
0000e0 7c 0c 01 3e 71 99 5d 3d 81 3f 02 bd 9e b3 b9 3d
       0.12602419 0.05410141 -0.031798843 0.090674624
0000f0 e9 94 98 bc 63 28 0f 3e 39 40 3c 3c 47 8d 39 bd
       -0.018625693 0.1398025 0.011489921 -0.04530075
000100 52 67 d0 3b ee 48 e0 bc db 8a bf bd af 92 15 3d
       0.006359973 -0.027378526 -0.093526565 0.03651684
000110 bd 5a c0 bc b7 5d c3 3c aa 5b c6 bd 1d 0b 89 bd
       -0.023480767 0.023848398 -0.09685452 -0.06691573
000120 34 e0 df 3d 89 23 27 be 40 39 64 bd 42 28 1c be
       0.10931435 -0.1632215 -0.05571866 -0.15249732
000130 fb ef 3a be 94 da c9 bb 61 c7 de 3d d5 e3 a7 3d
       -0.18255608 -0.0061600897 0.10877872 0.081977524
000140 0c 0b 2a 3c e6 25 af bd 93 ec 99 bd 86 20 4b bd
       0.01037861 -0.085521504 -0.07515826 -0.049591564
000150 85 66 14 be e7 a5 f9 bd 71 63 08 be 3f 12 77 3e
       -0.14492233 -0.121898465 -0.13319184 0.24128054
000160 16 eb 3a 3e 4e f4 18 3e 70 33 6f bd bf 4c 8a bd
       0.1825374 0.14936945 -0.058398664 -0.067529194
000170 f9 02 20 be 5d fe 8d bd b5 0f 35 be c3 fc 34 3e
       -0.15626134 -0.069332816 -0.17681773 0.17674546
000180 f1 d1 42 3e c7 57 ab bc 3e 86 fb 3d d3 d5 d7 3c
       0.19025399 -0.020915879 0.12281464 0.026347077
000190 58 0b 02 3d 02 50 9b 3c da 3a 8b bd 2d b2 9f 3b
       0.0317491 0.01895905 -0.067983344 0.004873535
0001a0 2c a0 3b 3e 88 af ea 3d 42 2c 4d be 54 22 8c 3c
       0.1832282 0.11459261 -0.20036414 0.017106213
0001b0 02 3c 4d be 22 9f 0f be 77 4f 09 3d 69 da 70 bc
       -0.20042422 -0.14025548 0.03352305 -0.014700511
0001c0 d3 7a 67 3d 07 8a fb bd cd 03 16 be 8c 2f 6b 3d
       0.05651362 -0.12282186 -0.14649887 0.05741839
0001d0 be 9f 01 3e 91 7f 4d 3e 65 5c bf bd 73 a2 b3 3d
       0.12658593 0.20068194 -0.09343795 0.08771219
0001e0 6e 33 8c bd a1 09 5a 3e fb 65 5c be cb 20 5d be
       -0.06845747 0.21292736 -0.21523277 -0.21594541
0001f0 c8 b8 21 be 96 a3 69 3d c3 7e 1e 3a 70 78 6a 3d
       -0.15793145 0.057040773 0.00060461106 0.057243764
000200 b4 2c e8 3d 10 c9 94 ba 34 c5 5c 3d 51 c3 74 be
       0.113366514 -0.0011351425 0.053899005 -0.23902632
000210 d9 e4 c5 3c 16 a6 10 3e 3f 02 33 be 01 ff cb 3d
       0.024156975 0.14125857 -0.17481326 0.099607475
000220 54 ab 36 be 11 eb 69 bd 3e 00 a7 3d ef 5d af 3c
       -0.17838794 -0.057108942 0.08154343 0.021407096
000230 cd 7b 58 3d 67 af e3 bd f7 88 2b 3e d5 b5 6f 3a
       0.05285244 -0.1111744 0.16751467 0.00091442215
000240 69 a5 9b 3d 27 35 32 3d f9 50 00 3e 4c d3 08 3d
       0.07599909 0.04350772 0.12530889 0.033404633
000250 b4 41 09 3e 99 b5 3c bd 99 f5 75 3e 1e 68 b0 3c
       0.1340397 -0.046071623 0.2401947 0.021534022
000260 6f 1a 5c 3e a3 57 0e 3d 1f 32 3f bd 75 6c 9b 3d
       0.21494459 0.034751546 -0.04667866 0.07589046
000270 20 c3 f9 bd 8b 88 32 3d 9e a3 0c be bb 04 11 3e
       -0.1219542 0.04358725 -0.1373429 0.14161961
000280 e4 ef 6f 3d 95 1c 28 3e 49 d0 14 bb af 17 5e be
       0.058578387 0.16417153 -0.0022707155 -0.21688722
000290 73 6c 26 3e 2c 35 e8 3d d7 4a 97 3d 94 5e 80 bc
       0.16252308 0.11338267 0.073873214 -0.015670098

_model.layers.0._module_list.1.ws.bias f4 [6]
000000 fe ab 44 3e 17 d8 d9 bc 89 72 25 3e c3 6e b7 bd
       0.19206235 -0.026592297 0.16156973 -0.08956673
000010 c2 18 8f 3c bb 80 98 bd
       0.01746786 -0.074464284

_model.layers.0._module_list.1.wv.weight f4 [2, 4]
000000 0e 39 9d 3e 33 e7 c0 bd a4 03 64 bc 63 c0 09 bd
       0.30707592 -0.09419098 -0.013916884 -0.03363074
000010 01 6b 58 3e c3 f7 2d bd 5f a7 ed 3b b2 61 cb bd
       0.21134569 -0.042472612 0.007252618 -0.09930743

_model.layers.0._module_list.1.wsv.weight f4 [2, 6]
000000 8e c1 df 3b 6a ca 8f bc ee b2 0a 3b f9 a6 12 bc
       0.0068284934 -0.017552573 0.002116378 -0.008950942
000010 89 13 9b bc 74 77 97 3c 20 29 3b bb 49 ba a9 3c
       -0.018930214 0.018489577 -0.0028558448 0.02071871
000020 c3 d2 7a 3c bb 59 3f bc 53 32 f7 3c 85 8c c4 bc
       0.015309039 -0.011679108 0.030175364 -0.023992786

_model.layers.0._module_list.1.wsv.bias f4 [2]
000000 2b 9d e4 ba e3 c2 ba 3b
       -0.0017441859 0.005699502

_model.layers.1.conv._module_list.0.wh.weight f4 [5, 5]
000000 08 7b b6 3d 98 0a af 3e ac f7 dc be e9 dc 7e be
       0.08910185 0.3418777 -0.4315771 -0.24888958
000010 f5 56 ae be a0 7f 12 bd ca 51 6e bd c2 d8 6b be
       -0.34050718 -0.035766244 -0.05818347 -0.23031905
000020 31 c4 a2 be 9e 38 d1 3e ab d7 48 be 5d a3 91 3e
       -0.31790307 0.40863508 -0.19613521 0.2844495
000030 8a 36 00 3f 6a 6c 15 bf db 51 fa 3e 66 12 07 3f
       0.5008322 -0.5836855 0.48890576 0.5276245
000040 55 1a 69 be 52 fe 19 3f 35 68 1d 3e 9d 9c d8 be
       -0.22763951 0.60153687 0.15371783 -0.42306986
000050 54 88 73 bd 05 05 13 3e 83 46 b8 3e f6 b7 d6 be
       -0.059456185 0.14357384 0.35991296 -0.41937226
000060 f1 dd 07 3e
       0.13268258

_model.layers.1.conv._module_list.0.ws.weight f4 [6, 23]
000000 ca 93 9f bc a1 8f 99 3e ec eb 60 3c 0f 4c 45 3e
       -0.019479651 0.29992393 0.013728123 0.19267295
000010 4b 6a bf be 7b 29 4e 3d 25 fa e6 3d ea 40 0c 3d
       -0.37385783 0.050332528 0.1127818 0.034241594
000020 ce b4 14 3e 24 25 fc 3e b6 7f 99 3e e3 98 a2 3e
       0.14522097 0.49247086 0.29980248 0.31757268
000030 43 40 5d 3e 9b 6f a3 3e b8 1b 83 be 63 83 e1 bb
       0.21606545 0.31921086 -0.25607085 -0.0068821176
000040 e2 5c 52 bc f1 23 8c bc 33 9f 1e bb 96 30 b6 bd
       -0.012839528 -0.017106982 -0.0024203777 -0.08895986
000050 79 e7 b3 bd 29 42 1f bd 26 67 14 3e 98 19 4e 3e
       -0.08784384 -0.038881455 0.14492473 0.2012695
000060 61 82 94 3d 8e 21 25 be d2 53 4e 3e e0 c5 bd 3d
       0.0725143 -0.16126081 0.20149162 0.09266257
000070 ce 3b df be 6e ed 31 3d 96 77 2c 3e e4 f7 65 3d
       -0.43600315 0.04343932 0.16842493 0.05614461
000080 a0 57 43 be d5 ed 80 3e 01 83 c3 3e 37 8f 12 3e
       -0.19076395 0.2518145 0.38185886 0.14312445
000090 ef 75 58 3d 32 78 8e 3c 68 1c 0c be 26 ec 3f be
       0.052846845 0.017391298 -0.13682711 -0.18742427
0000a0 21 2e 41 3e 8d ee b3 3e 99 3f 22 3e 09 d4 5b 3e
       0.18865253 0.35142937 0.15844573 0.21467604
0000b0 c8 c6 83 bd 6c 66 9a bd e7 58 79 bd f2 af 78 3e
       -0.06434399 -0.07539067 -0.0608758 0.24285868
0000c0 fa 61 5c 3e 28 15 09 be 77 d8 e4 3d c6 b5 c3 be
       0.2152175 -0.13386977 0.111741 -0.3822462
0000d0 10 60 2e be 8f db af 3d a8 a6 0f 3e 48 af 3a 3e
       -0.17028832 0.08586799 0.14028418 0.18230927
0000e0 84 80 3c be 65 eb 34 3e 1c 48 98 3b b4 8f 30 be
       -0.184084 0.17667921 0.004647268 -0.17242318
0000f0 3a 04 30 3e dc b8 0b be 92 07 43 3d 74 12 c0 3d
       0.17189112 -0.13644737 0.04761464 0.0937852
000100 fa 19 83 3c 2f 9b ab 3d c0 fd 8f 3e 6e 5c 2c 3e
       0.016003598 0.08379208 0.28123283 0.16832134
000110 93 f3 c1 3c ac 3f cf be 88 c7 37 be 1f c9 8f 3e
       0.023675716 -0.40478265 -0.17947209 0.2808313
000120 1e bb 08 be b5 e4 e2 bd 22 ac c1 3d ec 10 27 3e
       -0.1335263 -0.11078779 0.0945666 0.16315049
000130 8a f9 c7 3d 4d 4b 16 be 53 cb 10 3e a8 c3 14 bd
       0.09764393 -0.14677162 0.14140062 -0.036319405
000140 24 9f 83 3c 2c 6c a9 be 7d 40 00 3e 74 9a 0b 3e
       0.016067095 -0.3309034 0.125246 0.13633138
000150 6c c3 ae 3c dc 30 f8 3d 4b ed 1b 3e 5f e2 50 be
       0.021333419 0.12118694 0.15227239 -0.20398854
000160 95 49 67 3d 22 d9 be be cc dd 93 be e6 e1 a1 be
       0.056466658 -0.37275034 -0.28880155 -0.3161766
000170 3c e6 a6 3d d5 a4 92 bd ce 53 89 be cc 4e 5a 3e
       0.081493825 -0.071603455 -0.2682175 0.21319121
000180 35 33 73 3b d3 5a a9 3e 30 4d da bd aa 32 0a 3f
       0.003710938 0.33077106 -0.106592536 0.5398356
000190 9a 8a 2a be 6f 5d 21 3e 1e c2 d6 be 35 b9 bf be
       -0.16654435 0.15758298 -0.41944975 -0.3744599
0001a0 2b d9 8e 3e 83 5e 25 be 81 75 96 be da 1b 26 3d
       0.2790006 -0.16149335 -0.29386523 0.040553905
0001b0 2a 6e 04 be 9c bb bc 3d 06 82 1b 3f 44 23 30 be
       -0.12932649 0.09215471 0.60745275 -0.17200953
0001c0 38 f4 4e be 36 0d 2f be f1 1c 83 bd b3 ac b7 3e
       -0.2021035 -0.17094883 -0.064020045 0.35873947
0001d0 8a d7 ef bd cc 8f f5 be 3a 57 93 3d 0a 75 d6 3d
       -0.11711033 -0.4796127 0.071943715 0.10471542
0001e0 7a e6 f9 3d 66 15 ad 3e 04 36 62 3e ba 10 c3 bc
       0.12202163 0.33805388 0.22090918 -0.023811687
0001f0 35 f9 96 3d 8e 8a 02 bc 3a 5e c2 3d ac 0e 57 3e
       0.07371751 -0.007967604 0.094906285 0.2100169
000200 74 44 8b be 59 19 d9 3c 60 b9 1f be 30 ff 8a 3e
       -0.27200663 0.026501345 -0.15598059 0.27147818
000210 8c 81 b8 3e 92 ef a4 be 1a 1a 17 3e 04 27 86 be
       0.36036336 -0.32214028 0.1475605 -0.26201642
000220 62 b1 a3 bd 6a 13 88 be
       -0.079928175 -0.26577312

_model.layers.1.conv._module_list.0.ws.bias f4 [6]
000000 97 ef 21 be a0 f3 ab bd 43 af b4 3d 71 cb 45 bb
       -0.15814053 -0.08396077 0.08822491 -0.0030181075
000010 29 dd 82 be 3d 62 3a 3e
       -0.25559357 0.18201537

_model.layers.1.conv._module_list.0.wv.weight f4 [2, 5]
000000 65 17 86 3e f7 f7 d3 3e 25 db b8 3e 70 9b 10 bf
       0.26189724 0.4140012 0.36104694 -0.5648718
000010 d4 67 45 3e 76 80 f8 3e c8 9b 99 be 42 b8 f0 bd
       0.19277889 0.48535508 -0.30001664 -0.117538944
000020 94 83 58 3e 62 c4 a3 bc
       0.21143943 -0.019991104

_model.layers.1.conv._module_list.0.wsv.weight f4 [2, 6]
000000 54 bc fd 3e 49 31 f9 3d bd 6b 1d bd 0c a9 ca 3e
       0.49557745 0.121676035 -0.038432825 0.39582098
000010 a8 d5 33 bf 3d e1 fa be ce a8 bf be 51 8b a4 bc
       -0.7024789 -0.48999968 -0.37433475 -0.020085962
000020 39 34 a0 be c9 ec 79 be 78 39 c0 3e ac b7 12 3e
       -0.31289843 -0.24406733 0.37543845 0.14327878

_model.layers.1.conv._module_list.0.wsv.bias f4 [2]
000000 7e e4 94 3e 78 b8 f2 3c
       0.29080576 0.029628977

_model.layers.1.conv._module_list.1.wh.weight f4 [2, 2]
000000 0c c2 58 bf 20 00 b4 be a3 ad f7 be 4d d0 b5 be
       -0.8467109 -0.35156345 -0.48374662 -0.35510483

_model.layers.1.conv._module_list.1.ws.weight f4 [6, 8]
000000 8c 1d 47 3e 74 eb b5 be 00 6b 34 be ea d5 7a 3e
       0.19444865 -0.355312 -0.17618942 0.24495664
000010 70 2f a7 be 4d 3c 8c 3e a4 0b 27 3f 9f bc 11 3f
       -0.3265338 0.27389756 0.6525214 0.5692844
000020 a0 77 89 be dc 1e c5 3c 0f ac 33 3e 7a b7 a6 3e
       -0.2684908 0.024062566 0.17546104 0.32561857
000030 9e 6c 5c 3e 03 f5 e5 3e 3b 8e 4e 3e 74 8f 5f 3e
       0.21525809 0.44913492 0.20171444 0.21832067
000040 16 19 8e 3e f0 53 42 3e 2d e8 cd 3e 52 ce 70 be
       0.27753514 0.18977332 0.402162 -0.23516205
000050 94 bb 66 3e f2 9f 00 bf 36 be 77 be 13 58 97 3d
       0.22532493 -0.5024406 -0.24193653 0.07389846
000060 1e 4a 9c be e9 98 16 3d 95 2c c1 3c 1b 24 f6 bd
       -0.30525297 0.03676692 0.023580829 -0.12018605
000070 47 0f 0c bf 29 e5 a1 3d b6 7a dd bd 38 49 d7 bc
       -0.5471081 0.07905037 -0.10814421 -0.02628003
000080 e2 c6 11 bd 96 d2 6f 3e a2 7a 62 be 66 47 1e be
       -0.03559006 0.23420176 -0.22117093 -0.15456924
000090 70 38 a0 3e e9 87 f7 3d 4e a5 a4 be 3a e7 9e be
       0.31293058 0.1208647 -0.32157367 -0.31035787
0000a0 c3 dc a3 3e b4 99 c5 3e 68 19 90 3e 5f d1 af bd
       0.32004365 0.3859383 0.28144383 -0.08584856
0000b0 97 83 07 be 8c 01 8c bd 38 15 89 3e 9f f5 69 be
       -0.13233791 -0.068362325 0.26774 -0.22847603

_model.layers.1.conv._module_list.1.ws.bias f4 [6]
000000 37 8d 19 3e 5f f3 62 3e b5 1e b3 be 24 9f ee 3e
       0.14995275 0.22163151 -0.34984365 0.4660579
000010 01 65 17 3e 3c 43 3a be
       0.14784624 -0.1818971

_model.layers.1.conv._module_list.1.wv.weight f4 [2, 2]
000000 dc 00 49 be e3 af 28 3e 38 87 a0 be 6b 71 21 be
       -0.19629234 0.16473345 -0.31353164 -0.15765922

_model.layers.1.conv._module_list.1.wsv.weight f4 [2, 6]
000000 89 2c 5c 3b e8 cd 78 bd e5 3c 16 bb 0a 99 09 bd
       0.003359588 -0.060743243 -0.002292448 -0.033593215
000010 45 da f3 3c 44 92 8e 3c 2f a8 29 bd 85 d2 8a bc
       0.029767165 0.01740373 -0.041420158 -0.016946087
000020 16 11 ce 3a cd ac cc bc 0e c6 7b 3d fd 0d 98 bc
       0.0015721645 -0.024984742 0.061468177 -0.018561358

_model.layers.1.conv._module_list.1.wsv.bias f4 [2]
000000 67 00 90 bc 13 ed d0 bd
       -0.017578317 -0.10201468

_model.layers.1.norm.0.scalar_norm.weight f4 [6]
000000 47 47 8a 3f 0f cd 6d 3f b9 98 82 3f 5e bf 71 3f
       1.0803002 0.9289102 1.0202857 0.9443263
000010 17 a0 78 3f 4c d1 80 3f
       0.9711928 1.0063872

_model.layers.1.norm.0.scalar_norm.bias f4 [6]
000000 70 67 ed bd c1 ab 33 bd 8c 7b 89 bd b2 64 a2 3d
       -0.11591995 -0.04386497 -0.06713018 0.07929362
000010 c1 a9 c6 3b 99 c5 0a 3e
       0.0060627167 0.1355194

_model.layers.1.norm.1.scalar_norm.weight f4 [6]
000000 c8 92 8c 3f 9c fe 50 3f f3 5b 80 3f 04 d1 6a 3f
       1.0982294 0.81638503 1.0028061 0.9172518
000010 b6 f5 7d 3f ae 0c 80 3f
       0.9920305 1.000387

_model.layers.1.norm.1.scalar_norm.bias f4 [6]
000000 c5 a3 15 be 6f 21 80 bd 97 21 f6 bd cb 7d 0c 3e
       -0.14613254 -0.06256377 -0.120181255 0.13719861
000010 fe c9 d8 bd 66 c6 4e 3e
       -0.10585402 0.2019287

_model.layers.1._module_list.0.wh.weight f4 [4, 2]
000000 b0 02 b3 3e 4d 1a 18 3f b0 b5 16 bf 69 4b 59 3d
       0.34962988 0.5941513 -0.58870983 0.053050432
000010 3d 64 f1 3e f5 34 0c 3e 59 07 3b 3e af f6 f7 be
       0.47146788 0.13692077 0.18264522 -0.48430392

_model.layers.1._module_list.0.ws.weight f4 [24, 10]
000000 12 b4 80 39 d6 4a bd 3d 73 95 85 3e c0 ec 33 3e
       0.00024548225 0.092427894 0.26090583 0.17570782
000010 4a aa 81 3c 4c 2e 60 be 78 03 8c 3e 16 3c c3 3d
       0.01582827 -0.21892661 0.27346396 0.09532945
000020 b6 b7 ae bd 86 2d a2 3e 5c e8 c1 3d 33 4e fd bd
       -0.08531134 0.31675357 0.09468147 -0.12368431
000030 29 51 b1 be 25 c3 4f be 0a 16 ae bd bc 40 2e 3e
       -0.34632233 -0.20289285 -0.08500297 0.17016882
000040 fe 64 89 3e 60 a9 ac be 45 1e 80 3c 22 a4 3c bd
       0.26834863 -0.33722973 0.015639434 -0.046054967
000050 cf 73 14 3e ad 7a 79 be 59 38 f0 bd 82 bd 72 3d
       0.14497302 -0.24363203 -0.117294975 0.05926276
000060 c9 3f a9 3c a2 42 57 3e fd 97 44 bd 80 c6 5d 3d
       0.020660298 0.21021512 -0.04799651 0.054144382
000070 a6 e1 92 3d 75 98 82 3e 9a 0d 9f bd ee 7b 91 3e
       0.07171945 0.2550694 -0.07766266 0.28414863
000080 94 c3 b2 3c 30 1f 84 3e 1e 1c 52 3e e7 bb b4 3d
       0.021821775 0.25805044 0.20518538 0.08824902
000090 67 ed 02 be 8e 94 04 bd fb ad 49 bd 1c b5 30 3e
       -0.12785874 -0.032368235 -0.049238186 0.17256588
0000a0 eb e8 a9 be d1 06 4a be 44 de b8 bd 5a a0 05 bd
       -0.33185515 -0.19729163 -0.09026769 -0.032623626
0000b0 fa 72 f9 bd b7 d3 b1 3c a7 ab c9 3c 16 78 5f 3d
       -0.12180133 0.021707399 0.024617983 0.054557882
0000c0 1a 66 5b 3e 1c ef b9 3e e7 c8 b3 3d ad 5e 6b 3e
       0.21425667 0.36315238 0.087785535 0.22985335
0000d0 1d fc 73 be 83 7b 87 be 64 20 f4 3d 69 fc d3 3d
       -0.23826642 -0.2646142 0.119202405 0.10350878
0000e0 77 f8 ca bd 48 b9 ad bd 5e 40 83 bc 0d 8a 5f bc
       -0.09910672 -0.08482605 -0.016021904 -0.013643754
0000f0 e2 18 e0 3d 8c 23 9f bd a3 d2 4f 3d 29 90 46 3e
       0.10942246 -0.07770452 0.05073799 0.1939093
000100 e1 4d 09 be 99 b1 dd bd 8c 20 ad be 61 ca 08 be
       -0.13408615 -0.1082489 -0.33813894 -0.13358451
000110 82 b2 ae 3c e2 98 43 3d c2 11 73 bb 25 2a a8 bd
       0.021325354 0.047753222 -0.0037089442 -0.082111634
000120 c6 6c 73 3b f9 e7 98 be dc 8d e9 bd de cd d4 3d
       0.0037143691 -0.2986448 -0.11404011 0.103908285
000130 20 46 82 3d 3e b7 7e 3e 45 4b 21 bd 86 eb 8f 3e
       0.063610315 0.24874589 -0.039378423 0.28109378
000140 a9 63 2d 3e 82 fb 19 3c ee 16 19 be 6d 88 07 be
       0.16932549 0.009398343 -0.14950153 -0.13235636
000150 8c c6 ac bd b2 f1 6e 3e c6 72 00 3e 92 ba f4 3d
       -0.08436307 0.23334387 0.12543783 0.11949648
000160 ba 31 12 be 2b c3 2c be 20 50 d2 bd 0b 14 d4 3c
       -0.14276782 -0.16871326 -0.10269189 0.025888463
000170 75 44 63 bc 3f 4d 7e 3e 8f b9 8c be c5 a2 48 be
       -0.013871302 0.24834155 -0.2748532 -0.19593342
000180 ca d7 c9 bd b4 be 81 bc 94 dd a6 be e1 3b f4 bd
       -0.098556116 -0.015838005 -0.32590926 -0.119254835
000190 f3 56 2b be 5e 05 80 3e b8 d2 ac bd 63 68 17 be
       -0.16732387 0.25004095 -0.08438629 -0.14785914
0001a0 6e a0 17 3e f1 99 0b be a1 6d 8c bc 62 50 46 3d
       0.14807293 -0.13632943 -0.017142119 0.048416503
0001b0 b9 40 9a bd 8c 45 e2 bd ae a7 78 bd 6c 8f 56 3e
       -0.07531876 -0.11048421 -0.060706787 0.20953149
0001c0 e0 fb b2 3d 52 f6 23 3e 08 8f 87 3d 81 ee 2e 3d
       0.087394476 0.16011932 0.06619078 0.042707924
0001d0 f1 59 15 be 3d 5b 1e be 91 cf 8a 3d 6f 60 f3 bd
       -0.14585091 -0.15464492 0.067778714 -0.118836276
0001e0 64 15 87 3e ca 86 29 be 04 c2 59 be 79 13 fa 3c
       0.26383507 -0.16555324 -0.21265417 0.030526863
0001f0 73 3c 0d 3e 93 b3 38 be eb 63 04 3e 51 1d d4 3d
       0.13792591 -0.18037252 0.1292874 0.10357154
000200 f1 8b 57 be 29 99 88 be 1a dd 0c bd 5a 9a a9 be
       -0.21049477 -0.26679352 -0.034390546 -0.33125573
000210 8c 5d 7f bd ab 38 09 3d b8 9e 72 bd 05 5e 7c bc
       -0.062345073 0.03350131 -0.059233397 -0.015403275
000220 4e 54 13 be 03 9c 90 3d 16 7e 7c bd 52 86 5c 3e
       -0.14387628 0.07061007 -0.061643682 0.21535614
000230 cb 64 25 3e ae 5e 83 bd 00 16 38 bd 9c ba 9b bc
       0.1615173 -0.06414543 -0.044942856 -0.01900988
000240 de 51 52 3d d9 e5 2b 3e 99 d2 2b be 1e c6 26 be
       0.051347606 0.16786899 -0.16779555 -0.16286513
000250 f0 f8 8d 3e f4 d3 5d 3e d2 01 6c bd 15 32 28 3e
       0.27728987 0.21662885 -0.057618923 0.16425355
000260 e0 8f 64 be 4c 4c c4 3e 7c d2 47 be 45 95 ce be
       -0.22320509 0.3833946 -0.19513887 -0.4034826
000270 23 94 14 bd be b0 d4 3d fa 5a 6b bb 7a 1e 3e 3e
       -0.036274087 0.103852734 -0.003591238 0.18566313
000280 fc 1a 4c bd 45 6f fe 3b fe 10 5c be 1e 3b 96 3d
       -0.04983042 0.007764729 -0.21490857 0.073354945
000290 9c 26 5d 3c 92 14 95 bd 50 70 5b be 5a 88 fd 3c
       0.013497975 -0.07279314 -0.21429563 0.030948807
0002a0 7b 07 d7 3d 8c 93 61 3e d0 22 80 3d 42 09 20 bd
       0.10499474 0.22028941 0.0625664 -0.03907133
0002b0 b8 53 a2 3c f7 9d ff bd 53 98 d2 3e 07 57 61 3d
       0.01981531 -0.12481301 0.4113184 0.055014636
0002c0 3e a0 a2 3e c6 fb 8b bd ee ee 56 bd 8c d2 eb bd
       0.3176288 -0.06835131 -0.052473955 -0.11514768
0002d0 2a af aa 3e f5 15 17 be 0a e5 4d be cc a5 37 be
       0.33336765 -0.1475447 -0.20106903 -0.1793434
0002e0 a8 64 03 bd ee 31 8d 3e bf e5 d4 bd 8e 50 03 be
       -0.032078415 0.27577156 -0.10395383 -0.12823698
0002f0 43 65 1a 3e c3 98 ba 3d e6 04 31 3e 4f 73 c8 3d
       0.15077691 0.09111168 0.17287025 0.09787618
000300 d4 7a 0b 3e 4d d6 72 be b1 b2 d4 3d 6d e8 8e 3e
       0.13621074 -0.23714562 0.10385645 0.27911702
000310 79 0b 00 be d2 74 9e 3e c5 09 51 be f8 f4 a0 bd
       -0.12504376 0.30948502 -0.20413883 -0.07859224
000320 28 b8 fb 3b 06 1a 9b be e2 b6 10 3e 2d 89 2b 3e
       0.0076818652 -0.30293292 0.14132264 0.16751547
000330 9b 18 92 3c 40 6a be 3c 4c 53 11 be e6 75 14 be
       0.017833998 0.023244023 -0.14191931 -0.144981
000340 64 66 c3 3d 63 f3 28 be b4 a2 61 3d 0c cb bb be
       0.09541014 -0.16499095 0.055086806 -0.3667835
000350 74 2c a0 be 00 b0 65 3e bd 1d 81 be 9c 8f 41 3e
       -0.31283915 0.2243042 -0.25218 0.18902439
000360 a5 7e b9 3d 4f d2 7b 3e de a1 75 3c 58 d6 bf 3d
       0.09057359 0.24591945 0.014992205 0.09367055
000370 4d ca a4 bc 14 34 0d bd c7 c7 46 3d 31 a7 7b 3d
       -0.020115996 -0.034473494 0.048530366 0.061438743
000380 e6 b0 55 3e 0b 3a 5d bd 79 4e 42 3e 88 1d 1c 3e
       0.20868263 -0.054010432 0.18975247 0.1524564
000390 47 10 74 3e fe 68 03 3e 63 e8 65 3d 63 84 b0 3e
       0.23834334 0.1283302 0.056129824 0.34476003
0003a0 38 e8 6d be 96 81 d4 3d 74 c9 1b 3e a7 04 fe 3d
       -0.23233116 0.10376279 0.15213567 0.12403231
0003b0 e8 69 8e bd 0a 1c 02 be 3f 72 ba 3d b8 b9 88 bc
       -0.06953794 -0.12706009 0.09103822 -0.01669012

_model.layers.1._module_list.0.ws.bias f4 [24]
000000 6b 4e 53 3e e1 3a ff 3d da ae 47 bd 0b ff 37 bd
       0.20635383 0.12462402 -0.048750736 -0.044920962
000010 97 1f 7d 3e 9d 49 a3 bd 51 6f bc bd 60 e0 19 3d
       0.24719082 -0.07973025 -0.092009194 0.037567496
000020 90 d5 2b be b3 65 b2 bd 0c ce ac 3d 1c 37 cc 3d
       -0.16780686 -0.08710804 0.08437738 0.09971449
000030 0b 59 6e 3e 17 04 94 3d c1 1e 1e 3e ac b2 75 be
       0.23276155 0.072273426 0.15441419 -0.23993939
000040 e2 9b d7 3c a7 60 02 3e 74 7f 0a 3e 4e 23 db 3e
       0.026319448 0.12732182 0.13525182 0.42800373
000050 de e1 00 3e 79 90 16 3e 0d 1f 3c be 72 7d df bd
       0.12586161 0.1470355 -0.1837122 -0.10912599

_model.layers.1._module_list.0.wv.weight f4 [4, 4]
000000 f8 91 31 3d ac fa bd 3e dd a5 17 bf 96 6e 93 bd
       0.043352097 0.3710531 -0.5923746 -0.07198827
000010 69 a3 11 bf 58 b5 27 3e 1f 3e 24 3e 74 b6 0a 3f
       -0.5688997 0.16377771 0.16039322 0.5418465
000020 be cf a9 3d f4 6e 04 be 4d aa 85 3d 0e 7d 17 3d
       0.08291577 -0.1293295 0.06526623 0.036984496
000030 de b2 dc bb 18 c3 3c be 9e 9c 61 3e 48 51 a1 3d
       -0.00673519 -0.18433797 0.22032401 0.07876831

_model.layers.1._module_list.0.wsv.weight f4 [4, 24]
000000 b2 6d b5 bd 8b 16 27 3e 11 f3 8c 3e 66 84 41 3d
       -0.08858813 0.16317193 0.27529195 0.047245406
000010 80 f5 02 3e d4 4f c5 3d f1 0e dc bd e1 76 d3 3d
       0.12788963 0.09634367 -0.10745037 0.10325409
000020 1e b4 26 3e 5d f9 04 be ae 84 96 bd fa 31 99 bd
       0.16279647 -0.1298575 -0.073495254 -0.074802354
000030 f3 f8 a4 bc fd ad 17 3e 4e 4f c2 3d 57 50 8e bd
       -0.02013824 0.14812465 0.094877824 -0.06948917
000040 2a 16 fd 3d 8d ce ac bd f8 df 51 3e 8e e8 cb 3d
       0.12357743 -0.08437834 0.20495594 0.09956466
000050 5b f7 cf 3c c5 22 85 3e 5e 7f 07 bd 83 29 b7 3d
       0.025386503 0.2600309 -0.03308045 0.089434646
000060 0c fa 81 3e 0d 42 db bd c0 ea 11 be ae 74 f1 bd
       0.25386083 -0.107059576 -0.14249706 -0.11789833
000070 41 68 ea bd 2e 9b cb bd 5b 9e 8c 3d d0 1f 67 bd
       -0.11445666 -0.099417076 0.068661414 -0.056426823
000080 43 96 5e be 8f 0d 0a bd 1f f4 94 3d 82 19 3c 3b
       -0.21737008 -0.033704337 0.07273125 0.0028701727
000090 94 77 65 3e a6 e6 dc bd c5 ca 10 3d 85 66 2b 3d
       0.22408897 -0.1078618 0.035349626 0.041845817
0000a0 f2 06 85 bd ab 29 5e 3e 29 21 35 be e5 1a d2 bd
       -0.06495465 0.21695583 -0.17688431 -0.10259036
0000b0 af 3e 8e bd 52 e0 3f be 34 41 20 3e e4 2e f7 bd
       -0.0694555 -0.18737915 0.15649873 -0.120694906
0000c0 94 2e 6f 3c 3a 09 b8 bc 41 2e ad bc 8c dd bd ba
       0.014598507 -0.022465337 -0.02114022 -0.0014485582
0000d0 2b da 71 bc bb fd ac bb 34 fe 46 3c 6d 8c 43 bc
       -0.014761488 -0.0052792705 0.012145568 -0.011935336
0000e0 0b ff 54 bc 1e cb 8e 3c 56 d1 06 3c f6 c8 f6 3b
       -0.01300026 0.017430838 0.0082286205 0.0075312806
0000f0 51 3e a1 3a d2 50 67 bc e4 c3 2e bc 1e c4 c4 3c
       0.0012301897 -0.01411839 -0.010666821 0.024019297
000100 23 ee 3a ba f5 9e 63 bc 3e cb c5 bc 16 89 59 bc
       -0.0007130822 -0.013892879 -0.024144765 -0.013277313
000110 a6 4a a1 bb b7 b0 f5 bc cd fd 0e 3b 65 ca 5d bb
       -0.004922229 -0.02999149 0.0021818758 -0.003384256
000120 40 6e 0e 3d 22 0b b7 bb 04 58 9e bc a4 76 c3 3b
       0.03477311 -0.005586044 -0.019329078 0.005965071
000130 f7 fd 14 bb c1 16 5f bc ac 4d 51 3c cc bd 95 bc
       -0.0022734383 -0.013616265 0.012774866 -0.018278979
000140 e4 f1 98 bc b0 b5 f7 3c 88 4e 11 3c 59 47 ea 3b
       -0.01867003 0.030238003 0.008868821 0.0071496186
000150 1d 3f 6c 3c 80 40 9a bc 1e 94 15 bc 3c 40 45 3d
       0.014419344 -0.018829584 -0.009129552 0.04815696
000160 84 39 a5 3b 26 63 e4 bc 41 dd c5 bc 88 8c ea bc
       0.005042257 -0.027879309 -0.024153354 -0.028631464
000170 4b 6a 40 bc 48 73 45 3b a2 41 76 3a ea 56 0b 3c
       -0.011744092 0.0030128527 0.00093939353 0.008504609

_model.layers.1._module_list.0.wsv.bias f4 [4]
000000 b8 1f e1 3d b8 fa 33 3e 43 f9 76 bc 2a c3 0e 3c
       0.10992378 0.1757611 -0.015074077 0.008713523

_model.layers.1._module_list.1.wh.weight f4 [4, 4]
000000 7b 8a 75 3e e4 66 7a be 80 a0 79 bd c1 dd 15 be
       0.23978607 -0.24453312 -0.06094408 -0.14635374
000010 2e d0 91 3d 2d 48 f2 3d b2 d4 10 3e f9 8c fb 3d
       0.07119785 0.11830173 0.14143637 0.12282748
000020 66 90 96 bd 31 b1 91 be 18 55 86 3d 34 50 41 3e
       -0.073517606 -0.284555 0.06559199 0.18878251
000030 10 ae 0c bf 85 30 d2 be ea 2d 52 bd 03 7d 33 3d
       -0.549531 -0.41052642 -0.05131332 0.043820392
