reaction/train_ff_full/model.pt (torch, 9275 bytes, 7 tensors)

norm_in.mean f4 [21]
000000 6c 58 15 3e ae 9b 42 3e ff 6f 3d 3e cb c6 3a 3e
       0.14584512 0.190047 0.18499754 0.18239896
000010 5b a7 50 3e 2b 5d 6d 3e 7f 33 57 3e b3 27 5c 3e
       0.20376341 0.23180072 0.21015738 0.21499519
000020 ca b8 5d 3e 56 eb 47 3e ca f1 08 3e d1 01 98 3e
       0.21652523 0.19523367 0.13373485 0.29688886
000030 f3 1a 99 3e db f1 9c 3e e8 04 93 3e c7 ca 97 3e
       0.29903373 0.3065327 0.2871468 0.29646894
000040 f7 12 9d 3e 97 fd 93 3e 58 45 9d 3e 97 a1 90 3e
       0.30678532 0.2890441 0.30716968 0.28248283
000050 66 1c 86 3e
       0.2619354

norm_in.range f4 [21]
000000 b5 9b 7e 3b 9b 9b 4b 3d e6 64 45 3d 50 c8 3f 3d
       0.0038850133 0.049708944 0.048191927 0.046821892
000010 1c 74 52 3d 72 34 a6 3b 68 b2 46 3d fb 77 41 3d
       0.05138026 0.00507217 0.048509985 0.047233563
000020 3b 8a 3c 3d 5b 7d 42 3d 9d 9d 9a 3b cd bc 33 3d
       0.046030264 0.04748283 0.004718496 0.043881226
000030 2f 1c 3c 3d 6d dc 3f 3d 09 ea 6d 3d b0 3e 3e 3d
       0.045925315 0.046841074 0.05808452 0.046446502
000040 dd 90 43 3d 04 36 69 3d 46 60 4e 3d 51 17 58 3d
       0.047745574 0.05693628 0.050384782 0.05275661
000050 37 6f 2f 3d
       0.042830672

nn.nn.0.weight f4 [48, 21]
000000 b0 ec a5 bc 84 4a 7d 3c ea b4 83 bd 4e b2 93 3d
       -0.020254463 0.01545966 -0.06430991 0.07211743
000010 81 15 99 be 23 ea d9 3d 9b 08 4e 3e 6c b9 93 3e
       -0.2989922 0.10640361 0.2012047 0.28852403
000020 4a 83 38 3e f7 6a 11 bf 15 0d 27 be 2a 13 a2 3e
       0.18018833 -0.5680384 -0.16313584 0.31655246
000030 53 5f 03 3e 33 70 2e be 9a fb 20 bb b8 fb 17 3e
       0.12829332 -0.17034988 -0.0024564029 0.14842117
000040 20 5b 46 be e0 67 16 3e 46 a3 d9 be c3 a3 8c 3d
       -0.19370699 0.14688063 -0.4250738 0.068671726
000050 47 ed 06 bf 94 6d a2 3d 75 a4 c9 bd cd 31 7d bd
       -0.52705806 0.079310566 -0.09845821 -0.06181507
000060 4d 3d 3a be 7a 6f 7f 3e 06 e7 64 3b be 20 36 3e
       -0.18187447 0.24944869 0.003492774 0.17785928
000070 5f 90 3e be a4 16 1f be d2 6e 76 be 43 4b 22 bb
       -0.1860976 -0.1553598 -0.24065712 -0.0024764098
000080 06 1b dd bd 9d 89 50 3e 27 04 4c be 06 bf f0 3d
       -0.1079617 0.20364995 -0.19923459 0.11755185
000090 33 50 68 be 5a 41 3e 3e c9 cd b6 bd 83 d1 45 3c
       -0.22686844 0.18579617 -0.08925969 0.012073877
0000a0 fa 3a 4a bd b4 6d 2f be 6e 3a 62 be 98 04 71 3d
       -0.04937265 -0.17131692 -0.22092602 0.05884227
0000b0 b8 03 75 bb cf d8 f5 3c e4 a1 d7 bd 70 3d 88 3d
       -0.003738625 0.030010609 -0.10528925 0.06652343
0000c0 03 d8 35 be 81 7b 1d 3e f7 3b 30 be b1 b2 44 3d
       -0.17758183 0.15379144 -0.17210375 0.048021976
0000d0 e0 50 b8 bd 15 7b 66 bc 58 ea e8 3b 8c 2f 23 be
       -0.08999801 -0.014067431 0.007108014 -0.15936106
0000e0 83 4b 91 3e bc 3a 8f 3d e4 a6 84 be 54 68 0a 3e
       0.28377923 0.069936246 -0.25908577 0.1351636
0000f0 b8 34 69 be 7f 45 bc bb 34 2c a6 3e 26 ae 46 3e
       -0.22774017 -0.0057455893 0.324556 0.1940237
000100 49 61 9d bd 4c ff 0d bd 6a 6e 98 3e 03 25 39 be
       -0.07684571 -0.0346673 0.2977174 -0.18080525
000110 53 54 43 be ae ca 84 be 31 f9 34 3d 41 10 b5 be
       -0.19075136 -0.25935882 0.04418296 -0.35363963
000120 c7 76 5a 3e a0 41 52 3e 3d e6 22 3d 08 f9 e8 bd
       0.21334372 0.20532846 0.039770354 -0.11375624
000130 c6 bf 9b 3e d2 64 0e 3e c7 ee a7 3d 3e f3 c6 3d
       0.3041975 0.13905647 0.0819984 0.097143635
000140 4a c2 5f be 0d a7 23 be 3b 1b 3e bd a8 73 0e 3e
       -0.21851459 -0.15981694 -0.046412688 0.13911307
000150 37 5c 7c 3d c8 05 92 bd 59 9b d6 3c 25 6e bd 3d
       0.06161138 -0.07130009 0.026197122 0.09249524
000160 5f 16 ed 3d 1a e4 8c bc cb 8e 70 be 48 8f 0e bd
       0.115765326 -0.017198611 -0.23491971 -0.034804612
000170 cf 8b b5 3e 78 2d ee be 16 63 87 3e 31 8c 0a bd
       0.35458228 -0.46519065 0.26442784 -0.033825103
000180 3e 8e 92 3e 92 fc 0a be e9 9d 00 bf 33 e3 84 3e
       0.28624147 -0.1357291 -0.5024095 0.2595459
000190 da 63 da bd aa d4 74 3d 07 2d f8 3d 8b b2 2b 3e
       -0.106635764 0.059773125 0.12117963 0.16767327
0001a0 0f 8a e4 bd 04 ae 66 bd 4f 08 bd bd 86 69 97 3e
       -0.11159145 -0.056318298 -0.092301 0.29572695
0001b0 af fa 3a 3e 24 cd 54 3e 47 a8 04 3e 66 3e a9 be
       0.1825969 0.2078138 0.12954818 -0.3305542
0001c0 9e 72 40 be ec 24 f6 be 0f 62 a0 3e e5 41 d9 bd
       -0.18793723 -0.48075044 0.31324813 -0.106082715
0001d0 7c 56 db be ab cf c2 be 6d c2 d9 3e c3 1d c9 be
       -0.4283942 -0.38049063 0.42531148 -0.3928052
0001e0 2f 1f ce be 22 42 d1 3e 80 b9 c1 bd 2c a7 b5 3d
       -0.40258166 0.40870768 -0.094592094 0.08869776
0001f0 ee d1 ed be 75 dc 94 3e f0 26 9f bd 2a 09 9f 3d
       -0.46449226 0.29074445 -0.077710986 0.0776542
000200 9c 23 f8 bd 69 64 a2 bc 4f b8 9f bd af de 27 3d
       -0.12116167 -0.01982327 -0.07798826 0.040983852
000210 55 91 b1 bd a5 bf b8 3d 4d ab 44 3e 39 97 1a 3d
       -0.08670298 0.09020928 0.19205971 0.037741873
000220 18 ef fe 3d 25 b3 41 bd 2c 14 3a be b3 62 a9 3e
       0.12447947 -0.047289986 -0.18171757 0.33083114
000230 06 ce 15 be 0c a0 8b 3d ff 21 b2 be b0 06 4a 3e
       -0.14629373 0.06817636 -0.34791562 0.19729114
000240 37 6d a5 be 2c 35 9b 3e 0f e7 bc bd ee 40 60 be
       -0.32309887 0.30314004 -0.092237584 -0.21899769
000250 4b ec 08 be c5 57 d2 3e 69 d8 2a bc ed 2d bc bd
       -0.13371389 0.41082588 -0.010427573 -0.09188447
000260 f3 05 1c 3d ae 04 b6 bd 74 d9 fc bb 35 fe 17 3e
       0.03809161 -0.08887611 -0.007716352 0.14843066
000270 63 42 01 3d 0e 83 20 3e 35 44 3b be 4d b5 80 3d
       0.031557452 0.15674993 -0.18287738 0.062845804
000280 ab 93 2f bc d8 b4 30 3e bf 3c 8d 3e 76 2d cd 3d
       -0.010716359 0.17256486 0.27585408 0.100184366
000290 5a 1f 5d be 16 ce 24 be dd 8a cf bb f2 8c 67 bd
       -0.21593991 -0.1609424 -0.0063336925 -0.0565309
0002a0 7a 04 09 be 86 be 42 bf 32 70 67 3e 18 3b f6 bd
       -0.13380614 -0.76071966 0.22601393 -0.1202299
0002b0 7b 43 b5 3e 22 f4 b3 3d b3 1e 5f be 94 39 36 3e
       0.35403046 0.08786799 -0.21789055 0.17795402
0002c0 1e 1d 56 be 04 56 83 3c 92 f1 bf bb 11 13 6f be
       -0.20909545 0.016032226 -0.005857655 -0.23347117
0002d0 89 09 fe be e1 09 ae bd bb 36 9b bd 5c 0a f0 3d
       -0.4961665 -0.08497978 -0.075787984 0.11720726
0002e0 e1 75 9f 3e b6 71 f7 3d 7f 10 38 3c ab b4 5d bd
       0.31144622 0.120822355 0.011234402 -0.054127377
0002f0 14 a5 37 bd 77 df 41 be 5a ad 31 be 9a f1 0d be
       -0.044835165 -0.18932901 -0.17351285 -0.13861695
000300 ea 0e aa bd d8 04 33 3e 9c 9f 2d bd 4d 79 73 3e
       -0.08303626 0.17482316 -0.042388543 0.23776741
000310 b4 76 1f be fc d3 79 be 72 c4 6a 3d 0f be 95 bd
       -0.15572625 -0.24397272 0.05731625 -0.073116414
000320 17 6f 81 3e 39 a9 43 3c 8f 8e bf 3b 4b bf f4 3d
       0.25280067 0.011942201 0.0058458517 0.11950549
000330 66 a7 33 3e 2f 63 23 be 1e 0f 9e bd 3f 87 68 be
       0.17544326 -0.15955804 -0.07717727 -0.22707842
000340 3e c0 55 bd d8 f4 8a be 44 2a 00 3e 53 c4 95 3e
       -0.05218529 -0.27139926 0.12516123 0.29251346
000350 fc 7a ab bd dd 6f d9 3d 21 1a aa 3e 2f fb cc bd
       -0.08373067 0.10617039 0.3322306 -0.10008847
000360 84 54 0c 3f e1 fa 2c bf dc eb e0 3e 00 72 e3 bd
       0.5481646 -0.6757031 0.43929946 -0.11105728
000370 41 80 05 3e 8e f7 b7 be 8f 4b cc 3d 5f 88 a6 3e
       0.13037206 -0.35931057 0.09975349 0.32525918
000380 56 b4 a8 3e 55 77 e7 be 0e 5b bd be 9a 1a 2e bf
       0.32950085 -0.4520823 -0.36983532 -0.6800934
000390 36 60 2d be 8e 7c d6 bd 87 ac 09 3c 6d 82 08 3e
       -0.16931233 -0.10472976 0.00840295 0.13331003
0003a0 5d 8a f5 3d 57 d4 42 3e 43 32 3a bc 90 de a9 3d
       0.11989281 0.19026314 -0.011364522 0.082944036
0003b0 8b 90 07 3c 03 0a 3a 3e f2 4a c8 3e 63 87 0a 3d
       0.008274208 0.18167882 0.3911968 0.03382052
0003c0 61 72 db be b0 54 33 3d 22 73 d1 3d 11 9b 69 3e
       -0.42860702 0.043781936 0.10227038 0.2281306
0003d0 b7 c1 8f be 6f c8 19 3e e1 20 50 3d 9d a5 3c be
       -0.2807748 0.15017866 0.050812606 -0.18422551
0003e0 e8 2e 88 3e 58 50 dd bd 98 37 93 be 3d 39 ea be
       0.26598287 -0.1080634 -0.28753352 -0.45746794
0003f0 e7 43 0d be f8 61 65 be 3c 8f 9a 3e 2b 81 12 bf
       -0.13795434 -0.22400653 0.30187404 -0.57228345

nn.nn.0.bias f4 [48]
000000 f2 ef 55 3e 3e 19 9b 3e 54 af d4 3d 51 67 be bd
       0.20892313 0.30292696 0.10385004 -0.0929705
000010 8b 90 14 3d 1b 1d bf 3c 4b be e8 bc 11 29 82 3e
       0.03627066 0.023329308 -0.028411051 0.25421956
000020 3f a4 94 3e 5c 67 44 3e 43 cc 0e 3e 5d 90 9c 3c
       0.2903156 0.19180053 0.13945107 0.019111807
000030 a6 cc bc bd 17 3d 21 3e 1b 51 0a 3d c4 76 57 bc
       -0.09218721 0.1574596 0.033768754 -0.0131508745
000040 96 c1 de bb bf ee 98 3e 64 c3 55 3e 88 54 8a bd
       -0.0067979796 0.2986965 0.20875317 -0.06754404
000050 9c 2e f2 3d 52 d0 81 3e 90 ae d6 be 14 f3 a9 bc
       0.11825296 0.25354248 -0.41930056 -0.020745791
000060 20 d5 b8 3e 0a 86 fe bc b2 77 bd bc fc 12 d8 3d
       0.361001 -0.031069774 -0.023128364 0.10550496
000070 df 1c 47 3e a0 32 d8 3d 6a 7f ce 3e a2 96 f3 bd
       0.19444607 0.10556531 0.40331584 -0.11893965
000080 82 f1 f8 3d 70 07 87 bb 67 c3 53 3e 61 b4 51 be
       0.12155439 -0.0041207597 0.20680009 -0.20478965
000090 a7 5d b8 bd 85 cf 30 be 3f 2e d6 3d 17 58 4a 3e
       -0.09002238 -0.17266662 0.104580395 0.19760166
0000a0 b7 6a 46 bc 03 65 f2 3d e4 a0 7e 3e 6f b3 31 3e
       -0.012110404 0.11835673 0.24866062 0.17353605
0000b0 8c e8 a5 3c 84 3c 16 3e e7 dd 3d bd 2b 4d 52 3e
       0.020252489 0.14671522 -0.0463542 0.2053725

nn.nn.2.weight f4 [12, 48]
000000 e7 f7 78 3d 1f d3 08 3e f0 70 fc 3c 53 34 57 bb
       0.060783293 0.13361786 0.030815572 -0.0032837584
000010 51 9d 3e be 49 e7 b3 be f8 3b e7 3d 94 c7 ed 3c
       -0.18614699 -0.35137394 0.11290735 0.02902583
000020 ec dd 5a 3e e6 cf 9d 3d 3d 0d 8a be 6a 1e 26 be
       0.21373719 0.07705669 -0.26963225 -0.1622254
000030 7d 3f b3 3e 6f 45 e7 3d 71 0b 2c 3e 17 c5 2d 3c
       0.35009375 0.1129254 0.1680124 0.010606072
000040 cc 2d 01 3e f8 58 ee 3d 35 4c dc 3d 71 c5 6f 3d
       0.12615126 0.11638063 0.10756723 0.058537904
000050 c5 7c 18 bc 96 8c bb 3c 0c 9f 75 3e 3f 60 a2 bd
       -0.009307091 0.022894185 0.23986453 -0.07928514
000060 c6 53 21 be 19 54 8b be 7d 8d 8b be a1 32 21 3e
       -0.15754613 -0.272126 -0.27256384 0.1574197
000070 7e f5 22 be aa 7f 2a 3e c6 d4 ac 3e 4e c3 22 be
       -0.1591396 0.16650262 0.33756083 -0.15894815
000080 1c f9 2c 3e 9a 33 20 3d 7a 9c 4b bd 3c 48 80 3e
       0.16891903 0.03911171 -0.049709775 0.2505511
000090 c0 f0 2b 3e 61 80 3f 3e c1 2f f8 3e 1b fb a4 3c
       0.16791058 0.18701316 0.48473933 0.020139268
0000a0 16 38 42 bd f1 35 c5 bc 32 9a 0a 3e b1 dd c9 3e
       -0.04741677 -0.024073573 0.13535383 0.3942695
0000b0 a6 93 11 be 32 fe e0 3c ce 28 13 be 57 fe 68 3e
       -0.1421648 0.02746496 -0.14371035 0.22753273
0000c0 ac 5b 9f 3b af 5b e6 3d 17 0e 10 3e 4c 57 90 3e
       0.004863223 0.11247956 0.14067875 0.28191602
0000d0 23 51 83 3c 14 08 89 be 30 9d 41 3e 3a 70 34 3e
       0.0160299 -0.26763976 0.18907619 0.17620936
0000e0 62 b3 ea 3d c4 e8 94 be d9 ab ff be 66 02 ef bd
       0.11459996 -0.29083836 -0.49935797 -0.11670379
0000f0 32 4d 5e bd 11 f7 f7 3d 43 86 e2 3d 72 61 bd 3e
       -0.054272838 0.12107671 0.11060765 0.36988407
000100 9e 1c 9c 3c ef 53 6e 3c e0 37 a3 bd 2b ab 20 3e
       0.019056614 0.0145463785 -0.07969642 0.15690295
000110 ca be bc 3d 71 af 10 bd 97 9b 26 3e 51 ac f8 3d
       0.092160776 -0.035323564 0.1627029 0.12142242
000120 22 48 84 bd 86 5f d2 be ad a9 f6 be 66 24 26 3e
       -0.06459071 -0.41088504 -0.48176327 0.16224822
000130 9f 4e ae be 07 30 1f 3e 6b 9b 0a 3e 55 2d ae 3d
       -0.34044358 0.15545665 0.1353585 0.0850474
000140 80 bf 27 3e 3b ae 7c 3e c6 ed fc 3d af fe 78 3e
       0.16381645 0.24675839 0.12350039 0.24315904
000150 d6 a7 54 3e d0 c6 60 3e 65 5c fb 3e 91 3e 05 3e
       0.2076715 0.21950841 0.4909393 0.13012148
000160 30 48 b0 3d c2 0a 7b be 87 a2 2c 3e 2a e5 d1 3d
       0.08607519 -0.24515823 0.16858874 0.10248788
000170 ea 44 a7 bc b7 6e a6 3d bf b3 cb be 4c 90 7b 3e
       -0.020418603 0.08126586 -0.39785573 0.24566764
000180 6c 53 a1 3d 21 44 93 3d 2f fc 22 3e 1e 56 e7 bc
       0.078772396 0.07190729 0.15916513 -0.028239306
000190 86 7e eb bd a0 c2 93 be 7a 01 46 3e 18 95 ac 3e
       -0.11498742 -0.28859425 0.19336501 0.337075
0001a0 44 95 cc 3e 6c a1 03 3c 5c 78 c0 be aa d6 05 bd
       0.3995763 0.008034091 -0.37591827 -0.032675423
0001b0 18 d2 52 3e fa 10 f4 bb 93 c4 0e 3e 38 1e 61 be
       0.20587957 -0.007448313 0.13942175 -0.21984184
0001c0 06 c8 6f 3e 5a ee 6b 3e d5 ef a3 3c 79 ce 3b 3e
       0.23416147 0.23040143 0.020011822 0.18340482
0001d0 41 4a 4e 3e f9 01 d2 3d 10 aa 06 3e 9a 73 0f be
       0.20145513 0.102542825 0.13150811 -0.14008942
0001e0 11 a4 dd bd 8e 52 e6 be 27 24 84 be 02 48 e7 3d
       -0.10822309 -0.4498486 -0.25808832 0.11293031
0001f0 fd be 30 be 80 1f 28 3a 60 a6 93 3e d0 9a 1b be
       -0.17260356 0.0006413385 0.28837872 -0.15195775
000200 7f f2 b8 3e 53 04 dd 3d a1 f7 3c bd 8f 7c eb 3d
       0.3612251 0.107918404 -0.046134595 0.11498367
000210 6c 70 8c 3d 6d 21 d6 3d c2 4e ab 3e 07 fb a4 3d
       0.0685738 0.10455594 0.33458525 0.08055692
000220 c6 51 22 3e 3c e0 b4 3c d1 1e 13 3e a7 c4 35 3e
       0.15851507 0.02207958 0.14367224 0.17750798
000230 68 5a 00 be cf d7 09 3e 76 69 6c be e0 e9 0c 3e
       -0.12534487 0.1346123 -0.23087105 0.13761091
000240 c1 c6 c3 3e 05 6a fb bc 74 a1 7d 3e ba 14 0f 3e
       0.38237575 -0.030690202 0.2476862 0.1397275
000250 1d dd 46 3e 9f fa d6 3e 42 8e 06 3d 5a e5 f9 3d
       0.19420286 0.41988084 0.03285051 0.122019485
000260 19 1c 41 bd db 4c 2d 3d 31 87 7e 3e 3e 2b 40 3e
       -0.047145937 0.042309623 0.24856259 0.18766496
000270 c2 8c 9f bd 6d 65 36 3c 1a d1 34 bd 26 a2 0e 3e
       -0.07790519 0.01113258 -0.044144727 0.13929042
000280 aa df ae 3c 5e 4d 50 3e 5c b4 16 bc ec 83 34 be
       0.021346886 0.20342013 -0.009198274 -0.17628449
000290 96 f8 81 be 0b 4a e7 bb 17 f7 a0 be 19 62 4f bd
       -0.2538497 -0.007058387 -0.31438515 -0.050630663
0002a0 8e 9d 2e 3e 55 89 b7 3e a0 95 4c 3d a8 0c 15 bd
       0.1705229 0.35846964 0.04994738 -0.036389023
0002b0 e3 ce c3 3e 0d 1c d4 3d e9 47 03 be e9 65 32 3e
       0.3824378 0.10356913 -0.128204 0.17421688
0002c0 da 45 33 bd ea 62 bc 3d 6e 11 c9 3b 91 46 d7 3d
       -0.043767788 0.09198554 0.006136111 0.10511506
0002d0 75 25 f8 bd 72 63 e0 be 65 63 98 be 26 02 1c 3e
       -0.12116519 -0.4382587 -0.29763332 0.15235195
0002e0 61 41 6f 3d ed 74 1b 3d d5 ce 1d 3e 7f 8e bd be
       0.05841196 0.037953306 0.15410931 -0.37022778
0002f0 21 80 39 3e ac 8f 0b 3d 44 8d 4e 3e ac 85 df 3d
       0.18115284 0.034072563 0.20171076 0.10914168
000300 9a 70 c4 3e 46 3d 78 3e 1f 77 21 3e 55 bd 1a 3e
       0.38367158 0.24242124 0.15768097 0.15111287
000310 b8 12 92 3e 5b 53 f1 3e a1 5e cd 3d 07 7c 88 3d
       0.28529906 0.47133908 0.10027815 0.06664281
000320 e0 87 9d bd e6 ca 8c 3d 28 75 8b 3e 28 a6 69 3e
       -0.07691932 0.06874637 0.2723782 0.2281729
000330 9d 1e 2e bd ed be 22 3e d8 00 84 3d ed 62 8f 3d
       -0.042509664 0.15893145 0.064454734 0.070012905
000340 73 3e a5 3d ad 56 9a 3d fa e2 e8 3b 0c f5 c4 3c
       0.08068552 0.07536063 0.007107136 0.024042629
000350 94 c0 05 bc 60 50 71 bd 9c 5d 6b be 3c e7 70 3d
       -0.00816359 -0.058914542 -0.22984928 0.058814272
000360 09 ca 95 3e ee 6d 4e 3e fe a9 63 3e 4f a9 ca bd
       0.29255703 0.20159122 0.22232816 -0.09895574
000370 8c 68 f7 3e fe 40 ac 3b 18 2c b5 3d 24 1a 72 3e
       0.4832195 0.005256771 0.08846301 0.23642784
000380 41 85 70 3c 57 95 2c 3e 92 03 f8 bc ff a4 c1 3d
       0.014680208 0.16853844 -0.03027514 0.09455299
000390 61 0e 06 3e 6a c3 46 be 18 27 0f bf 19 5f bb bc
       0.13091423 -0.19410482 -0.5591903 -0.022872495
0003a0 75 57 15 3e 1f 7a b6 3d a3 2c a5 3e e3 9a 14 bf
       0.14584143 0.089100115 0.32260618 -0.5804884
0003b0 97 11 85 3d be 89 12 3d 65 2d 44 3e 2e 69 d6 bd
       0.064974956 0.035775892 0.19157942 -0.1046928
0003c0 00 28 ba be 02 85 b9 3e 11 ac 84 bd 61 bb a1 3e
       -0.36358643 0.3623429 -0.064781316 0.3158827
0003d0 02 d3 bb bd d5 2b dd be 0a cc 7b 3e 67 71 64 3e
       -0.09171106 -0.43197504 0.24589553 0.22308885
0003e0 70 b9 5b 3f d0 95 0c 3e 4a ba 12 bf 7e f1 68 be
       0.8582983 0.13729024 -0.57315505 -0.22748372
0003f0 a2 04 be 3e 22 36 38 ba af b7 82 39 b2 54 35 bf
       0.3711291 -0.00070271094 0.00024932387 -0.7083236

nn.nn.2.bias f4 [12]
000000 2b c4 9b 3d 59 8a 86 bd bb de 87 bd c8 96 54 3e
       0.076057754 -0.065693565 -0.06634279 0.20760643
000010 f4 c0 37 3d 33 1d b8 3e 3f eb 0b 3d 37 17 e4 3d
       0.04486175 0.35959777 0.034159895 0.111372404
000020 b3 58 b0 bc bb 44 cf 3d 75 e8 48 bc e2 e9 b4 3d
       -0.02152667 0.10120531 -0.012262453 0.08833672

nn.nn.4.weight f4 [1, 12]
000000 f0 4b 83 3e 17 91 85 3e fe 7b e7 3e 5f e0 f6 be
       0.25643873 0.26087257 0.45211786 -0.48218057
000010 36 11 aa be 10 e9 0c 3f 5f bc d6 be 26 d0 b4 3e
       -0.33216256 0.55043125 -0.4194059 0.35315055
000020 fd 71 12 3f cb 91 c9 3e da a3 2a bf d6 01 bc be
       0.5720518 0.39369044 -0.6665627 -0.3672015
