nacl/train/6A_2layer_1c_h/model.pt (torch, 45097 bytes, 73 tensors)

_model._radial_embedding.bessel_fn.bessel_weights f4 [8]
000000 92 0a 06 3f 92 0a 86 3f db 0f c9 3f 92 0a 06 40
       0.5235988 1.0471976 1.5707964 2.0943952
000010 36 8d 27 40 db 0f 49 40 80 92 6a 40 92 0a 86 40
       2.6179938 3.1415927 3.6651917 4.1887903

_model.W_e.0.scalar_norm.weight f4 [8]
000000 35 e7 bd 3f ba 89 6c 3f 5d f0 8e 3f 61 e5 69 3f
       1.4836184 0.92397654 1.1167103 0.9136563
000010 34 e7 e8 3e 44 d4 d0 3e 54 f8 c8 3e 96 b0 2b 3f
       0.45488894 0.40786946 0.3925196 0.67066324

_model.W_e.0.scalar_norm.bias f4 [8]
000000 2f f6 f1 be 40 77 93 3e f7 cd 47 3e 64 15 ce 3d
       -0.47258136 0.28801918 0.19512163 0.10062674
000010 90 cb 83 bd 1a 66 31 3d a2 9e 67 be bf 86 2b be
       -0.06435311 0.043310262 -0.22619107 -0.1675062

_model.W_e.1.ws.weight f4 [6, 9]
000000 7b b6 5a bf 04 53 ac 3e 62 25 e2 3e cb 98 55 3e
       -0.85434693 0.33657086 0.44169146 0.20859067
000010 fb 7e a2 3e 62 be aa bd 6c c1 1e be ad 58 e9 be
       0.31737503 -0.08337094 -0.15503472 -0.45575467
000020 54 96 6d 3e 18 ac 2a bf 7f 57 ce 3e f4 93 a6 3e
       0.23201877 -0.66668844 0.4030113 0.32534754
000030 f8 8c a8 3e 16 72 c9 be 3c db 52 3d bf e9 99 3e
       0.3292005 -0.39344853 0.05147861 0.30061147
000040 9f f3 b8 bd 7e 88 3c 3e 87 76 f3 bd 56 5f c0 3e
       -0.09030842 0.18411443 -0.11887842 0.37572736
000050 8d 49 a7 bd af 56 e4 bd 88 b8 5e be 88 04 6f 3d
       -0.081683256 -0.11149346 -0.2175008 0.05835393
000060 fa b1 8d be 21 64 82 be f8 a8 ce 3d 21 f0 94 be
       -0.27674848 -0.25467017 0.10090822 -0.29089454
000070 d9 37 4d bc d3 cb 8f 3e e9 c4 c6 3e 04 41 73 bd
       -0.012525522 0.28085193 0.38822106 -0.059388176
000080 5e b9 0d be 40 59 80 bd c2 a0 1a 3d 91 3d ad 3c
       -0.13840243 -0.06267023 0.037750967 0.021147521
000090 9a 42 87 bf b1 2c fa 3d cd fd d9 3e d3 97 9b bb
       -1.05672 0.122155555 0.42576447 -0.0047483235
0000a0 d3 3f ac 3d 7a e9 1f be 8a 9a 9c bd 22 28 67 be
       0.08410611 -0.15616408 -0.076466635 -0.22573903
0000b0 03 8b 9f 3e 92 94 f8 be c4 54 01 bf 3f 8b ff 3e
       0.31160745 -0.4855085 -0.5051997 0.49910924
0000c0 df a3 ed 3e a5 21 f2 3d 67 0a 8b bd 98 cb 23 bd
       0.46414086 0.118228234 -0.067890935 -0.039989084
0000d0 3f 5e 59 be 70 5f 69 3e
       -0.21227358 0.22790313

_model.W_e.1.ws.bias f4 [6]
000000 6e 65 ff 3d 92 7d a9 3e c7 a2 2a 3e be 53 0d 3e
       0.12470518 0.33103615 0.16663657 0.13801476
000010 3c 22 88 3e f5 94 9b bd
       0.2658862 -0.07596771

_model.W_e.1.wsv.weight f4 [1, 6]
000000 06 cf 50 bf ae 3d fd be f3 9a 60 be 73 1d 37 be
       -0.8156589 -0.4946112 -0.21934108 -0.17882328
000010 a6 27 33 bf 12 fb 0e be
       -0.69982374 -0.13962963

_model.W_v.0.scalar_norm.weight f4 [4]
000000 c9 86 bc 3f 39 84 a6 3f d8 55 c1 3f 60 7c 9d 3f
       1.4728633 1.3009101 1.5104322 1.2303581

_model.W_v.0.scalar_norm.bias f4 [4]
000000 2d cb 7a 3e 2d e8 72 3d c1 8c e2 3d 71 7e 9a 3d
       0.24491568 0.05930345 0.11062003 0.07543648

_model.W_v.1.ws.weight f4 [6, 4]
000000 40 bd 06 3f 03 f5 9b bc a0 77 57 3e cd 05 8a bd
       0.5263252 -0.01903773 0.21041727 -0.06739388
000010 4f 5a 82 3f 6e 40 a8 3e 07 ee 90 be fb 44 be bd
       1.018381 0.32861656 -0.283066 -0.09290501
000020 2b 16 9c 3e 6d 30 c5 be cb 9e d7 bb 9a 55 a4 3d
       0.30485663 -0.38513508 -0.006580209 0.0802414
000030 8a e9 fa bd 0d 1d 52 bf 41 25 89 3f 28 c9 90 3f
       -0.12251575 -0.8207558 1.0714494 1.1311388
000040 ef d4 ae 3e 63 61 6b 3d fa ba 65 bd 1e 14 88 3d
       0.3414683 0.057465922 -0.056086518 0.06644462
000050 cd 65 0f 3f 15 31 60 be 22 9c e1 be 9c ab 88 be
       0.5601471 -0.21893723 -0.44064432 -0.26693428

_model.W_v.1.ws.bias f4 [6]
000000 d7 fb 09 3f 26 96 a9 bd a8 01 22 bf 7c a7 1d 3e
       0.538999 -0.08280592 -0.6328378 0.15395921
000010 b3 bf d4 bd a1 13 6d bd
       -0.10388126 -0.057880048

_model.layers.0.conv._module_list.0.wh.weight f4 [9, 9]
000000 5c ae 01 00 5f 8b 07 00 28 83 01 80 aa 6a 01 00
       1.54384e-40 6.92845e-40 -1.38885e-40 1.301e-40
000010 24 2c 9e bd 38 f4 01 80 c3 d3 01 80 f5 f0 01 80
       -0.07723263 -1.79445e-40 -1.67801e-40 -1.78275e-40
000020 24 60 02 80 0a 4e 00 00 55 f8 00 80 e7 76 00 00
       -2.1816e-40 2.7995e-41 -8.9085e-41 4.2654e-41
000030 7d b3 00 00 0a c4 4b bd fd 05 02 80 e4 49 02 00
       6.4388e-41 -0.049747504 -1.85819e-40 2.10178e-40
000040 00 45 00 80 8a 9e 01 00 8e 32 02 00 ff 11 01 80
       -2.4753e-41 1.48709e-40 2.01807e-40 -9.8291e-41
000050 1d 2e 00 00 cf 7b 01 80 3f 03 58 3b 9b 34 01 00
       1.6542e-41 -1.3625e-40 0.003296092 1.10707e-40
000060 6d 93 02 00 b4 8c 01 80 60 87 01 00 62 06 01 80
       2.36557e-40 -1.4231e-40 1.40399e-40 -9.4125e-41
000070 b4 f7 01 00 90 53 02 00 ec c2 01 80 c0 e2 9f ba
       1.80695e-40 2.13648e-40 -1.6176e-40 -0.0012198314
000080 e9 25 01 80 99 b0 04 80 7e 41 02 80 31 2d 0a 80
       -1.05435e-40 -4.30693e-40 -2.07165e-40 -9.34567e-40
000090 41 d3 00 80 06 88 01 80 4e 9b 00 80 64 65 02 80
       -7.5784e-41 -1.40632e-40 -5.5713e-41 -2.20043e-40
0000a0 e9 75 cd 3d 84 9a 00 00 09 29 01 80 9f 4d 02 80
       0.10032255 5.543e-41 -1.06556e-40 -2.11516e-40
0000b0 34 73 01 80 e5 60 00 80 e7 ea 04 80 c7 ae 02 80
       -1.33163e-40 -3.4759e-41 -4.51609e-40 -2.46369e-40
0000c0 15 2c 01 80 67 b2 cc 3b 15 45 02 00 24 9d 01 80
       -1.07649e-40 0.006246853 2.08453e-40 -1.48207e-40
0000d0 9d d9 01 80 f4 ab 02 80 6b d4 00 80 bc 8b 02 00
       -1.699e-40 -2.45356e-40 -7.6201e-41 2.33798e-40
0000e0 2f 94 01 00 61 3e 01 80 66 06 a3 be 3c 1d 05 00
       1.44994e-40 -1.14213e-40 -0.3184082 4.69665e-40
0000f0 fe 8b 01 80 f5 d2 01 00 2f 65 00 80 73 5d 00 00
       -1.42055e-40 1.67513e-40 -3.6298e-41 3.3523e-41
000100 98 ed 00 80 02 ca 01 00 ed 91 00 80 09 a3 a9 3e
       -8.5233e-41 1.64302e-40 -5.2348e-41 0.33132198
000110 ae cd 00 80 f0 a9 03 00 96 91 00 00 08 95 02 80
       -7.3784e-41 3.36469e-40 5.2226e-41 -2.37133e-40
000120 f3 79 00 00 55 c4 01 00 5d bf 00 00 7f b7 02 80
       4.3747e-41 1.62266e-40 6.8648e-41 -2.49497e-40
000130 de e9 24 3e 71 ac 01 00 51 11 05 00 94 01 01 80
       0.16104838 1.53696e-40 4.6539e-40 -9.2402e-41
000140 0a 02 11 00
       1.561935e-39

_model.layers.0.conv._module_list.0.ws.weight f4 [6, 27]
000000 1b 4b 7e be 71 7e f4 bd 1d f0 20 be 4a 73 7c bf
       -0.24833338 -0.11938179 -0.15716596 -0.9861342
000010 df c3 c7 bd 7a 4f 81 be a7 d6 4a 3e 7f 01 1b 3d
       -0.09754156 -0.25255948 0.19808446 0.037843224
000020 23 27 93 bd e2 73 ee 3d 9e f7 f2 3d 38 77 76 3e
       -0.07185199 0.11643197 0.118636355 0.24068916
000030 30 21 dd 3d 5c 94 fc 3c d1 21 18 bd 14 2c da be
       0.10797346 0.030832462 -0.037141625 -0.42611754
000040 93 f5 0a 3e e8 c3 e7 bd ef b5 9c bb ab 7a 88 bb
       0.13570242 -0.11316663 -0.0047824304 -0.004165014
000050 38 d0 9f 35 12 da 83 b9 ea f3 b8 bb d2 63 d7 39
       1.1907023e-06 -0.00025148742 -0.005644311 0.00041082368
000060 c6 3d 24 bc c9 31 29 bc 25 a6 d8 bb 7f 65 34 bd
       -0.010024494 -0.010326811 -0.006611603 -0.044042107
000070 8a 58 cd 3e 38 6f a7 3e 2d 89 50 3d 39 45 91 3e
       0.40106612 0.3270204 0.05091207 0.28373125
000080 f3 ae 06 3f 3f b7 83 bd d9 23 63 be 0d 03 2d 3d
       0.526107 -0.06431436 -0.22181644 0.042239238
000090 42 79 88 be 80 18 cc be aa f9 0b bf c5 f1 a9 bd
       -0.26655012 -0.39862442 -0.5467783 -0.08298067
0000a0 f7 90 28 3e 04 d5 88 3e 0f 04 e0 be 22 f5 9d 3e
       0.1646155 0.26725018 -0.43753096 0.30851084
0000b0 0e 01 82 3e 68 6a 6a bc 31 ce 2f bc cf bf 8f 39
       0.2539143 -0.014307596 -0.010730312 0.00027417994
0000c0 b5 0d a2 ba c2 18 9e bc d5 6d 73 3b bd c1 1e bd
       -0.0012363704 -0.019298915 0.0037144322 -0.038758982
0000d0 75 ac 30 bd fe db d8 bc fc 72 b5 3e 77 9d 51 3f
       -0.043133218 -0.026472088 0.3543929 0.818809
0000e0 b9 4d 86 be 7d 02 c6 bf 2e a8 16 3e a2 8d 22 3f
       -0.26231173 -1.5469509 0.14712593 0.63497365
0000f0 09 13 e3 bd 60 f8 bb be a5 b7 95 3c a4 93 89 be
       -0.11087615 -0.36712933 0.018276045 -0.26870453
000100 e8 77 c0 bd 99 26 ce bc e9 aa dd 3d db 94 03 3d
       -0.0939787 -0.02516489 0.10823614 0.03212438
000110 3d 12 7e be e3 9f 19 be 67 3e 39 3d c1 2e 29 3e
       -0.24811645 -0.15002398 0.045225527 0.16521741
000120 ab aa 79 3b 6c 03 15 3b e2 35 b8 38 38 fc 17 39
       0.003809611 0.0022737635 8.78384e-05 0.00014494441
000130 10 7c 9d 3b 12 fc 42 b8 96 3e 54 3c 3b 0e 5e 3c
       0.004806049 -4.6487963e-05 0.012954375 0.0135531975
000140 33 4a f6 3b a8 41 0f be 51 26 6c bf fb 4d bf 3e
       0.0075161695 -0.1398989 -0.92245966 0.37364182
000150 2a d4 99 3f 26 91 1a be e7 2f 1c bf ac b3 5c 3d
       1.2017872 -0.15094432 -0.61010593 0.053882286
000160 52 da c1 3c 38 3e 13 3e 67 8b 08 bd a2 18 0e 3e
       0.023663674 0.14379203 -0.03333607 0.13876584
000170 ab dd 01 be fc 85 bf bd dc 93 30 be 9b aa 40 3e
       -0.12682216 -0.09351727 -0.17243904 0.18815081
000180 a1 f7 86 3e 41 e7 4d be e0 3d 21 be 5a 72 94 ba
       0.263608 -0.20107748 -0.1574626 -0.0011325583
000190 d7 e2 3a 39 48 1e 85 b7 dc 06 1d 38 89 d1 d8 ba
       0.00017822847 -1.5868936e-05 3.7438105e-05 -0.0016541939
0001a0 09 4c a5 39 32 5e e1 bb 62 36 ed bb 9f 90 6c bb
       0.00031527903 -0.006877684 -0.007239149 -0.0036096943
0001b0 d0 c5 8f be c3 06 8c be be 4f d3 39 d3 6e 91 bf
       -0.28080606 -0.2734891 0.0004030447 -1.1361946
0001c0 4f 02 a5 bd aa 1c 09 bf d7 7a ef 3e 8b aa 32 bd
       -0.08057081 -0.5355936 0.46773407 -0.043619674
0001d0 a7 ff 16 3d 0e 5b 80 be b0 cc a7 3e 22 df f6 bd
       0.036864903 -0.2506947 0.32773352 -0.12054278
0001e0 88 ab c0 bd a5 98 a1 be 28 39 6d 3e 96 6d 8f 3e
       -0.09407717 -0.3156177 0.23166335 0.28013295
0001f0 12 94 51 be 6d e6 12 be 65 2b 22 bc 1f 13 cb bb
       -0.2046664 -0.14345713 -0.009898041 -0.006197348
000200 e6 8c 20 ba 35 f1 6d ba 73 5a 3f bc a4 5f fa b8
       -0.0006124511 -0.0009076775 -0.01167928 -0.000119387434
000210 cc d0 03 bd 6e dc 09 bd 61 97 9d bc be 8e c2 3e
       -0.032181546 -0.033657484 -0.019237222 0.3799953
000220 8d 33 25 3f 50 d8 72 3e f6 95 5c 3f b8 c3 0d 3e
       0.64531785 0.23715329 0.8616632 0.13844192
000230 42 26 05 3f c6 ee f5 3e 00 f5 b1 3e 65 c2 b5 3c
       0.520115 0.48033732 0.34757233 0.022187421
000240 0c 88 1d 3e b3 37 fa 3e 50 3d f4 3e c4 1e 9e 3c
       0.15383929 0.4887062 0.47703028 0.01930178
000250 39 55 89 bd 6d d0 1e 3e d2 76 ef 3e 09 5c 00 3c
       -0.06705708 0.15509196 0.4677034 0.007834443
000260 52 81 7f be 3b bb ca 3b 3c 6b f2 3b 15 07 88 ba
       -0.24951676 0.0061868704 0.0073980372 -0.0010378087
000270 b4 b5 40 3a f6 ea c2 3b 79 15 83 bb 44 01 a1 bb
       0.00073512946 0.0059484197 -0.0040003625 -0.004913481
000280 61 ef dd bb c6 7e d0 b9
       -0.006772921 -0.00039767305

_model.layers.0.conv._module_list.0.ws.bias f4 [6]
000000 e4 b0 e3 3c 31 0f 89 be 79 07 82 3e 64 01 5e bd
       0.027794309 -0.26769403 0.25396326 -0.054200545
000010 38 68 9e be b1 4b af 3e
       -0.30938888 0.34237435

_model.layers.0.conv._module_list.0.wv.weight f4 [4, 9]
000000 35 50 a0 be f2 71 b8 be a0 2e ec 3d d1 1c 01 3d
       -0.31311193 -0.36024433 0.115323305 0.031521622
000010 06 5e 9d 3e 11 2b 61 3b e2 17 f5 be e8 00 2e 3f
       0.30735797 0.0034357945 -0.47869784 0.6797013
000020 b1 eb ca 3e 32 b9 97 bc 67 18 7e 3c 5e c3 41 be
       0.39632943 -0.018520925 0.015508748 -0.18922183
000030 7d f2 14 be 8d 8a 6f 3e f6 a4 b1 ba 72 14 b4 be
       -0.14545627 0.23392697 -0.001355319 -0.3517185
000040 ad 9c d4 3e 2b 0c 46 3d 6e 62 92 bd c7 f6 8f bd
       0.41525784 0.048351448 -0.0714768 -0.07029491
000050 6c db ab bc bf be 4b bd 62 8d b2 3c 45 d7 d4 3c
       -0.020978652 -0.049742457 0.021795932 0.025981555
000060 7d 60 5e be 11 32 38 3e bb 57 4a ba 7f 84 d7 3d
       -0.21716495 0.17987849 -0.00077187613 0.105233185
000070 34 9f db 3a dc 29 b1 bd fb 0b 88 bc 8e 85 ef 3d
       0.001675582 -0.08650562 -0.016607275 0.116953954
000080 09 f4 84 bd 24 c0 67 bd 55 55 f7 3b 90 2d 59 be
       -0.064918585 -0.056579724 0.007548014 -0.21208787

_model.layers.0.conv._module_list.0.wsv.weight f4 [4, 6]
000000 d8 ac 1c be aa c3 92 bd b7 e7 8c bf 27 ac 5e 3f
       -0.1530031 -0.07166226 -1.1008214 0.86981434
000010 8e 88 38 be 24 31 38 be 5a 01 45 be 54 b2 6d be
       -0.18020841 -0.17987496 -0.19238797 -0.23212558
000020 3c 46 7a bf 48 cd 33 3f 23 e2 c7 bd d1 96 41 be
       -0.9776342 0.7023511 -0.09759929 -0.18905188
000030 8c 3c 75 bc 21 b1 db be e7 5c 9f be 86 62 a6 3e
       -0.014968049 -0.42908576 -0.31125566 0.32497042
000040 26 c9 12 3f 9a c4 ff bd 46 20 5e 3d 33 b9 c8 bd
       0.5733818 -0.12488671 0.054229997 -0.09800949
000050 a7 5f ff be 63 87 e5 3e 6b a8 84 bc b7 ac 69 bd
       -0.49877664 0.44829854 -0.01619359 -0.05704948

_model.layers.0.conv._module_list.0.wsv.bias f4 [4]
000000 4f e8 28 bf 73 15 44 be a9 cb 2c bf b1 07 5f be
       -0.65979475 -0.19148807 -0.6749826 -0.21780278

_model.layers.0.conv._module_list.1.wh.weight f4 [4, 4]
000000 b0 17 5f bd 4f 10 9b be b8 85 2d be 57 b9 42 3d
       -0.05446595 -0.3028588 -0.16945541 0.047540035
000010 e3 f3 7f 3d 68 eb 0e 3d b9 03 87 be 95 c2 8f 3d
       0.062488448 0.03489247 -0.26370028 0.070195355
000020 a8 c3 66 3f 15 34 03 3f 4a 1b 74 be 94 55 39 3d
       0.901423 0.51251346 -0.23838535 0.04524763
000030 e0 a6 b9 3d 23 74 76 be 80 ba 6d be a5 ca 1b 3e
       0.09065032 -0.2406774 -0.23215675 0.15214022

_model.layers.0.conv._module_list.1.ws.weight f4 [6, 10]
000000 e8 58 2a 3e 72 d6 50 bd 49 42 88 3e e6 4d b0 be
       0.16635478 -0.05098576 0.26613072 -0.34434432
000010 8b 4e 8f 3e ee 79 26 bf dd 0d 76 3b 31 d4 41 bd
       0.2798961 -0.650298 0.0037544884 -0.047321502
000020 92 59 b4 3d 11 46 22 bb 62 cf 9c 3e ce 85 10 3f
       0.08806147 -0.0024761 0.3062697 0.5645417
000030 fa 7c 2f 3f e9 db 1f bf 83 de 03 3f 8d c9 04 bf
       0.68550074 -0.6244493 0.515114 -0.5187004
000040 3a 7f 01 3b 84 dd 4d bd 44 40 cd 3d 78 70 96 bb
       0.001975967 -0.050260082 0.10022023 -0.004591044
000050 e2 f1 a2 3e 15 29 24 be cd 6a b2 3d d2 49 0f 3c
       0.31825167 -0.16031297 0.08711777 0.0087456275
000060 6d 5a 4b be 65 e1 26 3f ad 5b ba bc fa a5 89 3c
       -0.19858713 0.65187675 -0.022748793 0.016802777
000070 4f af 37 bd f6 90 34 bb 7f 10 d5 bc c6 62 ae 3e
       -0.04484492 -0.0027552224 -0.026008843 0.34059733
000080 67 f4 89 3d 92 d9 44 3e 6d 48 d3 3d fb 5b 30 3e
       0.06736069 0.19223621 0.103165485 0.17222588
000090 88 c3 51 3c 8b 03 1b 3b 91 ba da 3c 50 f4 8d 3b
       0.012802966 0.0023653235 0.02670029 0.004332103
0000a0 25 89 1a bf f6 10 b8 3d c9 51 65 be 42 b9 0d 3f
       -0.60365516 0.0898761 -0.2239448 0.55360806
0000b0 e4 e3 e0 bd 6b 52 ce 3d 7e 5d d8 3a 41 2c bd 3c
       -0.10980967 0.10074314 0.0016507355 0.023092391
0000c0 6f 5d cc 3c 97 e6 83 3b 17 99 b6 3e 30 ad 26 bf
       0.024946896 0.004025291 0.35663673 -0.65108013
0000d0 a5 13 38 3e d2 79 ff be 50 02 bc 3d 70 c6 87 3f
       0.17976244 -0.4989763 0.091801286 1.0607433
0000e0 a7 15 87 bc 0c 48 aa bb 09 a4 ce bd 6d ba 86 bb
       -0.016489817 -0.005196577 -0.10089881 -0.004111579

_model.layers.0.conv._module_list.1.ws.bias f4 [6]
000000 2d f7 81 3e 6a 4d d5 3d 59 bf 69 3e c5 21 65 3d
       0.25383893 0.10415156 0.228269 0.05594041
000010 0f e1 88 3d 43 b1 73 bd
       0.066835515 -0.05949522

_model.layers.0.conv._module_list.1.wv.weight f4 [4, 4]
000000 68 fc b0 3c dd b9 23 be 0d e0 4a bc f1 b2 35 be
       0.021604732 -0.1598887 -0.012382519 -0.17744042
000010 63 93 1d bf 0d 09 05 3d d2 4f 64 3f c1 a1 2b be
       -0.6155302 0.032479335 0.89184296 -0.16760923
000020 35 33 ac bd fd 16 9f be f5 52 0a bf d5 6e b3 3d
       -0.084082045 -0.31072226 -0.5403283 0.08761374
000030 35 b4 e6 3d 09 5a 8c 3e a8 f4 19 3f 67 14 1b be
       0.112648405 0.2741244 0.6013894 -0.15144502

_model.layers.0.conv._module_list.1.wsv.weight f4 [4, 6]
000000 bc 52 b9 3e cb 3e 2d be d2 76 db be c8 0e 8d be
       0.36195934 -0.16918485 -0.4286409 -0.2755034
000010 be 6a 25 3c 3b 5f 4f be ba 85 94 be 8d 63 51 bf
       0.01009625 -0.20251171 -0.29008275 -0.8179253
000020 bc 78 8f be bd 38 8f bc 30 10 19 3f 27 4c 45 bf
       -0.280218 -0.01748311 0.59790325 -0.77069324
000030 10 f3 10 bf 9f fe 76 bf 7f 43 b0 bb f0 05 39 3e
       -0.56620884 -0.9648227 -0.00537914 0.18068671
000040 3b bb d8 3e 8e 5d 21 bc 43 57 15 3f 97 c4 30 3f
       0.42330346 -0.009848965 0.58336276 0.6904997
000050 2e f9 37 bf 68 fa 7c 3e 9f 94 27 bc 8a 2a 14 bf
       -0.71864593 0.24704897 -0.010228305 -0.5787741

_model.layers.0.conv._module_list.1.wsv.bias f4 [4]
000000 e4 a9 5f bf ca 9e 03 be a1 b1 23 bf e0 fc 81 3e
       -0.8736861 -0.12853542 -0.63942915 0.2538824

_model.layers.0.norm.0.scalar_norm.weight f4 [6]
000000 73 62 44 3f 97 97 87 3f 2c ef 73 3e 09 07 8e 3f
       0.7671272 1.0593137 0.23821706 1.1095897
000010 96 41 de 3e 4c 79 03 3f
       0.43409413 0.5135696

_model.layers.0.norm.0.scalar_norm.bias f4 [6]
000000 39 71 43 3e c6 9d 95 3d a6 6b b7 bc 21 5e 7d bd
       0.1908616 0.073054835 -0.022390198 -0.061857346
000010 50 a1 3e 3e 78 0a 65 be
       0.18616223 -0.22367275

_model.layers.0.norm.1.scalar_norm.weight f4 [6]
000000 c2 07 2a 3f 47 44 8d 3f 6b e7 32 3f aa 21 ed 3e
       0.6641809 1.1036462 0.69884366 0.46314746
000010 b2 a3 55 3f 99 3f 99 3f
       0.83452904 1.1972533

_model.layers.0.norm.1.scalar_norm.bias f4 [6]
000000 bd c9 93 3d dc a4 38 3e de 2e 47 3e 9e 82 29 3e
       0.07216213 0.18031639 0.19451472 0.16553733
000010 13 8b e7 bc 62 c6 85 be
       -0.028264558 -0.26127917

_model.layers.0._module_list.0.wh.weight f4 [8, 4]
000000 2f 40 30 be b4 63 28 3e 6f a0 00 bd 4b 60 ef be
       -0.17211984 0.16444284 -0.031403 -0.46753153
000010 43 7a a0 bc 0a 3b 15 3f e2 ee ea be 0b 00 c2 bc
       -0.019589549 0.5829321 -0.45885378 -0.023681661
000020 53 07 71 3e c3 97 67 bf e2 39 54 3f 20 12 c6 3d
       0.2353795 -0.90465945 0.8290082 0.09671426
000030 c3 eb 29 3c 49 02 89 bc 4b fe 8e bd f0 6f 0d 3d
       0.010371151 -0.016724722 -0.06982096 0.03453058
000040 be 97 ce bd 11 fb b1 bd e1 98 ca be e8 a1 4c bf
       -0.10087536 -0.08690465 -0.39569762 -0.7993455
000050 b0 47 6d 3d 7b df 2a 3f be 44 db be 63 a3 78 3c
       0.057929695 0.66747254 -0.42825884 0.015175673
000060 78 57 0d be b5 fc 1d 3f c6 2f c2 3a b2 01 66 3c
       -0.13802898 0.61713725 0.0014815263 0.01403849
000070 6e 5b c6 bd 2d dd 4a 3f ef 58 3e bf e6 d1 84 bd
       -0.096854076 0.7924374 -0.7435445 -0.064853474

_model.layers.0._module_list.0.ws.weight f4 [24, 14]
000000 73 56 27 3b 2d 26 86 bc 47 35 04 3d 40 62 b5 bd
       0.0025533705 -0.016375626 0.03227737 -0.0885663
000010 b5 29 17 bd 0f 7d 10 3e c8 d0 47 3e 26 ec 8d be
       -0.03690501 0.14110206 0.19513237 -0.2771923
000020 3d 8a e9 be 4b e2 0b bd 8c cb da 3e 35 0a 66 be
       -0.4561328 -0.034151357 0.4273342 -0.22464831
000030 c9 7f 09 bd c3 d8 c6 be 57 7d a2 be 99 87 29 bf
       -0.03356913 -0.3883725 -0.31736252 -0.6622253
000040 f8 18 e0 3e d5 24 0a 3f 48 2d 70 3d 88 75 3e be
       0.4376905 0.5396245 0.058636934 -0.18599522
000050 45 95 74 3e 2f f8 93 3d 98 92 f9 3d 93 9f 2f bd
       0.23885067 0.07225072 0.12186164 -0.04287679
000060 33 34 f8 3e 45 ea 44 3e 53 76 8c 3e 13 24 6f 3d
       0.48477325 0.19229992 0.27434024 0.058384012
000070 ed 3b 38 3b 7c 95 b3 3d 8c 20 21 bc 8c 2c 53 be
       0.002811189 0.08768746 -0.00983442 -0.20622462
000080 e7 f9 ac bd ba 65 15 3e 9f 11 fc bd 74 ae 8a 3e
       -0.084461026 0.14589587 -0.123080485 0.27086222
000090 55 43 b5 3e ca 6c 78 3b e9 65 3f be 6e 84 89 3e
       0.35402933 0.003790664 -0.1869122 0.26858848
0000a0 4f 77 31 3e 18 06 9d 3e 68 0e 18 3e b1 34 f2 bd
       0.17330669 0.30668712 0.14849246 -0.11826456
0000b0 ef e2 4c bc e1 b8 e0 3e 25 53 56 bc 58 fc 3a be
       -0.012505277 0.4389105 -0.013081347 -0.18260324
0000c0 2b 39 f7 3d c9 ec 47 be f7 11 46 be ff d5 a7 3b
       0.12071451 -0.1952392 -0.1934279 0.005121946
0000d0 34 78 47 3e 41 26 6a be f9 25 05 be e6 8b 85 be
       0.19479448 -0.22866155 -0.13002767 -0.26083297
0000e0 46 d2 76 3d 62 66 70 bd d8 bc 04 bd d7 da d6 3e
       0.060259126 -0.05869139 -0.032406658 0.41963837
0000f0 00 cc 70 be 21 38 b3 be f6 ab 7a 3e bb 40 94 3e
       -0.2351532 -0.3500376 0.2447966 0.28955635
000100 f6 ed f6 3e 6e 7e 9b 3c 63 f2 af 3e 09 39 b7 3e
       0.48228425 0.018981185 0.34364614 0.35785702
000110 f2 70 ff 3e 9b 5f d7 3e cc 37 83 bd 05 ab 29 be
       0.49890858 0.4206513 -0.06407127 -0.16569145
000120 5e c0 17 bc 60 30 0b be a1 d3 f6 3d 73 25 4f 3e
       -0.0092621725 -0.13592672 0.12052084 0.2022913
000130 66 88 b1 3d 73 49 70 be 03 bc 8f be 2a 10 2a bd
       0.08668594 -0.23465519 -0.2807313 -0.04151932
000140 f2 78 47 3e bd 8d 51 be 8c 00 ce bd b5 43 a7 be
       0.1947973 -0.20464225 -0.10058698 -0.32668844
000150 f2 f7 25 bd 38 ce 85 3c 64 dc 40 bb 81 0b b6 be
       -0.040519662 0.016333684 -0.0029428238 -0.35555652
000160 ac 7e 07 3d 6a 55 2a 3e ce 74 23 be 20 37 84 3e
       0.033079788 0.16634145 -0.15962526 0.25823307
000170 c5 09 a9 3e ce 59 84 ba 47 10 76 be 8e 8b 81 3e
       0.33015266 -0.0010097565 -0.24029647 0.25301784
000180 dd e1 0a 3e 58 40 9b 3e 03 82 ee bd 95 7c a5 bc
       0.13562723 0.30322528 -0.116458915 -0.020201007
000190 eb 87 d3 bd df 41 9e be df b5 2e 3e b6 8e 8d 3e
       -0.10328659 -0.3090963 0.17061566 0.27647942
0001a0 e8 ac a0 3d c4 d4 73 be 23 d9 e0 be c2 69 00 bc
       0.07845479 -0.23811632 -0.43915662 -0.007837715
0001b0 20 bb e5 bd c3 1a 8c be 54 0f 97 be 62 46 94 be
       -0.11217332 -0.27364168 -0.29503882 -0.28959948
0001c0 7d 2d 90 bd 53 b1 80 3d e3 a2 04 be ed be d6 bd
       -0.07039926 0.06283822 -0.12952761 -0.10485635
0001d0 3b 4f cb bd 3d 18 12 3e 94 ba aa be 7e 06 b3 3e
       -0.099272214 0.14267059 -0.33345473 0.3496589
0001e0 ba f4 f6 3e 10 9b a9 3d 11 81 ee be bc 19 a4 3e
       0.48233587 0.08281529 -0.46582845 0.32050884
0001f0 23 04 fe 3d bb c3 c0 3e 1d fd 89 bd 92 a1 e7 be
       0.12403133 0.3764933 -0.06737731 -0.45240456
000200 c8 3f 90 3e c6 06 f1 3e d2 3c b7 bd d4 5d b4 be
       0.2817366 0.4707548 -0.089471474 -0.35227835
000210 26 ac 63 3e 10 7c eb 3d f6 68 92 3e f7 f7 82 bc
       0.22233638 0.114982724 0.28595704 -0.01598738
000220 d1 80 00 3f da 71 06 3e 22 16 0d 3e 79 4e 93 3e
       0.5019656 0.13129368 0.13777974 0.28770807
000230 6f 0b c2 bd e5 90 18 be 94 b9 9a 3d 0f 34 12 bc
       -0.09474837 -0.14899023 0.075549275 -0.008923545
000240 c7 2b 55 3e 10 91 89 bd 0b 66 96 bc e8 58 51 be
       0.20817481 -0.067171216 -0.018359205 -0.20444071
000250 86 35 54 be a0 c4 26 bd c8 e9 e3 3d fa cf 3e be
       -0.20723543 -0.04071486 0.111285746 -0.18634024
000260 53 94 84 bd 59 d4 8b be c4 eb 97 3d 03 bc 8d be
       -0.06473603 -0.27310446 0.074180156 -0.27682504
000270 cb ae f3 3c a1 ab d6 3e ec c3 1e be 75 4c 49 be
       0.029746434 0.41927817 -0.15504426 -0.19658072
000280 a1 15 5b 3d db a9 7a bc ed 40 3b be e0 77 d0 3c
       0.053487424 -0.015299286 -0.18286486 0.025447786
000290 78 ce f5 bd bd 6c 40 be e0 97 88 be 89 14 11 be
       -0.120022714 -0.1879148 -0.2667837 -0.1416799
0002a0 ab be 46 3d ac 7d 9c bc 70 50 13 be 38 c0 b7 be
       0.04852168 -0.019102894 -0.14386153 -0.3588884
0002b0 db dc 1f 3e 9b 11 7f 3e e9 2b 62 bd 55 b6 c6 be
       0.15611593 0.2490906 -0.055217657 -0.38810983
0002c0 01 bc 24 bf 86 9f a1 bc f9 d1 89 be a7 2f d4 be
       -0.6434937 -0.019729387 -0.2691801 -0.41442606
0002d0 ab aa db be a0 08 ca be 06 64 36 3e ec ac 4e 3d
       -0.42903647 -0.39459705 0.17811593 0.05045788
0002e0 e0 71 7d bb a3 18 08 3e 89 6c 95 bd 65 be 37 be
       -0.003867261 0.13290648 -0.07296092 -0.17943723
0002f0 03 68 23 bc 15 78 3c 3e 71 ea bc 3e 69 41 e2 3c
       -0.009973529 0.18405183 0.36897615 0.02761908
000300 c4 98 27 be 77 93 2c 3e 16 b1 e9 3d 7a 58 a3 3e
       -0.16366869 0.16853128 0.114107296 0.3190344
000310 c4 ef e7 3c 12 2d a8 bc 5c 19 99 3b db 2f 91 be
       0.028312571 -0.020529304 0.0046722125 -0.28356823
000320 a9 20 2e 3e b7 70 81 3e 1f a3 a5 bc 68 29 88 be
       0.17004646 0.25281307 -0.020219384 -0.2659409
000330 b7 30 e8 be 50 9e 48 bc 15 e1 be bc 9a 4f 90 be
       -0.45349666 -0.012244776 -0.023300687 -0.2818573
000340 69 3f 72 be 74 5b b0 be 13 7a 23 3e 23 fb cf 3e
       -0.23657002 -0.34444773 0.15964536 0.4062129
000350 da 4b 65 be 6b ea b2 be 7d 7d 06 be c4 5b 01 3e
       -0.22392216 -0.34944472 -0.13133807 0.12632662
000360 0b fc 93 bd 8f 7a 88 3c f3 81 75 bd 26 5c 65 3d
       -0.07225808 0.016660003 -0.059938382 0.055996083
000370 60 49 50 be ce d6 fa bc 02 dc 87 bd 7f ce 84 3d
       -0.2034049 -0.030620005 -0.0663376 0.064846985
000380 88 a4 64 3d 9b 8e e7 3d d0 3b ec 3a dc 53 88 3d
       0.05582097 0.11306497 0.0018023197 0.0665662
000390 8e e8 fa bd 44 6a cc bd 89 a0 ca bd 85 9a 56 3e
       -0.122513875 -0.09981206 -0.09893901 0.20957382
0003a0 bd 16 b8 3e 13 d1 0c 3d ed e2 25 be 52 77 38 3e
       0.35954848 0.034379076 -0.16199847 0.18014267
0003b0 39 bd 56 3d 67 77 97 3e 01 74 80 bb 39 5e db 3e
       0.05242655 0.29583284 -0.0039200787 0.42845324
0003c0 aa db 91 bd 81 6f 1a bf 3c af 08 3e 2f a6 a9 3d
       -0.07121976 -0.6032639 0.13348097 0.0828365
0003d0 11 fa 75 bd 7b ea 05 3e 2b 35 73 3e 58 40 18 3b
       -0.060052935 0.13077728 0.2375075 0.0023231711
0003e0 20 ca d2 bc 8a 34 30 3e 5f 81 51 3e 62 4c 42 3e
       -0.025731146 0.17207542 0.20459507 0.1897445
0003f0 df ff 3d 3d 11 6e 58 3e 56 99 eb bd d5 95 64 be
       0.046386596 0.21135737 -0.11503856 -0.22322781

_model.layers.0._module_list.0.ws.bias f4 [24]
000000 5b 04 05 3e 57 72 18 be c4 68 b0 bd 62 8c 01 3d
       0.12989943 -0.14887367 -0.086137325 0.03162802
000010 74 d5 2d 3e d4 05 86 ba 9c 19 73 bd 1a e3 32 3c
       0.16975957 -0.0010225126 -0.059350595 0.010918403
000020 13 e6 b0 bd aa 3f 11 bd aa 26 2d bd 10 0d 71 3e
       -0.08637633 -0.035461105 -0.0422732 0.23540139
000030 11 4f 6c be fb 39 2e 3d 5b 85 c8 bd c9 a1 01 3e
       -0.23077036 0.042535763 -0.097910605 0.12659372
000040 fd 9b b7 3d 18 7a 79 bd 46 a2 95 3d d1 80 ff 3d
       0.08965299 -0.060907453 0.07306342 0.12475742
000050 15 3d 21 3d cf a7 fb 3d 4e e2 83 bc 54 73 23 bd
       0.039364893 0.12287866 -0.016099121 -0.039904907

_model.layers.0._module_list.0.wv.weight f4 [8, 8]
000000 40 7b 23 2d 38 bd fc 2e 2f 45 ab 32 a4 17 ad ac
       9.292844e-12 1.1493245e-10 1.9938481e-08 -4.9195804e-12
000010 c1 22 14 ae c0 8a 18 2f 45 43 0e 30 76 ee 20 31
       -3.368217e-11 1.3873613e-10 5.1754895e-10 2.3418614e-09
000020 d9 9d 22 37 d6 28 15 39 14 6d 99 3b d6 d1 0f b7
       9.692704e-06 0.0001422496 0.0046821926 -8.57232e-06
000030 9d e6 eb 38 84 b6 33 39 fa 00 34 39 9b 48 20 b9
       0.00011248628 0.00017138763 0.00017166501 -0.00015285837
000040 a9 10 14 2c a3 71 63 2d ce 38 ad 30 b8 f2 08 ab
       2.1041313e-12 1.29286885e-11 1.2603552e-09 -4.8653746e-13
000050 21 58 39 ac 34 cb 77 2d 65 b7 37 2e 8d fc 41 2f
       -2.6339003e-12 1.4085445e-11 4.177227e-11 1.7642972e-10
000060 b8 b5 a7 32 cd d5 b6 32 15 3a 20 36 8b e7 2a b0
       1.9523995e-08 2.1284814e-08 2.3875666e-06 -6.217468e-10
000070 f9 ff a3 32 30 b5 c1 32 7b bc 47 33 a9 f2 e9 34
       1.90921e-08 2.2550552e-08 4.650472e-08 4.357619e-07
000080 68 ee f3 b2 e7 8a d5 b3 cf 68 55 b6 57 44 2b 32
       -2.8397338e-08 -9.9438516e-08 -3.180048e-06 9.969049e-09
000090 d3 87 ed b2 f3 1f d7 b3 d8 fa 27 b4 9f 8a 49 b5
       -2.7652197e-08 -1.0017529e-07 -1.5644343e-07 -7.5080055e-07
0000a0 a0 18 e4 a8 df b5 0b ab b4 b6 3c af 35 83 6b 29
       -2.5323764e-14 -4.9635117e-13 -1.716341e-10 5.2294286e-14
0000b0 ce 1a c1 2b 82 82 82 ab 83 8d cd ac a4 63 a3 ad
       1.3720915e-12 -9.273279e-13 -5.8421614e-12 -1.8575204e-11
0000c0 38 45 2b b4 0f b9 c1 35 7b 88 5b 38 91 fe 66 b3
       -1.5950798e-07 1.443348e-06 5.2340776e-05 -5.3782575e-08
0000d0 64 24 27 36 b4 ca ca 35 94 9e 12 36 fe 63 60 36
       2.4906121e-06 1.5109167e-06 2.1848e-06 3.3436804e-06
0000e0 01 03 6c 2d 97 24 1d 2e 14 06 45 31 dd f7 ce ab
       1.3415714e-11 3.5730165e-11 2.8670728e-09 -1.4705976e-12
0000f0 49 9d c2 2d 5c 13 25 2e 9d 7e be 2e a0 4f 09 30
       2.2125095e-11 3.753385e-11 8.662691e-11 4.9953464e-10

_model.layers.0._module_list.0.wsv.weight f4 [8, 24]
000000 04 94 48 a3 be 19 62 23 98 ba fb 23 41 40 d8 a2
       -1.0873365e-17 1.2256936e-17 2.72925e-17 -5.861495e-18
000010 29 44 cb 23 33 49 93 a3 85 ed d8 a1 e4 62 9f a3
       2.2038171e-17 -1.5968773e-17 -1.46996e-18 -1.7280696e-17
000020 ea 29 01 24 cc 62 cd a2 e3 73 b0 20 f7 d6 75 a3
       2.800792e-17 -5.5669967e-18 2.9892247e-19 -1.3326997e-17
000030 16 c2 00 a4 16 55 86 23 ab 27 a0 a3 31 6b 19 a3
       -2.7919973e-17 1.4564344e-17 -1.7364035e-17 -8.316845e-18
000040 d4 b6 bb 23 25 45 34 24 9a d1 20 23 25 9b 1e 24
       2.0352011e-17 3.9089846e-17 8.718002e-18 3.43922e-17
000050 31 d2 93 a3 65 4c 4a a3 a2 d0 95 a3 32 d8 45 a3
       -1.6026791e-17 -1.0966619e-17 -1.6242972e-17 -1.07251725e-17
000060 29 80 22 35 43 05 0a 34 69 40 2f b5 86 88 28 35
       6.05362e-07 1.2854166e-07 -6.528631e-07 6.2783545e-07
000070 a5 19 96 b5 18 aa ef 34 0a 67 40 b5 dd d9 21 35
       -1.1183334e-06 4.4640979e-07 -7.1675515e-07 6.0294207e-07
000080 29 9b 34 b5 f7 f2 0c b2 bc 98 1c 35 96 15 13 35
       -6.7281013e-07 -8.204316e-09 5.8336786e-07 5.479318e-07
000090 70 45 b1 35 80 b1 0f b5 12 f4 1f 35 48 09 3f b4
       1.3207737e-06 -5.352995e-07 5.9587285e-07 -1.7791638e-07
0000a0 bd ec 0c b5 90 6d ba b5 31 58 07 b5 b0 86 db b5
       -5.2498564e-07 -1.3889967e-06 -5.0419754e-07 -1.6355971e-06
0000b0 dc 2d 0f 35 45 f1 15 35 75 50 6c 35 00 1c 48 35
       5.3338385e-07 5.585792e-07 8.803393e-07 7.454655e-07
0000c0 31 c3 8a 9e e1 dd 9f 9f 07 ca 00 1f f3 ee b9 1d
       -1.4692048e-20 -6.770619e-20 2.7272167e-20 4.921616e-21
0000d0 03 f2 85 9e ce d4 a3 1d 31 86 cc 9e 89 b0 39 1d
       -1.4182016e-20 4.3365776e-21 -2.165484e-20 2.4575813e-21
0000e0 54 67 21 1f a6 e0 36 1f af 9c 40 9d a7 49 b4 9e
       3.4178547e-20 3.8725824e-20 -2.5491992e-21 -1.9088703e-20
0000f0 5b 77 57 1f e1 79 51 1e fd 47 15 9e c9 98 c4 9e
       4.562675e-20 1.1089572e-20 -7.902881e-21 -2.0815498e-20
000100 64 58 e0 1e d3 47 3e 1f 62 95 db 1e 6d 16 55 9f
       2.375348e-20 4.0293477e-20 2.324931e-20 -4.5123055e-20
000110 10 9b 81 9d 09 67 b7 9f 61 ae ee 9e cb 4f c9 1e
       -3.4306347e-21 -7.767397e-20 -2.5271352e-20 2.1314704e-20
000120 77 b0 8e a9 37 50 23 a9 a0 35 8a 2a b9 82 3f aa
       -6.3366786e-14 -3.6262846e-14 2.4550934e-13 -1.7009561e-13
000130 32 c4 6d 2a 4c 7d 35 aa 1e ba b6 a8 60 88 3a aa
       2.1117897e-13 -1.61195e-13 -2.0286775e-14 -1.6567433e-13
000140 9d a0 68 2a 29 4d 9c a9 bf d1 2f 28 c8 3a 28 aa
       2.0661463e-13 -6.941177e-14 9.759933e-15 -1.4941791e-13
000150 ae b6 97 aa e0 6c 2b 2a ba 0e 45 aa d6 e3 a1 a9
       -2.6949748e-13 1.5225625e-13 -1.7502224e-13 -7.1893595e-14
000160 88 d6 27 2a d0 03 9c 2a 8f ae 74 2a ab 1f bc 2a
       1.490701e-13 2.7713812e-13 2.1732116e-13 3.3417483e-13
000170 dd 2c 3f aa eb f1 0a aa cc 67 b4 aa 8c 47 2f aa
       -1.6979773e-13 -1.2340794e-13 -3.2046447e-13 -1.5567945e-13
000180 c1 3c 6c 2b 5b e0 97 2b 8f a9 eb ab 0b 2e b5 2b
       8.3928356e-13 1.0791466e-12 -1.6744816e-12 1.2873603e-12
000190 6b 49 af ab b7 f6 59 2b bc 47 34 ab c8 83 8c 2b
       -1.2454875e-12 7.743627e-13 -6.40484e-13 9.984175e-13
0001a0 7e a3 e7 ab a8 3c 6a 29 a3 bd cf 2a 1c a5 cf 2b
       -1.6458915e-12 5.201105e-14 3.6902173e-13 1.4754062e-12
0001b0 68 ae 01 2c 76 af 4d ab b3 24 71 2b f1 3b 97 29
       1.8428817e-12 -7.307413e-13 8.567133e-13 6.716145e-14
0001c0 63 db 94 ab 42 3b 81 ab 15 1d b0 ab 65 45 1d ac
       -1.0576925e-12 -9.182449e-13 -1.2513624e-12 -2.2349564e-12
0001d0 d1 6d 6a 2b 1e 95 13 2c ff 51 0c 2c f7 97 a5 2b
       8.32859e-13 2.0972733e-12 1.9940714e-12 1.1766134e-12
0001e0 87 da 01 9d 31 33 d5 1c 04 1f 08 1d a7 89 8f 1c
       -1.7185984e-21 1.410839e-21 1.8015485e-21 9.498529e-22
0001f0 2f 23 00 1d 9f d9 26 99 b6 be 3d 1a 60 19 df 9c
       1.6958848e-21 -8.625947e-24 3.923834e-23 -1.4763461e-21
000200 4c fb 1e 1d 02 a7 15 9c 4e 5c 58 9c c1 a0 a6 1c
       2.1041043e-21 -4.9515817e-22 -7.1587706e-22 1.1026512e-21
000210 41 a4 05 9c c8 eb eb 9a a6 e9 fc 1a cb 08 f7 1c
       -4.42183e-22 -9.757465e-23 1.04602237e-22 1.6347362e-21
000220 18 07 de 1c 34 e5 5f 1d a8 63 8d 9c 1f 38 64 1d
       1.4692561e-21 2.96323e-21 -9.356358e-22 3.0204563e-21
000230 bd 11 2a 1b d6 b1 a7 9a 6c 01 0e 1d 88 cd c3 1b
       1.4067802e-22 -6.935689e-23 1.8794279e-21 3.2392865e-22
000240 1d 29 e8 2e 37 b8 bb 2e ac cb 3b af 59 00 47 2f
       1.0557442e-10 8.5364986e-11 -1.707991e-10 1.8099068e-10
000250 88 97 1f af ce 57 e2 2e f3 60 62 af 98 bc 1e 2f
       -1.45148e-10 1.02928874e-10 -2.0589024e-10 1.4437018e-10
000260 e4 66 3e af ee 84 1a ae 51 a0 f8 2e 60 b2 52 2f
       -1.7316953e-10 -3.513361e-11 1.1306212e-10 1.916276e-10
000270 fa 6e 59 2f a5 b3 06 af 09 20 c8 2e 85 70 e6 ae
       1.9775462e-10 -1.2251052e-10 9.1006376e-11 -1.04791766e-10
000280 e2 5d 09 af 94 24 19 af a3 7d 29 af 9c 6a 8d af
       -1.2493431e-10 -1.3928264e-10 -1.5415096e-10 -2.57235e-10
000290 dd 89 24 2f ad 42 3e 2f 7e d6 84 2f 4b 54 06 2f
       1.4964692e-10 1.7304087e-10 2.4163066e-10 1.2217176e-10
0002a0 83 e0 94 1f 59 6c f8 a0 86 3f 85 a0 fe df 0d a0
       6.305186e-20 -4.2084533e-19 -2.2573113e-19 -1.2017277e-19
0002b0 1c 2a f0 9f de 32 fc 1f e0 02 ba 9f d4 fa ce 1f
       -1.0171362e-19 1.06810304e-19 -7.877882e-20 8.7659354e-20
0002c0 67 fe 1c 1f 05 d6 35 20 ba 85 09 1f 49 e6 9f a0
       3.3244722e-20 1.540211e-19 2.9121494e-20 -2.7088038e-19
0002d0 5a 73 35 20 66 89 a2 1f 13 40 a8 1a 94 de 88 1f
       1.5369463e-19 6.8836975e-20 6.958669e-23 5.7966465e-20
0002e0 75 c6 48 1f ec 69 26 9f ad c9 c0 9f b1 02 21 a0
       4.2515807e-20 -3.5239484e-20 -8.164881e-20 -1.3638121e-19
0002f0 92 7c f6 9e f9 d6 ce a0 18 6f e6 9e 78 90 23 1f
       -2.6097784e-20 -3.5040014e-19 -2.4398145e-20 3.4636094e-20

_model.layers.0._module_list.0.wsv.bias f4 [8]
000000 b2 12 a6 21 56 6e 03 b5 c6 25 e3 1e ef 33 25 a5
       1.1253546e-18 -4.896186e-07 2.4050183e-20 -1.4329064e-16
000010 10 88 11 ab bc 05 83 1c 2c 13 a0 ae fd 42 99 1f
       -5.1703173e-13 8.670335e-22 -7.279363e-11 6.4908843e-20

_model.layers.0._module_list.1.wh.weight f4 [8, 8]
000000 02 54 9b 2e d2 e1 85 b8 3e 9f 83 2c 2b 55 e3 31
       7.063507e-11 -6.3839965e-05 3.7409234e-12 6.616252e-09
000010 b7 91 70 b6 38 76 7f ab 2f dc e2 35 79 09 98 2c
       -3.5847604e-06 -9.075826e-13 1.6902394e-06 4.3211515e-12
000020 11 13 21 b1 b6 39 72 3a 2c dc 9d ae 18 13 60 b4
       -2.3439422e-09 0.0009240167 -7.178644e-11 -2.0868572e-07
000030 43 74 b0 b5 6d de b8 2d 39 5f fd 36 1a f6 d0 ae
       -1.3146858e-06 2.1017155e-11 7.551073e-06 -9.502461e-11
000040 24 66 00 af 52 9d c8 38 9f 8f 2c ac ac 4e 42 b2
       -1.167782e-10 9.566046e-05 -2.4522396e-12 -1.1310174e-08
000050 29 92 90 33 99 d0 b8 2b d7 5a ce b5 4c fa e7 ac
       6.732109e-08 1.3131884e-12 -1.5374634e-06 -6.5932034e-12
000060 c3 5d fd af 12 d2 36 3a 07 4b 34 ae d5 6f 59 b3
       -4.6087054e-10 0.0006974052 -4.09939e-11 -5.062596e-08
000070 b3 a8 ec b6 5f 46 04 2d 8b 26 5c 38 b6 08 7a ae
       -7.0529873e-06 7.518957e-12 5.2487983e-05 -5.6851156e-11
000080 09 d0 98 2c 95 3a 04 b7 90 d1 45 2a 10 89 24 30
       4.3431964e-12 -7.881453e-06 1.7569821e-13 5.985763e-10
000090 05 8e 17 b4 70 0a 6f a9 33 19 a6 35 08 4c b3 2a
       -1.4114637e-07 -5.3077714e-14 1.2375298e-06 3.1849545e-13
0000a0 41 92 8c 2b a8 d2 39 b5 a3 eb f6 28 3d c8 d1 2e
       9.988192e-13 -6.9224416e-07 2.7413678e-14 9.539789e-11
0000b0 88 90 92 31 04 9c f3 a7 a4 32 a1 b2 8e 8b f3 27
       4.2655905e-09 -6.76152e-15 -1.8765896e-08 6.7597354e-15
0000c0 5e 66 0a ab e3 33 16 35 ef 81 b5 a7 92 ad 4e ae
       -4.916951e-13 5.595486e-07 -5.0378466e-15 -4.699314e-11
0000d0 e0 96 75 af 11 ab 64 27 b8 a6 41 32 34 72 a6 a6
       -2.2336222e-10 3.1734091e-15 1.1271986e-08 -1.1549519e-15
0000e0 db 39 ae af c9 1b c7 39 41 c7 22 ad 41 4c 04 b3
       -3.1691524e-10 0.0003797694 -9.252877e-12 -3.0802997e-08
0000f0 94 3a 26 35 05 d1 56 2c 1c b8 98 b6 17 6d 7c ad
       6.192506e-07 3.0527258e-12 -4.551386e-06 -1.4348764e-11

_model.layers.0._module_list.1.ws.weight f4 [6, 32]
000000 43 b1 c1 be 10 c0 b1 3e 22 2f 07 3f 81 ea 06 bf
       -0.37830552 0.34716845 0.52806294 -0.52701575
000010 9e b1 fc 3d 65 8a 61 be d0 ab 05 3f 0f 07 a7 be
       0.12338565 -0.2202545 0.5221529 -0.32622573
000020 16 b5 0d 3f 71 1a 95 3e 14 13 03 be 59 a8 91 be
       0.5535444 0.29121736 -0.12800246 -0.28448752
000030 3e e6 ef be 5e fa 72 3e ca 9c e4 be 26 3c 3a be
       -0.46855348 0.2372832 -0.4465087 -0.18187007
000040 3d 93 9d 3e b7 a2 ed 3e 78 ad b3 3e a4 fa 92 3e
       0.30776396 0.46413204 0.35093284 0.2870685
000050 e1 63 14 be 9e e7 fb be fe 4d 28 bf 45 ce 9f be
       -0.14491226 -0.49200147 -0.65744007 -0.3121206
000060 b9 ce 8a 39 36 b1 0f 3a 1f 7e b5 39 8d 1f ea 39
       0.00026475432 0.00054814236 0.00034616978 0.00044655465
000070 0a d5 ac 39 fe 17 0f 39 8b 5f c9 b8 1e 43 8e 39
       0.00032965123 0.0001364648 -9.602223e-05 0.00027134357
000080 6c 2a dc 3e 42 d5 5e 3e 11 4b 0a 3e 81 73 04 be
       0.43001115 0.21761039 0.13505198 -0.12934686
000090 11 ff 12 be 4b 37 a6 3e f4 f4 53 3e 13 83 69 3e
       -0.14355113 0.3246406 0.20698911 0.22803907
0000a0 ab 37 e7 bd 9b da 0a bd 62 ac 66 3e fc bc 82 3e
       -0.11289915 -0.033899885 0.22526696 0.2553481
0000b0 1f 0b 8c 3e d9 47 b3 be 4f e2 40 3e 8a ff 27 be
       0.27352235 -0.35015753 0.1883633 -0.16406074
0000c0 09 75 68 be 6d b6 a3 3c 47 73 84 3d 4e c5 c5 be
       -0.22700895 0.019984448 0.064673 -0.38627094
0000d0 c9 81 89 3e 05 09 01 be 7d b4 9a be 4b 31 19 3e
       0.2685683 -0.12601097 -0.30215827 0.1496021
0000e0 cc ca ae b9 4e ca 3f ba 62 96 9c b9 c4 eb d9 b9
       -0.00033338962 -0.00073162175 -0.00029866683 -0.00041565124
0000f0 00 fa a4 b9 5f fd ac b9 d7 79 01 ba 4a 0b b4 b9
       -0.00031466782 -0.00032995173 -0.0004939115 -0.00034340686
000100 09 60 80 3e 4a 12 0e bf 85 8d 39 be fc b9 19 3e
       0.2507327 -0.55496657 -0.18120392 0.15012354
000110 b0 55 82 be 88 51 57 3e 68 76 6a be a2 ca 02 3e
       -0.25456 0.21027195 -0.22896731 0.12772611
000120 7c 4f 97 be 3d da 08 bf 0c a2 57 3e 68 8b b1 be
       -0.2955283 -0.53458005 0.2105791 -0.3467667
000130 9f d7 a7 3e 0f 45 41 be c2 8d 9e 3d e4 7a 23 3e
       0.32781693 -0.18874 0.07741882 0.15964848
000140 e6 e3 7a be d8 01 80 3e 90 6d b4 bc 04 05 d2 be
       -0.24500999 0.25001407 -0.0220249 -0.41019452
000150 73 9d b7 3d 7d 6f c3 3d dc e8 96 3b c2 52 a5 bd
       0.08965578 0.09542749 0.0046053957 -0.080724254
000160 b8 a4 35 ba 20 bb 43 ba 47 3e 29 ba a7 15 2b ba
       -0.0006929147 -0.00074665435 -0.00064561184 -0.0006526359
000170 15 c6 2d ba 64 1d 34 ba d7 ea 26 ba 9e fc 35 ba
       -0.0006628943 -0.00068708346 -0.00063673913 -0.0006942245
000180 08 40 89 3e e2 3b cb 3d 09 82 8e be d1 a3 88 3e
       0.26806664 0.09923531 -0.27833584 0.26687482
000190 99 aa 32 bf 10 4b 24 3e f7 c3 66 be f7 b5 9c 3e
       -0.6979156 0.16044259 -0.22535692 0.30607578
0001a0 7e 71 99 be ba da ae be fb fc a1 3d 8d 4c 01 3e
       -0.299694 -0.3415125 0.0790958 0.12626858
0001b0 54 72 ec 3e ed 73 72 bd 93 1c c2 3e ed e3 87 bc
       0.46180975 -0.059192587 0.37912425 -0.016588176
0001c0 7d 54 b1 bd 12 55 b1 bd a5 8c 95 be 8b bd e2 be
       -0.08658693 -0.08658804 -0.29208866 -0.44285235
0001d0 a3 fe 7b 3e 5f 23 98 3e f9 cb ef 3e 9d 5a b6 3d
       0.24608855 0.29714486 0.46835306 0.08904002
0001e0 fd e8 6e 39 0d 18 b3 b6 a4 90 06 39 ab 8a f9 b8
       0.00022784244 -5.3374156e-06 0.00012833119 -0.00011899074
0001f0 79 73 d5 38 c3 c6 85 39 16 3a 1f 3a 85 17 89 39
       0.0001017814 0.00025515826 0.0006074024 0.000261482
000200 f7 e0 fe bd 65 67 1f bd 85 22 06 be e7 f1 3a 3e
       -0.124452524 -0.038916964 -0.13099106 0.18256341
000210 de bd 7f 3e 0f be 17 be b5 09 94 be fa e1 3c be
       0.24974772 -0.14818595 -0.28913656 -0.18445578
000220 48 e7 6c 3d 4c ec 92 3d d9 c9 18 be 53 14 9b bd
       0.057837754 0.07173976 -0.14920749 -0.07572236
000230 f3 bd ae be b2 f3 0b 3d b4 27 02 be 45 47 bb bc
       -0.34129295 0.034167953 -0.12710458 -0.022861132
000240 a2 3b ca 3d d6 2b 83 3c 54 16 08 be 68 e3 c1 3e
       0.09874655 0.016012114 -0.13289768 0.3786881
000250 f4 19 69 be 48 e9 4b 3e 93 39 7a 3e 3f 68 3e be
       -0.22763807 0.19913208 0.24436025 -0.18594454
000260 75 9c fe 38 03 ce f1 3a 54 bf 0c 39 c1 a5 0d 3a
       0.00012140806 0.0018448237 0.00013422716 0.00054034224
000270 29 90 15 39 08 7c fd 38 e3 73 5b b8 cc 4e f7 38
       0.00014263451 0.00012087083 -5.2321597e-05 0.00011792555
000280 49 65 39 be 49 0d 3d 3d 46 5a d9 bd fd 45 35 3e
       -0.18105043 0.046155248 -0.106129214 0.1770248
000290 6a f6 cb 3e 92 49 97 be d7 ce 5b be f6 ad 92 be
       0.39836437 -0.29548317 -0.21465622 -0.28648347
0002a0 df bf 0a 3d a2 e5 bb 3e e3 7b 17 be 2d 9d 58 3e
       0.03387439 0.36698633 -0.14793353 0.21153708
0002b0 a2 f6 f7 be fc 8b 67 3e a3 6e 85 be 53 7c 07 3e
       -0.48430353 0.22611994 -0.26060972 0.1323102
0002c0 d9 68 8c 3e d2 95 ce be b2 a1 cd bd 23 52 34 3f
       0.27423742 -0.4034868 -0.100406066 0.7043783
0002d0 ce 39 50 be a5 55 87 3e ed 80 c6 3e 9e bc 18 3e
       -0.2033455 0.2643253 0.38770238 0.14915702
0002e0 dc 0d 84 39 5a 8c b3 3a f1 53 35 39 40 91 fe 39
       0.00025187328 0.0013698444 0.00017292776 0.00048554875
0002f0 de 39 74 39 e0 67 88 39 96 50 06 3a 1a 15 90 39
       0.0002329121 0.00026017334 0.00051237026 0.00027481542

_model.layers.0._module_list.1.ws.bias f4 [6]
000000 46 53 b9 3e 43 05 49 3c af 02 ad bd c7 6e 39 be
       0.36196345 0.012269321 -0.084477775 -0.18108664
000010 7b 71 40 3d 9c 90 5e bb
       0.046983223 -0.0033960706

_model.layers.0._module_list.1.wv.weight f4 [4, 8]
000000 81 17 7c 36 08 4e 06 3b 7c 6d 8b 37 b6 0d 21 ba
       3.7564607e-06 0.0020493288 1.6621074e-05 -0.00061437057
000010 d7 df 20 37 ea 57 ac 33 f4 fc 1a b3 3f fb 36 38
       9.58886e-06 8.0253656e-08 -3.608598e-08 4.3626173e-05
000020 3f 1c bd 34 37 8b 26 b9 c4 ec bd b6 ae e5 3c b8
       3.5224545e-07 -0.00015882855 -5.660202e-06 -4.50366e-05
000030 ac cb a6 35 ca 92 b7 b2 74 03 b2 32 1d c6 c0 36
       1.242724e-06 -2.1370756e-08 2.0723498e-08 5.7451093e-06
000040 db 40 45 36 28 6d b2 39 08 3d 75 36 0c 8f 02 39
       2.9393038e-06 0.00034032133 3.654337e-06 0.00012451055
000050 e9 31 9b 35 d0 f9 c4 33 3a eb 16 b3 c3 4c 94 b7
       1.1562926e-06 9.172402e-08 -3.5138534e-08 -1.767872e-05
000060 ac 9a 5b b7 bd ba b0 3a 35 76 7b 38 31 2d 1f 3a
       -1.308943e-05 0.0013483387 5.9953152e-05 0.00060721027
000070 ed bd 78 b6 80 ad 74 b4 b0 de 9f b3 34 df 66 38
       -3.706543e-06 -2.278739e-07 -7.444521e-08 5.5044147e-05

_model.layers.0._module_list.1.wsv.weight f4 [4, 6]
000000 fc 43 58 b4 be 00 2c 34 d9 85 85 34 b3 3a 6f 35
       -2.01413e-07 1.6019018e-07 2.4870567e-07 8.9119857e-07
000010 51 a4 ae b3 3c 5a 70 b4 51 e1 fc b2 62 f0 5a b1
       -8.1323954e-08 -2.2384569e-07 -2.9439123e-08 -3.1859817e-09
000020 3f e0 dd b1 5c 7e 65 33 28 c0 15 32 80 ad 9d 32
       -6.4574404e-09 5.343314e-08 8.716633e-09 1.8356104e-08
000030 cf b8 2f b3 f4 95 93 33 71 45 85 33 ee 57 8c b4
       -4.0913445e-08 6.872497e-08 6.2059264e-08 -2.614101e-07
000040 54 8d 52 b3 cf 7f e1 b3 86 a6 18 b5 5c 22 6c 34
       -4.9022972e-08 -1.0500627e-07 -5.6866736e-07 2.1991713e-07
000050 65 f9 46 34 23 0d d5 35 d4 83 d3 b3 c7 02 11 b4
       1.8530916e-07 1.587356e-06 -9.8494326e-08 -1.3505188e-07

_model.layers.0._module_list.1.wsv.bias f4 [4]
000000 84 d4 9e b3 44 b7 94 b1 82 9c a8 b1 1a a2 ea b3
       -7.396105e-08 -4.328202e-09 -4.9072364e-09 -1.092596e-07

_model.layers.1.conv._module_list.0.wh.weight f4 [9, 9]
000000 3d e1 86 3e c3 93 c7 be 34 d7 a5 3e 60 eb a9 3d
       0.26343718 -0.3897992 0.3239075 0.08296847
000010 05 f0 01 bc 88 fd 80 3e 76 e3 f8 be 8c 1e 91 3d
       -0.00793076 0.2519343 -0.4861104 0.070859045
000020 44 f3 7b bd 63 da a3 bd 04 f3 26 3f d9 ba 17 bf
       -0.061511293 -0.08000638 0.6521456 -0.5926948
000030 92 00 8b be db 9c 68 be 9e 9a a8 bc 6b c7 1e bf
       -0.27148873 -0.22716086 -0.02058154 -0.6202304
000040 2c 13 26 3f f2 47 ab 3d ee 7d 6f be 3c 96 a3 3e
       0.64873004 0.08363332 -0.23387882 0.31950557
000050 5c bf b0 be bf 3a a3 bf 5e 1d 3c 3f 48 f5 8f 3e
       -0.34520996 -1.2752303 0.7348231 0.28116822
000060 68 3e 45 be 80 5a df 3d 6b 05 db 3e 74 60 97 3b
       -0.19262087 0.109059334 0.4277757 0.0046196524
000070 35 44 94 3d 7b 52 21 be 99 6d 05 3e 0f 2e 61 3c
       0.07239572 -0.1575412 0.1303009 0.013743891
000080 83 64 fa bd 9b 61 20 3d 44 76 71 bd 22 5b d3 3c
       -0.12226202 0.039155584 -0.058950678 0.025800291
000090 9f 03 01 3e 23 ec 3d bf aa f2 3f 3e a0 44 55 be
       0.12599038 -0.7418844 0.18744913 -0.2082696
0000a0 95 7e 6c 3d 70 e8 74 3e 59 86 09 bf 5f d3 9e 3e
       0.057737906 0.23916793 -0.53720623 0.31020638
0000b0 ef 1e 25 bf 04 35 83 3e 63 d5 c8 be ba 36 40 3f
       -0.64500326 0.25626385 -0.392253 0.75083506
0000c0 62 5a 6f be 7e 03 e9 3d 95 66 09 3c 8f 22 e0 be
       -0.23374322 0.11377619 0.008386274 -0.43776366
0000d0 6a 5e 87 3d f5 6e 12 3e 00 de 4c be 5c fe 34 3f
       0.06609805 0.14300139 -0.20006561 0.7070062
0000e0 18 7a e4 be cd 9c 65 3e 7b d9 0e be d6 2a 1e 3d
       -0.446244 0.22423096 -0.1395015 0.03861507
0000f0 a7 3f 3f 3f 12 a6 18 be 5a c8 6e 3e 6c b0 87 3e
       0.747065 -0.14907101 0.23318616 0.26501787
000100 48 ce e6 be c7 43 df 3e 27 97 0c 3e a4 6e 0d be
       -0.45079255 0.43606398 0.13729535 -0.13811737
000110 65 ed 41 be ee c5 0a 3f c9 c8 ac be ff bf 35 be
       -0.18938215 0.54208267 -0.33746937 -0.17749022
000120 30 4a bb 3c 8d b3 2f bf 4a b4 2b 3f 11 99 c2 3e
       0.022862524 -0.6863335 0.67071974 0.38007405
000130 bc 5d ad 3d 38 f0 95 be f9 3a 31 3f 45 ee 01 bf
       0.08465144 -0.29284835 0.6923061 -0.50754195
000140 02 09 48 3d
       0.048836716

_model.layers.1.conv._module_list.0.ws.weight f4 [6, 27]
000000 ea 1b 8f bd a6 93 01 be 41 0c e4 3d 39 f7 86 3d
       -0.06987746 -0.1265398 0.1113515 0.06590123
000010 f7 e3 f6 bc da f3 b5 3e 13 c3 d3 3c 0a 12 00 be
       -0.030137999 0.35537606 0.025849855 -0.12506881
000020 af 1e f6 bd b7 3b bb be 8f 2e cf bc 9d 01 80 be
       -0.12017571 -0.36568996 -0.025290756 -0.2500123
000030 86 e8 2a 3e 1d e1 10 be e9 a3 80 bd 33 09 8e be
       0.16690263 -0.14148374 -0.062812634 -0.27741393
000040 ec 36 5a 3d 46 a5 d6 bc 40 dc 8a be b1 23 79 3d
       0.053275034 -0.026201855 -0.27121162 0.060825054
000050 b3 ea 81 be 3a d5 40 be 07 a0 9e be 41 c3 16 3b
       -0.25374374 -0.1883134 -0.30981466 0.0023004564
000060 19 05 ac be cd 98 e4 3d b1 db b1 3d 8f 96 02 3d
       -0.3359764 0.11161957 0.08684481 0.031881865
000070 3d 49 a3 3e f4 cc 3c 3e fc 9e 73 bd c4 0f 09 be
       0.31891814 0.18437558 -0.05947779 -0.1338492
000080 91 d6 37 bf c8 c6 81 be ec f7 69 be be 4d 97 bd
       -0.7181178 -0.2534697 -0.22848481 -0.07387875
000090 c3 09 4c 3c 14 6d 7a be 10 d9 7d bd 34 95 4c 3e
       0.012453499 -0.24455673 -0.061974585 0.19978791
0000a0 f5 01 87 be 05 14 aa 3e d5 d1 31 be 34 fe de bd
       -0.2636868 0.332184 -0.17365201 -0.10888329
0000b0 98 9a a2 3e d7 bb a9 be 59 ab d2 3e b4 fb 71 3f
       0.3175857 -0.33151123 0.41146353 0.94524693
0000c0 99 01 2a be a3 d8 89 be 3d 9a 16 bf cf 2e 07 bf
       -0.16602172 -0.26923093 -0.588291 -0.528058
0000d0 87 ee d8 3e 4e df 00 3f 2f bc 86 be 10 47 7b 3e
       0.42369482 0.50340736 -0.26315448 0.24538827
0000e0 61 7f 7a 3e 7e 77 c0 3d 50 15 8a be 9d 52 1d bd
       0.24462654 0.09397791 -0.26969385 -0.038408864
0000f0 3f 87 28 bf 25 4e 48 be b3 ba b8 3d 63 c4 95 be
       -0.6583137 -0.1956106 0.09019985 -0.29251394
000100 8a 74 e6 be 67 5c e6 be 93 dd 19 bd 55 36 ba 3e
       -0.45010787 -0.44992372 -0.037564825 0.36369577
000110 09 fe 54 3e 47 75 4f 3d c7 df 72 be fa fa 16 bf
       0.20800032 0.050648954 -0.23718177 -0.5897671
000120 fa 43 ec bd 0a 91 85 3f 17 eb 09 3f 60 9d 56 bd
       -0.11536403 1.0434887 0.53874344 -0.05239618
000130 24 6b c0 be 1b 27 ae bd 9e 20 a3 be f9 3b 19 3f
       -0.37581742 -0.085035525 -0.31860822 0.59857136
000140 40 90 8d 3f 3b 08 9f 3d 83 a6 0f 3f a8 b2 13 3e
       1.1059647 0.07765242 0.5611345 0.1442362
000150 ca e6 85 be 16 ff 25 3e 12 24 2e bf 20 75 c1 3d
       -0.2615264 0.16210589 -0.6802379 0.09446168
000160 1d ac 34 be 7a 16 ee be f3 be f5 bc 1e 71 05 3e
       -0.17643781 -0.46501523 -0.029998278 0.13031432
000170 b0 e8 3e 3c 22 3d 84 bc cd cf ac 3e 39 41 a5 3d
       0.011652157 -0.016142432 0.3375229 0.08069081
000180 a0 95 82 bd cc 34 23 be c1 2a 2a bd a0 8d 12 3d
       -0.06376195 -0.15938109 -0.04154468 0.035779595
000190 25 ff d3 be f8 e6 0b 3d a2 47 e0 3c 7c e1 3e 3f
       -0.41405597 0.034155816 0.027377907 0.7456281
0001a0 af f6 40 3e 00 b1 49 3f 92 92 ae be 7a 68 85 be
       0.18844102 0.78785706 -0.340962 -0.26056272
0001b0 ae 88 26 be 82 08 82 be d9 57 33 be 7b 60 07 3e
       -0.16263077 -0.25397116 -0.1751398 0.13220398
0001c0 eb ef 00 3b 29 a4 c6 3e ab 18 02 3e e4 13 2f 3e
       0.0019674252 0.3879712 0.12704723 0.17097431
0001d0 29 56 71 bb ac 6c 7f be f7 f3 e9 bb 96 5c e3 bc
       -0.0036825037 -0.24943799 -0.0071396786 -0.02775411
0001e0 da d4 d6 be 16 96 e8 3d 83 0e ab 3d ea 78 bf 3e
       -0.41959268 0.113567516 0.08352377 0.37396938
0001f0 d3 d4 c9 bd 89 79 56 3e 2c 00 5e 3d 36 45 46 bf
       -0.09855046 0.209448 0.054199383 -0.7744936
000200 ee 47 b4 be 39 53 c6 3d fb 1a c8 3e 10 09 c6 3e
       -0.35211128 0.09683842 0.39083084 0.3867879
000210 39 5d fe 3e 82 d2 28 bf c5 54 65 bf 83 ee de 3c
       0.49680498 -0.6594621 -0.89582473 0.02721334
000220 da fd 4e 3f c6 76 db 3d 1d 7d 18 3d 61 d6 aa bd
       0.80856097 0.107160136 0.037228692 -0.08341671
000230 84 1d 4e bf 5a 51 c4 3e 10 aa 1f be df c8 e8 3e
       -0.8051379 0.38343316 -0.15592217 0.45465752
000240 d1 79 00 3e 91 db 04 3e 73 74 9c bd 8b 64 7e 3e
       0.1254647 0.12974383 -0.076393984 0.24843042
000250 8b 74 31 3e 60 e7 62 bd da bd 9e 3b 64 8f 36 be
       0.17329614 -0.055396438 0.0048444094 -0.17828137
000260 8c ce 8b 3e 52 4f 43 3f b8 01 7a be 87 af 9b be
       0.2730602 0.7629291 -0.24414718 -0.30407354
000270 24 a6 66 3c 9f 25 ed 3e a4 b3 ef 3e d0 ea 27 3f
       0.014077697 0.46317765 0.46816742 0.6559267
000280 73 3b 79 be 52 95 52 be
       -0.24339084 -0.20564774

_model.layers.1.conv._module_list.0.ws.bias f4 [6]
000000 f7 57 69 be 2d 59 07 bd 8f 10 af 3d 59 4f b2 3d
       -0.22787462 -0.03304403 0.0854808 0.087065406
000010 eb ac 1c 3d 49 62 bc 3e
       0.038250845 0.36793736

_model.layers.1.conv._module_list.0.wv.weight f4 [4, 9]
000000 6c ae e3 bd 5e e5 b3 be 15 db ef be 98 c7 82 bb
       -0.11117253 -0.3513593 -0.46846834 -0.0039910786
000010 86 1e b3 3c 85 dc a0 3d 02 a6 5e 3e 42 b1 89 3e
       0.02186514 0.07854561 0.21743014 0.2689305
000020 4a 44 8b 3e 9a 13 4c 3c 5a 8e fe 3d d3 da 5c 3e
       0.27200538 0.012455845 0.12429495 0.2156785
000030 06 46 c8 bb 5a 6b a5 bc db d8 48 be d4 c0 16 3e
       -0.006111863 -0.02019279 -0.19613974 0.14721996
000040 b7 0e 19 be c9 3c ea bd b8 9e be be 0c fb c3 3e
       -0.1494702 -0.11437375 -0.37230468 0.3827747
000050 43 48 a4 bd 49 c9 27 3e d5 68 0b bf 92 e4 03 bf
       -0.08021595 0.16385378 -0.54456836 -0.51520646
000060 88 eb d7 3e 36 50 3f be 0a 0b c4 be e8 03 d9 bc
       0.42171884 -0.18682942 -0.38289672 -0.02649112
000070 12 ee 0d 3f 81 2e 5c be b5 f9 86 3e e8 c8 37 be
       0.5544139 -0.21502115 0.26362386 -0.17947733
000080 dc 56 51 be 41 30 1d 3e 66 3f c2 be 85 8f db be
       -0.2044329 0.15350439 -0.37938994 -0.42882934

_model.layers.1.conv._module_list.0.wsv.weight f4 [4, 6]
000000 2f b3 41 3e 73 b9 3d be 5a 0d 3d 3e 49 76 5f bf
       0.1891601 -0.18527775 0.18462124 -0.87289864
000010 64 fa 84 be fb 32 7b bf 4e c3 2a 3e d8 ef 45 3d
       -0.25972283 -0.98124665 0.16676065 0.048324436
000020 21 2f 82 be 2b 5f 8d be 22 3f b2 bc b7 bd 56 be
       -0.25426582 -0.2761167 -0.02175862 -0.20970808
000030 04 6f 1a 3f a6 2e 15 3f c4 a8 16 3e b6 ab f6 be
       0.60325646 0.58274305 0.14712816 -0.4817788
000040 60 2b d2 be 92 82 a1 be 4e b8 fc bd 3e 6a 46 be
       -0.41048717 -0.3154493 -0.12339841 -0.19376466
000050 5e da f0 3d fb 3c 02 bf b0 2b 97 3e 85 f3 15 bf
       0.117604 -0.508743 0.29525518 -0.58574706
