nacl/train/6A_2layer_1c/model.pt (torch, 45097 bytes, 73 tensors)

_model._radial_embedding.bessel_fn.bessel_weights f4 [8]
0.5235988 1.0471976 1.5707964 2.0943952 2.6179938 3.1415927 3.6651917 4.1887903
00000000: 920a 063f 920a 863f db0f c93f 920a 0640
00000010: 368d 2740 db0f 4940 8092 6a40 920a 8640

_model.W_e.0.scalar_norm.weight f4 [8]
1.4776108 0.85227597 0.9401228 0.9476633 0.7744514 0.8527526 0.8304542 0.8114397
00000000: 5a22 bd3f c22e 5a3f e3ab 703f 109a 723f
00000010: 7242 463f ff4d 5a3f a598 543f 83ba 4f3f

_model.W_e.0.scalar_norm.bias f4 [8]
-0.5157394 0.113067575 0.15999669 0.20863323 0.17048632 -0.015060563 -0.10035262 -0.114827044
00000000: 7f07 04bf f98f e73d 2cd6 233e f3a3 553e
00000010: f793 2e3e 94c0 76bc ad85 cdbd 712a ebbd

_model.W_e.1.ws.weight f4 [6, 9]
0.024473244 0.022000415 -0.24883759 -0.2645656 -0.113315836 0.16265532 0.27557114 0.15127894
-0.020565704 0.6146997 0.050038856 0.020373806 -0.2928456 0.058067106 0.16511305 0.2528506
0.12970747 -0.06317902 0.1373429 0.03599071 0.08275149 0.088986136 0.15816729 0.0012339047
-0.004110722 -0.032937247 -0.21917944 0.39117932 -0.2822711 -0.29237238 -0.09279968 -0.13561252
-0.039474048 -0.018279158 -0.062283304 -0.39056507 0.8478569 -0.010935391 -0.29340824 -0.27244925
-0.20857954 -0.07968614 -0.002195805 0.08434102 -0.30519444 0.36216816 0.22011262 -0.19962844
-0.18393539 -0.06938012 0.12170406 0.1025673 0.11817438 -0.2831386
00000000: 1d7c c83c 373a b43c 48cf 7ebe 2475 87be
00000010: 2212 e8bd 1e8f 263e a917 8d3e dee8 1a3e
00000020: 6879 a8bc f65c 1d3f 8bf5 4c3d f8e6 a63c
00000030: dcef 95be c6d7 6d3d 6513 293e a275 813e
00000040: 09d2 043e 0164 81bd 9ea3 0c3e ff6a 133d
00000050: 9d79 a93d 5d3e b63d 9bf6 213e f9ba a13a
00000060: 3cb3 86bb 35e9 06bd 9370 60be a848 c83e
00000070: d685 90be d5b1 95be c20d bebd 02de 0abe
00000080: 8aaf 21bd 2cbe 95bc c71c 7fbd 25f8 c7be
00000090: 260d 593f 5b2a 33bc 9b39 96be 787e 8bbe
000000a0: e095 55be 7d32 a3bd 7fe7 0fbb fcba ac3d
000000b0: 7242 9cbe 1b6e b93e 3465 613e 666b 4cbe
000000c0: 8f59 3cbe 2a17 8ebd fa3f f93d ce0e d23d
000000d0: 6905 f23d 8bf7 90be

_model.W_e.1.ws.bias f4 [6]
0.16297394 -0.024967046 0.27557722 -0.07539706 -0.5421973 -0.079155676
00000000: a4e2 263e b187 ccbc 7518 8d3e c669 9abd
00000010: 71cd 0abf 5f1c a2bd

_model.W_e.1.wsv.weight f4 [1, 6]
0.29416832 0.55264837 -0.11420036 0.32628393 0.96599686 0.62929344
00000000: 3b9d 963e 5d7a 0d3f e1e1 e9bd b00e a73e
00000010: 924b 773f 6019 213f

_model.W_v.0.scalar_norm.weight f4 [3]
0.8898048 1.111723 1.1957253
00000000: 3fca 633f f04c 8e3f 870d 993f

_model.W_v.0.scalar_norm.bias f4 [3]
-0.08264797 0.06779181 0.021835133
00000000: 5743 a9bd 6fd6 8a3d 98df b23c

_model.W_v.1.ws.weight f4 [6, 3]
-0.48403597 0.506646 0.24454238 -0.045792557 0.32773954 -0.38049594 0.39464796 -0.27228564
0.63600135 0.27456343 -0.21742447 -0.06295955 -0.2802366 0.6489545 -0.45829678 -0.45146167
-0.31027538 0.66108084
00000000: 90d3 f7be 8db3 013f 5169 7a3e fa90 3bbd
00000010: 7acd a73e 5dd0 c2be 4c0f ca3e 0669 8bbe
00000020: fcd0 223f 9493 8c3e 85a4 5ebe f0f0 80bd
00000030: 2c7b 8fbe e221 263f e0a5 eabe fc25 e7be
00000040: 6adc 9ebe 983c 293f

_model.W_v.1.ws.bias f4 [6]
0.30015215 0.41517368 -0.27838656 0.16796303 0.008310453 -0.18329617
00000000: 8bad 993e a591 d43e af88 8ebe 80fe 2b3e
00000010: 9128 083c feb1 3bbe

_model.layers.0.conv._module_list.0.wh.weight f4 [9, 9]
9.5039227e-20 -6.357876e-21 1.0126507e-18 -5.7282226e-19 0.22654842 -1.7676363e-20 -1.6226072e-20 -8.329144e-20
1.9525828e-20 7.1658824e-20 -1.6264207e-18 2.4706732e-19 1.3668879e-19 0.18488537 -8.990657e-20 3.0109072e-18
1.3821962e-19 -3.1443106e-20 2.9691998e-18 -8.1507e-20 -1.509206e-19 -1.5104896e-19 -0.08976208 -8.353093e-20
-2.9022042e-20 6.0360946e-20 1.5207252e-19 -2.8119983e-21 -1.0488162e-21 1.0890567e-20 -5.1653366e-19 -0.2464525
-1.9790252e-19 5.075325e-18 1.1488209e-18 -1.1651847e-19 7.236499e-20 3.664382e-20 -7.9104135e-20 -1.8024752e-20
-0.24982382 -4.9100635e-19 5.9380595e-20 1.7474265e-21 -9.340641e-21 8.934507e-20 -6.6401775e-20 -9.797419e-19
-8.180133e-19 -0.04520957 -9.949248e-21 8.445038e-19 3.0353486e-19 -1.6587865e-19 -4.3067898e-21 -1.2946582e-20
2.058163e-20 -1.1482968e-20 0.15669294 -3.82751e-19 -3.8940723e-18 -1.8562372e-20 3.7513563e-18 -2.5869403e-20
1.2031211e-21 1.5863583e-20 1.2212191e-19 -0.26802716 1.0935622e-19 1.7158726e-19 6.8480504e-18 -4.1295115e-19
-4.4667273e-18 -2.0409304e-20 7.845511e-20 -2.4086114e-19 -0.33515254 -7.592285e-20 2.993204e-19 -6.847737e-18
2.5621349e-20
00000000: b067 e01f 9b31 f09d dd70 9521 3a11 29a1
00000010: 4ffc 673e d3f2 a69e 3c40 999e 96aa c49f
00000020: 8e6a b81e 1a33 a91f 7004 f0a1 c2d7 9120
00000030: a75f 2120 9752 3d3e 3049 d49f 6e2a 5e22
00000040: 512e 2320 627c 149f 9916 5b22 f573 c09f
00000050: f42c 32a0 bf53 32a0 2ed5 b7bd 593b c59f
00000060: 7f0d 099f f485 8e1f 1989 3320 f577 549d
00000070: 1d7e 9e9c 8db7 4d1e 2e74 18a1 0b5e 7cbe
00000080: 5ea4 69a0 173f bb22 3a89 a921 8c8f 09a0
00000090: f4dd aa1f a90b 2d1f 84c7 ba9f 2d3d aa9e
000000a0: d1d1 7fbe 64eb 10a1 5e35 8c1f 2508 041d
000000b0: 9170 309e c8f5 d21f 69c9 9c9f 9a95 90a1
000000c0: 566f 71a1 ac2d 39bd 9cef 3b9e e740 7921
000000d0: e42c b320 bfd5 43a0 b7b4 a29d d48d 749e
000000e0: 5463 c21e 3ae8 589e 1d74 203e b2ef e1a0
000000f0: 79aa 8fa2 1051 af9e 8f66 8a22 6154 f49e
00000100: 7ecf b51c cad3 951e 152d 1020 db3a 89be
00000110: e41a 0120 1193 4a20 02a6 fc22 6ac3 f3a0
00000120: 0ccb a4a2 abc2 c09e 343f b91f e82d 8ea0
00000130: 1d99 abbe 8c44 b39f 05b0 b020 0ca3 fca2
00000140: 9ffc f11e

_model.layers.0.conv._module_list.0.ws.weight f4 [6, 27]
-0.37667972 -0.06341359 -0.16620581 0.33445925 -0.016981212 -0.08076848 0.07596177 -0.11547284
0.12684609 0.053165164 -0.074154146 0.04462855 -0.08954616 0.046695467 0.052330896 0.05671817
0.16943665 0.051769223 -0.030743573 0.00010657857 4.636218e-05 -0.01061652 0.014144487 0.0006381681
0.001380339 -0.04424289 -0.05077576 0.17976663 -0.132076 0.4075826 0.08157016 -0.32816476
0.35120827 0.06658609 -0.0044226465 0.04568797 -0.14166024 0.08166824 0.15285291 0.051414058
-0.04996825 0.18675737 -0.11873065 -0.12334518 -0.06084805 0.0042512524 0.011686313 0.02882922
-0.040955592 -0.010406274 0.004364781 -0.018168755 -0.07221893 -0.111716725 0.2279246 -0.39464694
0.4780208 0.020994347 -0.21908827 0.1601891 0.09092224 -0.21764944 -0.096203186 0.14177287
-0.019269593 0.034002632 -0.16998622 0.07589355 -0.1251449 0.15482876 0.0143403625 -0.1142137
-0.010980389 0.036285058 0.005336089 -0.065501556 -0.056633443 0.0053737224 -0.0056452993 -0.078836836
0.0019670457 0.13207297 0.19368231 -0.33885327 0.16358007 0.40256906 -0.15933329 0.09118875
-0.10801662 -0.012328509 0.064608425 -0.090087436 0.21327247 -0.10477116 0.01894066 0.10260184
0.058603875 -0.0046322234 -0.12262265 0.0067553674 -0.0022522584 -0.011648367 -0.09279781 0.056312792
-0.009247876 -0.036637306 0.06711787 -0.07583688 -0.17597383 -0.23918563 0.30636448 0.044950932
-0.25821725 -0.08258177 -0.04246013 0.11735163 0.022887854 0.052486893 -0.09043451 -0.031224454
0.028266132 -0.06735487 -0.21998133 0.060283534 -0.04453175 -0.1750103 0.012508743 -0.060023576
-0.019174328 -0.07399728 0.038464192 -0.010120884 -0.030633109 0.010002403 -0.035227384 -0.2627122
0.108139895 -0.29317337 -0.012833716 0.019832702 -0.29763594 0.043101072 -0.11978242 -0.06721557
-0.074892804 0.142547 -0.018056516 -0.08682017 -0.07490141 -0.095039934 0.107741445 -0.023003103
-0.16455923 -0.028907288 -0.05480064 -0.0032313648 0.010927405 -0.036881525 -0.0071030827 -0.0058681173
-0.0889961 0.01063481
00000000: 2adc c0be fcde 81bd db31 2abe 3e3e ab3e
00000010: 2f1c 8bbc f269 a5bd d891 9b3d 067d ecbd
00000020: f1e3 013e b7c3 593d 21de 97bd 6dcc 363d
00000030: fa63 b7bd bf43 3f3d ec58 563d 5051 683d
00000040: cd80 2d3e f70b 543d f2d9 fbbc ef82 df38
00000050: 0375 4238 eaf0 2dbc 47be 673c bc4a 273a
00000060: 7eec b43a 0838 35bd 3efa 4fbd be14 383e
00000070: ee3e 07be abae d03e 420e a73d 3605 a8be
00000080: 92d1 b33e 4a5e 883d d9eb 90bb 4f23 3b3d
00000090: 620f 11be ae41 a73d 7985 1c3e 8c97 523d
000000a0: 82ab 4cbd 533d 3f3e 0e29 f3bd 669c fcbd
000000b0: ce3b 79bd 174e 8b3b f377 3f3c 422b ec3c
000000c0: 0dc1 27bd 147f 2abc 7006 8f3b a4d6 94bc
000000d0: 85e7 93bd bdcb e4bd 1165 693e 2a0f cabe
000000e0: 24bf f43e 56fc ab3c ad58 60be 9d08 243e
000000f0: 7035 ba3d 7fdf 5ebe 2d06 c5bd e82c 113e
00000100: 44db 9dbc 5846 0b3d de10 2ebe 146e 9b3d
00000110: fc25 00be 6e8b 1e3e d7f3 6a3c dfe8 e9bd
00000120: 17e7 33bc a49f 143d 5cda ae3b ae25 86bd
00000130: 78f8 67bd 0d16 b03b 34fc b8bb 3575 a1bd
00000140: 8de9 003b 233e 073e a854 463e 2d7e adbe
00000150: 8981 273e 881d ce3e 4428 23be 2bc1 ba3d
00000160: d137 ddbd 84fd 49bc 6c51 843d c37f b8bd
00000170: 1964 5a3e 4392 d6bd 7129 9b3c ea20 d23d
00000180: 9e0a 703d e8c9 97bb 9521 fbbd 215c dd3b
00000190: a09a 13bb cbd8 3ebc c70c bebd 3ea8 663d
000001a0: 6784 17bc 0011 16bd 1875 893d 5e50 9bbd
000001b0: 7c32 34be 14ed 74be cedb 9c3e 781e 383d
000001c0: 0d35 84be a220 a9bd acea 2dbd 0d56 f03d
000001d0: 4f7f bb3c 7ffc 563d ba35 b9bd 6dca ffbc
000001e0: 608e e73c 5af1 89bd c942 61be deeb 763d
000001f0: ed66 36bd e635 33be 79f1 4c3c 48db 75bd
00000200: 7b13 9dbc e38b 97bd a18c 1d3d 10d2 25bc
00000210: 49f2 fabc 1ee1 233c 974a 10bd 3782 86be
00000220: 7378 dd3d d21a 96be 8244 52bc 3178 a23c
00000230: bd63 98be c08a 303d 7c50 f5bd 51a8 89bd
00000240: 6661 99bd d7f7 113e 42eb 93bc c6ce b1bd
00000250: e965 99bd 4ca4 c2bd 8ca7 dc3d 0171 bcbc
00000260: 3782 28be face ecbc a376 60bd 4ec5 53bb
00000270: dc08 333c 1511 17bd fac0 e8bb 5649 c0bb
00000280: 9643 b6bd a03d 2e3c

_model.layers.0.conv._module_list.0.ws.bias f4 [6]
-0.17661431 0.13375881 -0.043095205 0.041897435 -0.044760782 0.10529839
00000000: 62da 34be 12f8 083e 9984 30bd a59c 2b3d
00000010: 1557 37bd afa6 d73d

_model.layers.0.conv._module_list.0.wv.weight f4 [4, 9]
0.12143407 0.16729437 0.19097303 -0.24530599 0.25908032 0.06871575 0.17006636 -0.2838346
-0.14823267 0.32359874 0.31328812 0.21386543 0.039536767 0.07058386 0.24355888 0.042602852
-0.063784786 -0.17470644 0.22231178 -0.027333347 0.036298126 -0.3036126 -0.22462049 -0.3443403
0.15632308 -0.048404735 0.009294501 0.32713312 0.14797182 -0.017637152 -0.3539909 -0.10681082
0.16124135 0.17705649 0.016766842 -0.06105936
00000000: 6db2 f83d 374f 2b3e 6f8e 433e 7e31 7bbe
00000010: 2da6 843e d8ba 8c3d e025 2e3e c552 91be
00000020: 4eca 17be bcae a53e 4d67 a03e 8aff 5a3e
00000030: 4ef1 213d 458e 903d 8067 793e 5480 2e3d
00000040: 99a1 82bd 3fe6 32be b3a5 633e 2fea dfbc
00000050: 58ad 143d 1c73 9bbe ea02 66be 5f4d b0be
00000060: 2813 203e 0b44 46bd f647 183c fe7d a73e
00000070: ed85 173e ca7b 90bc 4c3e b5be a2bf dabd
00000080: 741c 253e 4c4e 353e 9e5a 893c 6119 7abd

_model.layers.0.conv._module_list.0.wsv.weight f4 [4, 6]
0.40282157 -0.42432427 -0.40890655 0.12924834 -0.08521441 0.25592023 0.23021543 0.3594732
0.47768322 -0.36397427 0.39011067 -0.20779489 -0.24720727 -0.3089991 0.0032917676 0.46344447
-0.573137 -0.375993 0.0019178706 0.16954005 0.1712067 -0.40561354 -0.3257819 -0.42824352
00000000: a13e ce3e 0841 d9be 335c d1be ad59 043e
00000010: e584 aebd fa07 833e 98bd 6b3e df0c b83e
00000020: e592 f43e d65a babe 96bc c73e 2fc8 54be
00000030: e723 7dbe 2135 9ebe b2ba 573b 9848 ed3e
00000040: 1bb9 12bf 2882 c0be 0f61 fb3a e89b 2d3e
00000050: cf50 2f3e 94ac cfbe e3cc a6be bc42 dbbe

_model.layers.0.conv._module_list.0.wsv.bias f4 [4]
-0.4067149 -0.17296022 -0.20668449 -0.33613583
00000000: ef3c d0be 7c1c 31be 19a5 53be ff19 acbe

_model.layers.0.conv._module_list.1.wh.weight f4 [4, 4]
-0.41707498 0.23864955 -0.20693862 0.3907598 -0.39665437 0.35338077 0.09567077 0.37698483
-0.3515229 -0.31630358 0.45470047 0.5603404 -0.033506975 0.25915715 -0.13703656 0.116974086
00000000: da8a d5be 8c60 743e b8e7 53be ab11 c83e
00000010: 4816 cbbe 53ee b43e 09ef c33d 2804 c13e
00000020: cffa b3be 8bf2 a1be 80ce e83e 7872 0f3f
00000030: 9c3e 09bd 3fb0 843e 5053 0cbe 1c90 ef3d

_model.layers.0.conv._module_list.1.ws.weight f4 [6, 10]
-0.20510775 -0.16478354 -0.22414044 0.12162612 -0.021439612 -0.26980168 0.03138046 0.023064565
0.028128423 0.013232764 0.46595487 -0.19087753 -0.08685203 -0.10550156 0.21282136 -0.19712134
-0.015036414 -0.01058932 -0.016014319 -0.005978267 -0.20406814 0.06594465 0.028260874 -0.26561618
0.2989526 -0.19399734 -0.037438985 -0.006353334 -0.032843467 -0.012146398 0.27311105 -0.032970726
-0.1885058 0.030121662 -0.22901429 -0.21136042 0.049828768 0.019759778 0.034216646 0.017154196
0.21570604 0.10253919 -0.3242296 0.36417586 -0.03332257 0.3866713 0.03996558 0.014808153
0.02266727 0.014532319 0.033622608 0.119747266 -0.04825366 -0.3037145 0.0120540215 -0.24486019
-0.026994437 -0.011977309 -0.015346568 -0.00942696
00000000: c407 52be 04bd 28be 1285 65be 1d17 f93d
00000010: 20a2 afbc 7223 8abe cc88 003d e6f1 bc3c
00000020: 946d e63c 3cce 583c a391 ee3e 6675 43be
00000030: 7adf b1bd 3411 d8bd d8ed 593e 2dda 49be
00000040: 4b5b 76bc d47e 2dbc 7630 83bc 57e5 c3bb
00000050: 3df7 50be fd0d 873d 5983 e73c d8fe 87be
00000060: 5110 993e 3da7 46be 9f59 19bd a12f d0bb
00000070: df86 06bd b001 47bc 36d5 8b3e 500c 07bd
00000080: aa07 41be b4c1 f63c b982 6abe de6e 58be
00000090: 4019 4c3d 42df a13c c126 0c3d f586 8c3c
000000a0: 0be2 5c3e 1100 d23d 6c01 a6be 4275 ba3e
000000b0: 3f7d 08bd c8f9 c53e f3b2 233d e59d 723c
000000c0: b6b0 b93c f718 6e3c dcb7 093d 0e3e f53d
000000d0: a1a5 45bd 7880 9bbe 3b7e 453c a1bc 7abe
000000e0: 7023 ddbc 7a3c 44bc 2c70 7bbc 8973 1abc

_model.layers.0.conv._module_list.1.ws.bias f4 [6]
-0.21632415 0.056675803 0.26159024 -0.19397272 -0.10434728 -0.3073154
00000000: 1484 5dbe e324 683d 28ef 853e c9a0 46be
00000010: 07b4 d5bd 7258 9dbe

_model.layers.0.conv._module_list.1.wv.weight f4 [4, 4]
0.03315904 -0.3841831 0.3665395 -0.20375878 0.11631752 -0.1325961 -0.43003523 0.32349113
-0.29187363 0.16469695 0.09721859 0.3056871 -0.42373806 -0.28551117 -0.080490224 -0.67226744
00000000: c6d1 073d a6b3 c4be 11ab bb3e 24a6 50be
00000010: e137 ee3d 46c7 07be 942d dcbe a1a0 a53e
00000020: 7670 95be 51a6 283e 8a1a c73d 0583 9c3e
00000030: 32f4 d8be 852e 92be 0fd8 a4bd b819 2cbf

_model.layers.0.conv._module_list.1.wsv.weight f4 [4, 6]
-0.09064497 -0.36773083 -0.31077316 0.044718884 -0.1746529 0.10214958 0.35219386 -0.4322892
0.28298056 0.14161664 -0.010866399 -0.27238515 -0.06269067 0.07530146 0.31459427 -0.20111556
0.14214635 0.007214594 -0.059956104 -0.3731001 0.26273355 -0.2501331 -0.5615224 0.101328164
00000000: 12a4 b9bd 3747 bcbe a91d 9fbe 262b 373d
00000010: 36d8 32be cd33 d13d c152 b43e 0355 ddbe
00000020: d4e2 903e f403 113e fb08 32bc 1176 8bbe
00000030: f763 80bd a737 9a3d 8012 a13e 3df1 4dbe
00000040: d08e 113e 6768 ec3b 8894 75bd fa06 bfbe
00000050: 0385 863e 7211 80be efbf 0fbf 2485 cf3d

_model.layers.0.conv._module_list.1.wsv.bias f4 [4]
-0.12310389 -0.11470297 -0.41361514 0.15821768
00000000: e41d fcbd 64e9 eabd 5dc5 d3be d103 223e

_model.layers.0.norm.0.scalar_norm.weight f4 [6]
0.9597538 1.0186474 0.9922704 0.9207843 0.8468008 0.9365836
00000000: 6db2 753f 0a63 823f 6f05 7e3f 85b8 6b3f
00000010: f0c7 583f f1c3 6f3f

_model.layers.0.norm.0.scalar_norm.bias f4 [6]
0.051752243 0.049167253 -0.0038441962 -0.053434953 0.009329753 0.023098042
00000000: 29fa 533d 9a63 493d e9ee 7bbb 9cde 5abd
00000010: d2db 183c 1b38 bd3c

_model.layers.0.norm.1.scalar_norm.weight f4 [6]
1.0096362 0.98850274 0.92912763 0.8369453 0.7796067 0.840732
00000000: c23b 813f 840e 7d3f 4fdb 6d3f 0c42 563f
00000010: 4e94 473f 363a 573f

_model.layers.0.norm.1.scalar_norm.bias f4 [6]
0.058771845 0.04612253 -0.109799154 -0.10197236 0.051377807 0.12476208
00000000: bfba 703d faea 3c3d 61de e0bd e2d6 d0bd
00000010: 8971 523d 4383 ff3d

_model.layers.0._module_list.0.wh.weight f4 [8, 4]
0.31005123 -0.19425248 0.037548777 -0.48697054 -0.24095172 0.24806288 -0.36777404 0.1675529
-0.1517423 0.20828684 -0.2670584 -0.21749122 -0.4908141 0.28173888 0.11117125 -0.035836533
0.2694693 -0.36894932 -0.2953678 0.4837554 -0.21463369 0.26842734 0.0932676 0.4674692
-0.6012759 0.13345015 -0.124942064 -0.38146177 0.028464476 0.1465196 0.22627842 0.08109891
00000000: 09bf 9e3e 1fea 46be bfcc 193d 3454 f9be
00000010: 0cbc 76be 3204 7e3e e14c bcbe fd92 2b3e
00000020: 5562 1bbe 2549 553e e1bb 88be 05b6 5ebe
00000030: fc4b fbbe 1440 903e c1ad e33d 54c9 12bd
00000040: e1f7 893e ede6 bcbe 733a 97be caae f73e
00000050: efc8 5bbe 4f6f 893e 1503 bf3d 1f58 ef3e
00000060: 38ed 19bf 28a7 083e a0e1 ffbd f54e c3be
00000070: 552e e93c 3c09 163e 88b5 673e 2f17 a63d

_model.layers.0._module_list.0.ws.weight f4 [24, 14]
-0.2615508 0.114225365 0.19556363 -0.04850458 -0.022279164 0.17674913 -0.04316846 0.09253185
-0.21356289 -0.15754026 -0.16552667 0.08037871 0.004607386 -0.0072091916 0.12212432 -0.17065679
-0.25384068 -0.07222931 0.16539995 -0.012721315 -0.005942337 -0.15990476 0.20754588 0.05191273
-0.09099483 0.04062737 -0.0035939359 0.07010797 0.012894365 -0.018554036 -0.060673516 -0.06488757
0.16192746 -0.14503537 0.04477933 0.16504695 -0.026336718 -0.11743924 -0.27945963 0.18976048
-0.17323402 0.093010135 0.0048267287 -0.08214892 -0.2252709 -0.024931818 0.08011381 -0.22438702
-0.019801114 0.32868522 0.16565013 -0.12408101 -0.31797555 0.22685347 -0.252181 0.12088903
0.1091785 0.034374937 -0.086930454 -0.09205464 0.09364374 -0.07998364 -0.003173874 -0.07647911
-0.048724793 0.18113065 0.025830531 0.053897407 -0.061472505 -0.04812239 0.16590084 0.15653592
0.12851152 0.27687865 0.24889539 0.02999949 0.05609541 0.2725042 -0.14251994 0.061881475
-0.5115562 0.07997448 -0.34483442 -0.026811082 -0.17996204 -0.29494655 -0.25834176 -0.042669836
-0.053797897 -0.050685972 0.027631097 0.011716336 -0.006206162 0.23375952 0.22332627 -0.08788023
0.10701951 0.029114287 -0.052247748 0.13239689 0.07017218 -0.0372429 -0.29874635 0.009437225
-0.13937002 -0.18499172 -0.12448204 0.024085833 0.2724401 -0.22573832 0.15322815 -0.017460566
-0.09627809 -0.27300578 0.063265465 -0.26545802 -0.072547756 -0.028390307 0.22140728 -0.031246634
0.15905513 0.30102637 0.034860477 -0.00084899494 0.109739274 -0.14676134 0.0066757016 0.0913451
-0.07999567 -0.096157715 0.070543215 -0.01170832 -0.00030845444 -0.009811241 0.011673682 -0.030928563
-0.027433539 -0.00053927966 0.00027723768 0.028048042 0.12239949 0.022621961 -0.103695184 0.0273749
0.18626463 -0.109546214 0.14167649 0.203675 -0.16963609 -0.020349804 -0.0643107 -0.05644415
-0.1885488 0.0554857 -0.109986894 0.12998511 0.09988479 -0.17737104 -0.08687631 -0.19086488
0.14244868 0.21099725 0.1545716 -0.057718296 -0.14607304 0.030946163 -0.100541994 0.09679994
0.19791085 0.028647503 0.109263115 0.08211164 -0.05287168 0.06905297 -0.11796622 -0.16903661
-0.28809005 0.0749903 -0.11777044 -0.18350813 -0.23096746 -0.07700847 -0.14227359 0.18177287
0.10468664 -0.06571208 0.2569439 -0.13298805 -0.23269197 -0.09332713 0.14214824 -0.07034074
-0.39571458 -0.11424297 -0.20967841 -0.11695777 0.24763425 -0.18895617 -0.08900147 0.003192469
0.122326545 0.11664438 -0.07553341 -0.09468878 0.21082212 0.110688336 0.10087908 0.2504598
0.13330854 0.0427614 0.10572631 -0.09508001 -0.069311894 0.09379803 0.00045031428 0.23024234
0.023451475 -0.038735427 0.28967595 0.10818649 0.17592071 0.21339732 0.21681063 -0.03337199
0.13318983 0.25423366 0.031380486 -0.040816355 -0.31552148 -0.026909694 -0.1779387 -0.10259611
-0.0064527257 -0.22971319 0.2943984 -0.1103903 0.29383346 0.11118753 -0.08858493 0.09552482
-0.0005511125 0.081643365 0.10727842 -1.0953831e-06 -0.27220574 0.07024879 0.074309096 -0.1501931
-0.29150373 -0.11933314 -0.04666525 0.033124343 0.11860266 -0.024457995 0.1260779 0.022352472
00000000: fde9 85be fdee e93d d541 483e bdac 46bd
00000010: cb82 b6bc b9fd 343e 69d1 30bd 5781 bd3d
00000020: 3bb0 5abe 3c52 21be d37f 29be 989d a43d
00000030: 8ef9 963b 153b ecbb 511c fa3d a7c0 2ebe
00000040: 68f7 81be f6ec 93bd 9b5e 293e 106d 50bc
00000050: f0b7 c2bb 13be 23be e886 543e 71a2 543d
00000060: 7f5b babd e368 263d 3d88 6bbb c494 8f3d
00000070: e342 533c a2fe 97bc cb84 78bd c6e3 84bd
00000080: 50d0 253e 2784 14be 886a 373d 1102 293e
00000090: 1ac0 d7bc fc83 f0bd 5515 8fbe 9250 423e
000000a0: 4264 31be 197c be3d 8929 9e3b b13d a8bd
000000b0: 6aad 66be d03d ccbc b612 a43d b6c5 65be
000000c0: f235 a2bc 6e49 a83e 30a0 293e 2f1e febd
000000d0: b1cd a2be 474c 683e de1d 81be ab94 f73d
000000e0: fa98 df3d bccc 0c3d 9808 b2bd 2587 bcbd
000000f0: 4ac8 bf3d 76ce a3bd c500 50bb 14a1 9cbd
00000100: a693 47bd 507a 393e 8d9a d33c 87c3 5c3d
00000110: 98ca 7bbd fc1b 45bd e9e1 293e f44a 203e
00000120: 8698 033e 0ac3 8d3e 6fde 7e3e 7ec1 f53c
00000130: 4dc4 653d ac85 8b3e bff0 11be 6e77 7d3d
00000140: 59f5 02bf a9c9 a33d 238e b0be eaa2 dbbc
00000150: f847 38be 3c03 97be 5f45 84be 91c6 2ebd
00000160: 2f5b 5cbd 189c 4fbd 9c5a e23c e0f5 3f3c
00000170: 0f5d cbbb a85e 6f3e a4af 643e 8dfa b3bd
00000180: 0b2d db3d 1681 ee3c bc01 56bd 0d93 073e
00000190: 6fb6 8f3d 038c 18bd 48f5 98be 979e 1a3c
000001a0: 04b7 0ebe 786e 3dbe 71f0 febd a74f c53c
000001b0: 457d 8b3e f227 67be d7e7 1c3e 7609 8fbc
000001c0: 722d c5bd 6ac7 8bbe 5391 813d 1dea 87be
000001d0: eb93 94bd ca92 e8bc 97b8 623e f1f8 ffbc
000001e0: 59df 223e 2120 9a3e dcc9 0e3d 168f 5eba
000001f0: fcbe e03d 9b48 16be d8bf da3b 2413 bb3d
00000200: c5d4 a3bd 56ee c4bd f678 903d 41d4 3fbc
00000210: 0eb8 a1b9 54bf 20bc f942 3f3c e65d fdbc
00000220: 4dbc e0bc 725e 0dba 365a 9139 02c5 e53c
00000230: 95ac fa3d b151 b93c 245e d4bd 5441 e03c
00000240: 28bc 3e3e c459 e0bd a413 113e 2e90 503e
00000250: 15b5 2dbe a2b4 a6bc 54b5 83bd fb31 67bd
00000260: f012 41be f944 633d cf40 e1bd d11a 053e
00000270: 6690 cc3d c1a0 35be 35ec b1bd 1572 43be
00000280: 11de 113e aa0f 583e 0448 1e3e 056a 6cbd
00000290: 2c94 15be cf82 fd3c f6e8 cdbd 0c3f c63d
000002a0: 24a9 4a3e 2bae ea3c 57c5 df3d 262a a83d
000002b0: fa8f 58bd a56b 8d3d 4698 f1bd ef17 2dbe
000002c0: 8a80 93be 8494 993d a131 f1bd 8ee9 3bbe
000002d0: bc82 6cbe 9eb6 9dbd 2bb0 11be ab22 3a3e
000002e0: f365 d63d 0e94 86bd 278e 833e 052e 08be
000002f0: ce46 6ebe 4b22 bfbd 4f8f 113e ce0e 90bd
00000300: 1a9b cabe 38f8 e9bd f0b5 56be 8e87 efbd
00000310: d593 7d3e ba7d 41be 6746 b6bd be38 513b
00000320: 5786 fa3d 40e3 ee3d 43b1 9abd 31ec c1bd
00000330: c1e1 573e 91b0 e23d b199 ce3d 443c 803e
00000340: 0982 083e 9426 2f3d 0987 d83d 4fb9 c2bd
00000350: 65f3 8dbd 2e19 c03d 2918 ec39 a6c4 6b3e
00000360: 4f1d c03c 0aa9 1ebd 6850 943e e190 dd3d
00000370: 8f24 343e d484 5a3e 9b03 5e3e 11b1 08bd
00000380: ea62 083e ea2a 823e d388 003d 0d2f 27bd
00000390: 088c a1be b871 dcbc 9035 36be e91d d2bd
000003a0: 6371 d3bb ef39 6bbe 63bb 963e 4f14 e2bd
000003b0: 5771 963e 4ab6 e33d 046c b5bd 84a2 c33d
000003c0: 8978 10ba a334 a73d cab4 db3d 1405 93b5
000003d0: 8d5e 8bbe 99de 8f3d 5e2f 983d 38cc 19be
000003e0: fa3f 95be ef64 f4bd 1024 3fbd 64ad 073d
000003f0: f4e5 f23d 225c c8bc 911a 013e 881c b73c

_model.layers.0._module_list.0.ws.bias f4 [24]
-0.13461117 0.19179256 0.0068598106 -0.05904 0.017454205 -0.11170922 -0.02387181 -0.06517894
0.01684787 0.028016636 -0.06678367 -0.12464043 -0.024674209 -0.051355965 0.08670943 0.13597251
-0.21515521 0.140901 0.100736976 0.28677392 -0.054100778 0.12707078 -4.177923e-05 0.06653462
00000000: 83d7 09be 4565 443e 43c8 e03b edd3 71bd
00000010: 1ffc 8e3c cec7 e4bd d08e c3bc 897c 85bd
00000020: 8b04 8a3c 2583 e53c e0c5 88bd 7b43 ffbd
00000030: 9121 cabc a25a 52bd b794 b13d 613c 0b3e
00000040: a651 5cbe 5a48 103e 304f ce3d 08d4 923e
00000050: c798 5dbd d81e 023e 1b3c 2fb8 4e43 883d

_model.layers.0._module_list.0.wv.weight f4 [8, 8]
0.06637803 0.23948932 0.27474776 0.29478058 -0.1315998 -0.22981647 0.14830837 0.20568971
-0.108371675 -0.121733785 -0.20832536 -0.16978325 0.124757186 0.28068224 -0.24444441 0.020806653
0.16583787 0.17513038 -0.056631606 0.091214925 -0.3577558 0.009967677 0.07389032 0.008650137
-0.15556218 -0.21841311 -0.043679006 0.002748693 0.34399596 0.29845878 -0.36204547 -0.055878066
0.046557914 -0.03911513 -0.12658335 0.248879 -0.22440115 0.0037247802 0.0063732807 0.053999715
-0.09880874 -0.04313246 -0.01753578 -0.05056771 0.11789376 0.16359596 -0.16272019 -0.037767787
-0.19364065 0.04174252 0.033128686 0.1496461 -0.017912593 -0.041749734 0.042877804 0.090644345
0.10729385 0.021822318 -0.07187687 0.07633697 -0.022095028 -0.1798734 0.09877225 -0.1056823
00000000: 34f1 873d b03c 753e bdab 8c3e 7bed 963e
00000010: 19c2 06be 0255 6bbe 26de 173e 53a0 523e
00000020: f8f1 ddbd 904f f9bd 3e53 55be a9db 2dbe
00000030: b280 ff3d 95b5 8f3e a34f 7abe b772 aa3c
00000040: 67d1 293e 6155 333e 8bf6 67bd e4ce ba3d
00000050: c52b b7be 784f 233c cf53 973d 4eb9 0d3c
00000060: b14b 1fbe b0a7 5fbe c2e8 32bd 6b23 343b
00000070: 3d20 b03e 97cf 983e 065e b9be 66e0 64bd
00000080: 83b3 3e3d 3037 20bd 119f 01be 23da 7e3e
00000090: 6ac9 65be 711b 743b f4d6 d03b ce2e 5d3d
000000a0: 3d5c cabd aaab 30bd 32a7 8fbc 1620 4fbd
000000b0: 4972 f13d b385 273e 1fa0 26be 65b2 1abd
000000c0: bc49 46be 34fa 2a3d f2b1 073d d43c 193e
000000d0: 6ebd 92bc c501 2bbd a3a0 2f3d bea3 b93d
000000e0: e1bc db3d b8c4 b23c 2e34 93bd 8f56 9c3d
000000f0: a200 b5bc bc30 38be 1b49 ca3d f66f d8bd

_model.layers.0._module_list.0.wsv.weight f4 [8, 24]
0.05853073 -0.058667906 0.00020890692 -0.03975502 -0.023299286 0.032262724 -0.09498167 0.040420312
-0.06415575 0.0011712441 0.018073414 -0.018987326 0.020673955 0.093067 -0.13051523 -0.12218342
0.009084341 0.020793706 0.016169515 0.15270522 -0.021021836 0.046822257 -0.089962125 -0.012471065
0.051627107 -0.04173912 0.02092617 -0.007252235 0.010064882 0.024409387 -0.07004713 0.017965864
-0.06324588 0.026413713 0.014147622 0.02250085 0.035996024 0.11576017 -0.11075556 -0.09470458
-0.003171656 0.05478219 0.03338655 0.07622362 -0.036979366 -0.0016577021 -0.035489 -0.0487914
0.0029633017 0.02177797 0.0140516 -0.00035070584 0.006865036 -0.011378037 -0.033315573 -0.0048439326
-0.015387662 0.003611744 -0.004333989 -0.0019270838 0.013495858 0.037255973 -0.014767742 -0.018986339
-0.004179457 0.024884544 0.030610837 0.030343786 -0.011492864 -0.0004475185 -0.016347084 -0.018072054
-0.019595753 -0.055139173 0.05013155 0.0026008787 0.006531007 0.051562827 -0.11242011 0.012028567
-0.10428883 0.05658792 -0.018824017 0.009608249 0.024335163 0.17045245 -0.16679898 -0.14984751
-0.022831328 0.045406617 0.06212173 0.12009479 -0.054501817 -0.010803371 -0.039273255 -0.07465633
0.012087045 0.0150338225 0.009680509 0.007217199 0.0026298142 0.025763959 -0.021555454 -0.0016473872
-0.018863529 -0.00011995357 0.008816676 -0.0124838315 0.04098629 0.0402045 -0.010189536 -0.03384724
-0.0068175653 0.027583236 0.02325354 0.022638313 -0.012822274 -0.0019865027 -0.0049929433 -0.02171246
0.026963703 -0.011834958 0.01946437 0.0167385 -0.0032759295 0.043474294 -0.029835604 -0.004066917
-0.03313964 0.002619272 0.018539364 0.009094711 0.033977114 0.04851521 -0.040679026 -0.050964665
-0.011724398 0.02825395 0.035571273 0.028267823 -0.019322693 -0.015461085 0.00044243876 -0.025567465
0.018075326 -0.0065352246 0.018135212 0.013535164 -0.0031330572 0.03107048 -0.018361332 -0.008663473
-0.019799799 0.0042048735 0.013513559 0.006503426 0.013595237 0.023275046 -0.018653587 -0.028227385
-0.013046435 0.005005035 0.030539738 0.00823086 -0.0068629705 -0.016663482 0.0053624054 -0.010988553
-0.009226237 0.01723551 -0.004358648 -0.0045192987 0.0026490197 -0.014974294 0.007706198 -0.005256242
0.019253729 -0.022548076 -0.0048292475 -0.013616453 -0.005318311 -0.026102096 0.027664209 0.025138367
0.0021401336 -0.0042923605 -0.00628307 -0.019798875 0.011053316 0.0048001003 -0.0010436573 0.015462429
00000000: ebbd 6f3d c24d 70bd 060e 5b39 29d6 22bd
00000010: 25de bebc eb25 043d c085 c2bd c58f 253d
00000020: 1764 83bd 6e84 993a b20e 943c 4f8b 9bbc
00000030: 6d5c a93c e999 be3d c9a5 05be 4d3b fabd
00000040: 7dd6 143c 9057 aa3c ee75 843c c25e 1c3e
00000050: fc35 acbc b2c8 3f3d 103e b8bd 7053 4cbc
00000060: f276 533d a4f6 2abd 5c6d ab3c 28a4 edbb
00000070: 2de7 243c 32f6 c73c df74 8fbd 262d 933c
00000080: 0e87 81bd 9261 d83c 6dcb 673c b453 b83c
00000090: 9170 133d ab13 ed3d d0d3 e2bd 7af4 c1bd
000000a0: 8fdb 4fbb 4a63 603d 56c0 083d 211b 9c3d
000000b0: ad77 17bd 4147 d9ba ea5c 11bd 7ed9 47bd
000000c0: f433 423b b767 b23c af38 663c f1de b7b9
000000d0: 19f4 e03b f26a 3abc e975 08bd dab9 9ebb
000000e0: 881c 7cbc 02b3 6c3b 2304 8ebb 3496 fcba
000000f0: bb1d 5d3c b899 183d 66f4 71bc 3d89 9bbc
00000100: d4f3 88bb acda cb3c 94c3 fa3c 8893 f83c
00000110: 914c 3cbc eba0 eab9 52ea 85bc d80b 94bc
00000120: 4687 a0bc 9dd9 61bd bd56 4d3d 8173 2a3b
00000130: 0f02 d63b 8b33 533d 843c e6bd 7713 453c
00000140: 6295 d5bd bcc8 673d d334 9abc eb6b 1d3c
00000150: 895a c73c 168b 2e3e 5acd 2abe a071 19be
00000160: c408 bbbc 4afc 393d 5b73 7e3d 42f4 f53d
00000170: 4c3d 5fbd 9f00 31bc fedc 20bd 6be5 98bd
00000180: be08 463c 6c50 763c ff9a 1e3c 417e ec3b
00000190: f658 2c3b f00e d33c 1095 b0bc 24ed d7ba
000001a0: b087 9abc 958f fbb8 d273 103c fc88 4cbc
000001b0: 3de1 273d 79ad 243d 03f2 26bc 67a3 0abd
000001c0: e265 dfbb 3df6 e13c 357e be3c fc73 b93c
000001d0: 8414 52bc fc2f 02bb d89b a3bb 54de b1bc
000001e0: fce2 dc3c 69e7 41bc be73 9f3c 2e1f 893c
000001f0: fab0 56bb 1a12 323d cc69 f4bc c643 85bb
00000200: 6ebd 07bd 18a8 2b3b dddf 973c fc01 153c
00000210: 962b 0b3d e3b7 463d 0d9f 26bd 53c0 50bd
00000220: b017 40bc d474 e73c 2fb3 113d ec91 e73c
00000230: a04a 9ebc 7e50 7dbc 20f7 e739 dc72 d1bc
00000240: b512 943c 7025 d6bb 4c90 943c 98c2 5d3c
00000250: fa53 4dbb 8587 fe3c 816a 96bc 3df1 0dbc
00000260: 3033 a2bc 09c9 893b f967 5d3c b11a d53b
00000270: 8fbe 5e3c 4fab be3c 68cf 98bc 1e3d e7bc
00000280: b7c0 55bc 4701 a43b 792e fa3c bbda 063c
00000290: c5e2 e0bb db81 88bc 1eb7 af3b 5509 34bc
000002a0: a529 17bc 7c31 8d3c fdd2 8ebb a016 94bb
000002b0: 2d9b 2d3b be56 75bc 4684 fc3b 8e3c acbb
000002c0: ffb9 9d3c beb6 b8bc aa3e 9ebb 8b17 5fbc
000002d0: 3a45 aebb 10d4 d5bc 0da0 e23c faee cd3c
000002e0: 7c41 0c3b eea6 8cbb 36e2 cdbb 4031 a2bc
000002f0: f818 353c 294a 9d3b 54cb 88ba 2156 7d3c

_model.layers.0._module_list.0.wsv.bias f4 [8]
-0.034423262 0.03498318 0.05420873 0.10599229 0.0070570684 0.015447 0.004904811 -0.004509822
00000000: 68ff 0cbd 864a 0f3d f909 5e3d 7c12 d93d
00000010: fb3e e73b 6a15 7d3c 89b8 a03b 21c7 93bb

_model.layers.0._module_list.1.wh.weight f4 [8, 8]
0.29291898 -0.31068897 0.29045844 -0.238737 0.22301652 0.0852747 0.21500823 0.10755384
-0.03992465 0.08356039 0.07578769 -0.1330586 0.038409393 -0.058486562 0.12616095 0.092072845
0.14534575 0.027236683 -0.1935181 -0.21195215 0.031720918 -0.15191811 -0.112155244 -0.20423502
0.37160417 -0.3474746 0.17172071 -0.3939108 0.010772336 -0.0103920745 0.11314505 0.003010739
-0.1557487 -0.1688181 -0.046275865 -0.16393451 0.02196055 0.009913429 -0.09680481 -0.030364074
0.21017139 -0.04976535 0.05435671 -0.18261778 0.08363674 -0.24927095 -0.19750491 0.19143936
0.18544273 -0.1370033 0.0591321 0.006954767 0.14180939 -0.13447036 -0.2195455 -0.18739097
0.033427548 -0.04235743 0.034409545 -0.22994149 0.09139763 -0.060180407 -0.00940982 0.15152766
00000000: 7af9 953e a012 9fbe f8b6 943e 7977 74be
00000010: 715e 643e 80a4 ae3d 1e2b 5c3e 3045 dc3d
00000020: 0888 23bd b621 ab3d 9436 9b3d 8340 08be
00000030: 2b53 1d3d 9b8f 6fbd 5630 013e b090 bc3d
00000040: 84d5 143e 771f df3c 9c29 46be fc09 59be
00000050: cbed 013d 6c90 1bbe a6b1 e5bd fc22 51be
00000060: e742 be3e 31e8 b1be 8ed7 2f3e adae c9be
00000070: 747e 303c 8543 2abc 98b8 e73d d24f 453b
00000080: 967c 1fbe a7de 2cbe c38b 3dbd 73de 27be
00000090: 9de6 b33c ef6b 223c 9a41 c6bd 14be f8bc
000000a0: 2b37 573e c0d6 4bbd 24a5 5e3d 2800 3bbe
000000b0: bd49 ab3d e240 7fbe ba3e 4abe ae08 443e
000000c0: b3e4 3d3e 984a 0cbe 8034 723d d0e4 e33b
000000d0: 7b36 113e 99b2 09be 89d0 60be 6be3 3fbe
000000e0: 53eb 083d fc7e 2dbd 06f1 0c3d c875 6bbe
000000f0: ae2e bb3d bb7f 76bd a52b 1abc 112a 1b3e

_model.layers.0._module_list.1.ws.weight f4 [6, 32]
-0.08702504 -0.07133657 -0.09297534 -0.058953945 0.048065737 -0.34425163 0.09166187 0.079440296
0.1057755 0.011381951 -0.08123102 0.05127347 -0.091898374 -0.25379583 0.091369554 0.27546367
0.12451167 -0.18561347 -0.20050617 0.03603766 -0.06337365 0.010623917 -0.022540515 0.009028439
0.23679686 0.08881514 0.027987273 0.078127466 0.089729555 -0.0025903916 0.13387667 0.12818693
-0.1241449 -0.053049576 0.027235366 0.08394633 -0.009297787 0.2773766 0.03842673 -0.039974626
0.051953133 -0.10113103 0.106574774 0.11716052 0.008028067 -0.095567204 -0.10173191 -0.087224364
-0.20808452 0.028604763 0.15484542 -0.15100275 -0.05145505 -0.16701803 0.2416953 0.013372884
-0.29123735 -0.072691746 -0.07355555 -0.13037346 0.01424027 -0.13492103 -0.17336415 0.07372646
0.016118405 -0.15914656 0.081974216 0.17091988 -0.070693806 0.02728171 -0.116215706 0.01125683
-0.152651 -0.053945363 0.062507495 0.14303736 -0.22177717 -0.027678285 -0.15560092 -0.022606643
0.109604344 0.11348226 0.2025786 0.106473796 -0.16579144 -0.16304146 0.03248292 -0.1447751
-0.020337569 -0.07821156 0.14607465 -0.06329851 0.004715019 0.025717013 0.035544094 -0.011348469
-0.13082749 0.12355359 -0.07417489 -0.11096549 -0.03358959 -0.2094964 -0.030751454 0.12907884
0.044032246 -0.12670338 -0.15252428 -0.042776838 0.061498336 0.10762904 -0.026990145 -0.055147987
0.14108413 0.14556623 0.022985362 -0.10067351 -0.05770903 0.020690445 -0.038585234 -0.08214994
0.22688939 0.060597304 0.21056826 0.2729482 0.07301341 0.070441626 0.14797652 0.006568416
0.08187615 -0.1732232 -0.19543082 -0.27033922 -0.09542345 -0.16236146 0.042225093 0.20325875
0.017351685 -0.088298894 -0.16920736 -0.0484402 0.12318562 -0.32376486 -0.116303034 0.004367558
0.07582306 -0.15591255 -0.030128058 0.123629816 0.07486462 0.11995365 -0.10046284 0.13599208
0.09980667 -0.015748428 -0.1283389 0.116979316 -0.0024867065 0.12111032 0.08203074 -0.015057274
0.17357662 0.06609777 0.15859467 0.1796959 0.05989115 0.5319319 -0.13527894 -0.046005297
-0.16278195 0.06417494 0.14326486 -0.09738965 0.059361976 0.19068691 -0.10400354 -0.24757926
-0.2056923 -0.07695003 0.4139439 0.047573525 -0.095882356 -0.05856738 0.19608378 -0.21687363
-0.44152164 -0.051904526 -0.06817401 -0.35313758 -0.014917775 -0.12671624 -0.16169877 -0.052810885
00000000: 2f3a b2bd e818 92bd db69 bebd b179 71bd
00000010: 94e0 443d c041 b0be 38b9 bb3d 98b1 a23d
00000020: d3a0 d83d 5d7b 3a3c 735c a6bd 2104 523d
00000030: 3735 bcbd 87f1 81be f61f bb3d 9309 8d3e
00000040: f9ff fe3d 7511 3ebe 7d51 4dbe 3a9c 133d
00000050: 0bca 81bd f00f 2e3c e3a6 b8bc 05ec 133c
00000060: e07a 723e b6e4 b53d 9145 e53c 4b01 a03d
00000070: 21c4 b73d 8fc3 29bb f716 093e 6f43 033e
00000080: ae3f febd 834a 59bd b41c df3c 0eec ab3d
00000090: bf55 18bc 4e04 8e3e 5965 1d3d 6fbc 23bd
000000a0: cfcc 543d c91d cfbd e043 da3d dbf1 ef3d
000000b0: 2788 033c bdb8 c3bd d258 d0bd b0a2 b2bd
000000c0: 1c14 55be 8954 ea3c cc8f 1e3e 77a0 1abe
000000d0: 88c2 52bd c606 2bbe f97e 773e f119 5b3c
000000e0: 101d 95be 69df 94bd 4ba4 96bd 9f80 05be
000000f0: 0550 693c bd28 0abe 5f86 31be e6fd 963d
00000100: bf0a 843c 51f7 22be 19e2 a73d 9f05 2f3e
00000110: eac7 90bd e57d df3c 8002 eebd 916e 383c
00000120: 8b50 1cbe d0f5 5cbd ee03 803d 6378 123e
00000130: 8e19 63be 92bd e2bc d955 1fbe 9131 b9bc
00000140: 3e78 e03d 6369 e83d c470 4f3e ef0e da3d
00000150: 3bc5 29be 57f4 26be cf0c 053d ec3f 14be
00000160: f99a a6bc 622d a0bd 9894 153e a6a2 81bd
00000170: 7280 9a3b 7cac d23c af96 113d eeee 39bc
00000180: a4f7 05be aa09 fd3d 01e9 97bd e041 e3bd
00000190: 3d95 09bd 3986 56be 79ea fbbc 3e2d 043e
000001a0: 285b 343d 88be 01be 532f 1cbe c436 2fbd
000001b0: aee5 7b3d 9d6c dc3d 701a ddbc dbe2 61bd
000001c0: 5c78 103e 500f 153e cc4b bc3c ea2d cebd
000001d0: 4e60 6cbd 027f a93c 8d0b 1ebd 3a3e a8bd
000001e0: b155 683e e134 783d 359f 573e debf 8b3e
000001f0: 0e88 953d b343 903d 2887 173e de3b d73b
00000200: afae a73d 6c61 31be 041f 48be e769 8abe
00000210: 5f6d c3bd 1542 26be 38f4 2c3d 1023 503e
00000220: 1f25 8e3c 0dd6 b4bd b244 2dbe 3b69 46bd
00000230: be48 fc3d 82c4 a5be 4930 eebd bb1d 8f3b
00000240: 1f49 9b3d 8aa7 1fbe 1ecf f6bc a131 fd3d
00000250: 9f52 993d 42aa f53d 76bf cdbd 8241 0b3e
00000260: 7067 cc3d d902 81bc 466b 03be da92 ef3d
00000270: 03f8 22bb b008 f83d bcff a73d c9b2 76bc
00000280: 12be 313e 455e 873d a466 223e 3402 383e
00000290: 6c50 753d b02c 083f 9086 0abe 0d70 3cbd
000002a0: 50b0 26be 276e 833d 06b4 123e 3a74 c7bd
000002b0: 8b25 733d 6e43 433e cfff d4bd 6b85 7dbe
000002c0: 01a1 52be fa97 9dbd 74f0 d33e 75dc 423d
000002d0: f85d c4bd 59e4 6fbd 30ca 483e 1f14 5ebe
000002e0: 200f e2be d799 54bd d19e 8bbd 73ce b4be
000002f0: af69 74bc e7c1 01be 5d94 25be 3a50 58bd

_model.layers.0._module_list.1.ws.bias f4 [6]
-0.037110817 -0.1094176 0.027005998 0.11973314 -0.053914312 -0.10338329
00000000: 8301 18bd 5616 e0bd af3b dd3c a636 f53d
00000010: 41d5 5cbd 9eba d3bd

_model.layers.0._module_list.1.wv.weight f4 [4, 8]
0.104394116 0.06646929 0.1803823 -0.25955412 -0.23887348 -0.23991887 0.18590517 0.057895128
0.055149324 -0.17338482 0.015353221 -0.098508924 0.1320019 -0.14717226 -0.028674839 -0.25047874
9.936093e-05 0.1013902 0.11853868 0.22110893 0.1913419 0.37639385 0.19186544 0.11222105
-0.08430205 0.1131173 0.13572906 -0.32074764 0.09946283 -0.21691059 0.11631986 -0.23371065
00000000: 95cc d53d 0d21 883d 23b6 383e 47e4 84be
00000010: 409b 74be 4bad 75be ed5d 3e3e 7123 6d3d
00000020: 42e4 613d ca8b 31be 148c 7b3c 0cbf c9bd
00000030: 822b 073e 53b4 16be 7fe7 eabc c03e 80be
00000040: fe5f d038 aaa5 cf3d 68c4 f23d 616a 623e
00000050: 22ef 433e b2b6 c03e 6078 443e 26d4 e53d
00000060: 8ea6 acbd 0baa e73d 8ffc 0a3e 0939 a4be
00000070: 2bb3 cb3d cf1d 5ebe 1b39 ee3d d851 6fbe

_model.layers.0._module_list.1.wsv.weight f4 [4, 6]
-0.012815313 0.011759686 -0.0007103773 0.01378293 -0.027811224 0.003303126 0.022424033 0.006648781
0.0094097685 -0.0109352805 0.00891059 -0.02074672 -0.02966589 0.053388305 0.113282315 -0.012378737
-0.016788945 0.019303994 -0.07913165 -0.0043563335 -0.021752847 -0.07627448 0.058870345 0.087847225
00000000: 52f7 51bc b3ab 403c 9d38 3aba ccd1 613c
00000010: 5dd4 e3bc 4279 583b 9bb2 b73c 04de d93b
00000020: 6e2b 1a3c e429 33bc b9fd 113c 06f5 a9bc
00000030: e105 f3bc b2ad 5a3d 8f00 e83d 30d0 4abc
00000040: f888 89bc 6923 9e3c c60f a2bd 93bf 8ebb
00000050: 0733 b2bc cb35 9cbd 0822 713d 3fe9 b33d

_model.layers.0._module_list.1.wsv.bias f4 [4]
0.055480696 -0.035180975 0.03978266 -0.106151976
00000000: ba3f 633d ed19 10bd 24f3 223d 3566 d9bd

_model.layers.1.conv._module_list.0.wh.weight f4 [9, 9]
0.089795366 -0.15913586 -0.052953873 0.044936985 0.04536362 0.15447769 -0.24263278 -0.31757075
-0.16579323 0.1578624 -0.1995298 0.035908885 0.39867625 -0.09362697 0.2478517 -0.102492966
0.10947505 0.21319811 0.044071976 0.24054511 -0.09758639 0.3751199 0.12557161 0.032916743
-0.28394237 -0.10329563 -0.25733158 -0.11723429 -0.27702907 0.04843354 -0.3432353 -0.092977494
0.18389885 0.22088228 -0.18073139 0.1590431 0.14392637 -0.6575652 0.18372849 -0.17035982
0.2187439 0.16827866 -0.3722806 -0.19863464 0.030515485 -0.21840341 -0.07102097 -0.14394893
0.4332473 -0.037702553 0.20729034 -0.10970479 0.19935341 0.29042333 -0.2720033 0.5769901
0.39836842 0.14126773 0.20338178 -0.16342457 -0.15455796 -0.10512093 -0.20476559 0.04569184
0.099172935 0.19512734 0.6977071 0.14830972 -0.035983514 0.14559203 0.3249805 -0.06812388
-0.04050416 -0.06375913 0.052517056 0.21111031 -0.14282486 0.0129272165 0.3254507 -0.30588374
-0.09467801
00000000: a2e6 b73d 83f4 22be 29e6 58bd d80f 383d
00000010: 34cf 393d 662f 1e3e ba74 78be a298 a2be
00000020: b3c5 29be aea6 213e 8a51 4cbe 3215 133d
00000030: 4b1f cc3e 7fbf bfbd d6cc 7d3e d5e7 d1bd
00000040: 7434 e03d 9b50 5a3e d184 343d 7551 763e
00000050: 60db c7bd b70f c03e d895 003e b5d3 063d
00000060: e560 91be a98c d3bd f7c0 83be 8818 f0bd
00000070: c1d6 8dbe 3f62 463d 8abc afbe fc6a bebd
00000080: fb4f 3c3e f72e 623e a611 39be 32dc 223e
00000090: 6f61 133e 3156 28bf 5223 3c3e ce72 2ebe
000000a0: 67fe 5f3e 3e51 2c3e 909b bebe e166 4bbe
000000b0: 9cfb f93c 25a5 5fbe 7173 91bd 5967 13be
000000c0: 97d2 dd3e fe6d 1abd eb43 543e e8ac e0bd
000000d0: 4d23 4c3e 5eb2 943e 0444 8bbe a0b5 133f
000000e0: f2f6 cb3e 7da8 103e 5043 503e c558 27be
000000f0: 7144 1ebe a449 d7bd 12ae 51be 5e27 3b3d
00000100: 2e1b cb3d 76cf 473e ef9c 323f 81de 173e
00000110: 7363 13bd 1416 153e d863 a63e 8884 8bbd
00000120: b1e7 25bd 2694 82bd 201c 573d 4d2d 583e
00000130: ae40 12be adcc 533c 79a1 a63e cb9c 9cbe
00000140: 8be6 c1bd

_model.layers.1.conv._module_list.0.ws.weight f4 [6, 27]
0.074138634 -0.071682684 -0.13317047 -0.118969075 -0.040256232 -0.121014126 -0.006470718 -0.027834203
0.009151909 -0.07863587 -0.032028 0.095026284 0.03863277 0.13143642 -0.0065453216 -0.10279562
0.072692156 -0.09670096 -0.19113642 0.3732702 -0.11941315 -0.22145651 -0.1669238 0.3965112
-0.008194629 0.02848907 -0.21929115 0.22102384 -0.1459311 -0.10152293 0.12840451 0.21879758
-0.029487997 -0.14021313 0.015626272 -0.21474157 -0.15623194 -0.22626372 -0.31158757 0.05479633
-0.07683579 -0.0932497 0.07239548 -0.085185416 0.13035049 0.03248781 0.1905067 0.22411357
0.048532147 -0.16698341 0.11308553 0.053645544 -0.0036315084 -0.15329544 -0.027662251 0.09301592
0.15599613 -0.08228175 -0.04194897 -0.09612902 -0.10671167 -0.0029698187 0.22022028 0.21519625
0.28518328 -0.10402379 0.13895313 0.09700906 -0.10703413 0.086480185 -0.0021498404 0.08364555
0.13824172 -0.078247845 0.039843984 -0.13263114 -0.00038245998 -0.10823685 0.22836697 0.12158576
-0.1305478 0.05710551 -0.14936258 0.034329426 -0.1919151 -0.18368235 0.28441417 0.100935794
0.22093986 0.1351455 0.011087081 0.03624717 -0.06915473 -0.10912231 0.1366184 0.066732764
-0.078274064 0.2307774 -0.13025121 0.05824133 -0.22412969 -0.0068402374 0.0119292075 0.3131098
-0.07830187 0.012539107 -0.10186666 0.12577805 0.81397724 -0.28439185 -0.7848125 -0.14210156
0.038544547 0.071403936 -0.26398417 -0.10347948 0.05869945 0.24009307 0.18442519 -0.02878307
0.6855392 -0.36401075 -0.37833217 0.17125793 0.12822078 0.12368596 -0.2158963 -0.13336313
0.35953885 0.3419194 -0.26959968 0.13324763 -0.45171383 0.70874643 0.21991168 -0.09456711
-0.106979445 -0.03917295 -0.16943616 -0.071142904 0.17231512 -0.013803181 0.02352549 -0.071933135
0.21136685 0.22799045 0.061525315 -0.13452269 0.025159802 0.070485815 -0.007395464 0.0014445103
0.21489184 0.04025564 -0.20901395 -0.10177063 0.013020089 -0.054791164 0.07800317 0.062144514
-0.07315094 0.18493663
00000000: ffd5 973d 5fce 92bd d75d 08be 0fa6 f3bd
00000010: b8e3 24bd 41d6 f7bd 5108 d4bb 8e04 e4bc
00000020: e3f1 153c d80b a1bd cb2f 03bd 249d c23d
00000030: 653d 1e3d 4597 063e 237a d6bb 8386 d2bd
00000040: a0df 943d 270b c6bd 44b9 43be 461d bf3e
00000050: e28e f4bd 7fc5 62be 13ee 2abe 8403 cb3e
00000060: c442 06bc e961 e93c dc8d 60be 1354 623e
00000070: f66e 15be 41eb cfbd 797c 033e 790c 603e
00000080: d090 f1bc 0894 0fbe ab02 803c 37e5 5bbe
00000090: 44fb 1fbe adb1 67be 6888 9fbe 1e72 603d
000000a0: 155c 9dbd b3f9 bebd 1544 943d b175 aebd
000000b0: 997a 053e f011 053d 3014 433e 077e 653e
000000c0: a5c9 463d b3fd 2abe 6399 e73d 6ebb 5b3d
000000d0: 9afe 6dbb 7bf9 1cbe f29b e2bc 217f be3d
000000e0: 73bd 1f3e 5683 a8bd afd2 2bbd 4bdf c4bd
000000f0: a68b dabd 4aa1 42bb 6d81 613e 685c 5c3e
00000100: 8b03 923e 6d0a d5bd bb49 0e3e b0ac c63d
00000110: b634 dbbd 861c b13d 56e4 0cbb 5c4e ab3d
00000120: 3d8f 0d3e 6840 a0bd 7233 233d 75d0 07be
00000130: e984 c8b9 48ab ddbd 08d9 693e f401 f93d
00000140: 53ae 05be 78e7 693d 81f2 18be 039d 0c3d
00000150: 6485 44be 3a17 3cbe bc9e 913e 6db7 ce3d
00000160: 0f3e 623e 9563 0a3e 97a6 353c ea77 143d
00000170: ffa0 8dbd 857b dfbd b2e5 0b3e 30ab 883d
00000180: 274e a0bd e950 6c3e 9360 05be 768e 6e3d
00000190: 4182 65be 1224 e0bb b972 433c ed4f a03e
000001a0: bb5c a0bd d470 4d3c 789f d0bd f6cb 003e
000001b0: d060 503f cf9b 91be 79e9 48bf 1283 11be
000001c0: e3e0 1d3d 3a3c 923d ef28 87be 0ded d3bd
000001d0: d66e 703d f5da 753e f5d9 3c3e 79ca ebbc
000001e0: 7f7f 2f3f 9e5f babe c1b4 c1be 3d5e 2f3e
000001f0: 4f4c 033e 114f fd3d eb13 5dbe 5890 08be
00000200: 7a15 b83e 0f10 af3e f808 8abe 1172 083e
00000210: 0947 e7be 6870 353f 8730 613e 67ac c1bd
00000220: 0a18 dbbd d173 20bd ac80 2dbe 5fb3 91bd
00000230: 6073 303e bd26 62bc 87b8 c03c ae51 93bd
00000240: 8d70 583e 5476 693e f801 7c3d 51c0 09be
00000250: ee1b ce3c de5a 903d a655 f2bb b955 bd3a
00000260: 9b0c 5c3e 19e3 243d c107 56be 1f6d d0bd
00000270: 3652 553c b36c 60bd 20c0 9f3d 3f8b 7e3d
00000280: 29d0 95bd 0760 3d3e

_model.layers.1.conv._module_list.0.ws.bias f4 [6]
0.16888273 0.106020235 0.13619733 -0.057322647 -0.15197437 0.03339008
00000000: 98ef 2c3e 2321 d93d 5077 0b3e 27cb 6abd
00000010: 2b9f 1bbe 09c4 083d

_model.layers.1.conv._module_list.0.wv.weight f4 [4, 9]
0.04306831 -0.08295447 -0.061457735 0.27343327 -0.38313547 -0.31798312 -0.3510738 -0.4104258
-0.108123176 -0.23869815 0.42057943 0.27970058 -0.04107603 0.08539025 0.455475 0.19914624
0.1892555 -0.2974262 -0.18488435 0.008174471 -0.22008021 -0.15180352 -0.30704582 0.30012155
0.362465 0.3000727 0.09597237 0.03897261 -0.0011328432 -0.144349 0.19058365 0.085936524
0.120403625 0.38905963 0.21359828 -0.15655199
00000000: 6568 303d 08e4 a9bd 1bbb 7bbd 72ff 8b3e
00000010: 552a c4be afce a2be f2bf b3be 5523 d2be
00000020: af6f ddbd 4a6d 74be 3056 d73e ea34 8f3e
00000030: 573f 28bd 15e1 ae3d 0534 e93e feec 4b3e
00000040: 32cc 413e 3f48 98be 5352 3dbe 37ee 053c
00000050: b55c 61be 6272 1bbe 1c35 9dbe 88a9 993e
00000060: 0395 b93e 21a3 993e 298d c43d bea1 1f3d
00000070: e97b 94ba 39d0 13be 5c28 433e 7dff af3d
00000080: 2d96 f63d d332 c73e 82b9 5a3e 2a4f 20be

_model.layers.1.conv._module_list.0.wsv.weight f4 [4, 6]
0.12752198 -0.14128578 -0.1291099 0.52171516 -0.15147321 0.14835049 0.004876863 -0.0857053
0.01767206 0.080451734 -0.08413835 0.0072677555 0.009888806 -0.27850607 0.1708812 0.46020594
0.14919959 -0.058031343 0.0666676 0.022974838 0.009891248 -0.059175514 -0.28102085 -0.024960313
00000000: 1f95 023e 38ad 10be 6335 04be 208f 053f
00000010: cb1b 1bbe 31e9 173e 18ce 9f3b 4386 afbd
00000020: ffc4 903c e1c3 a43d ba50 acbd 5a26 ee3b
00000030: a904 223c 5998 8ebe 7bfb 2e3e 1da0 eb3e
00000040: c7c7 183e 46b2 6dbd 0689 883d ba35 bc3c
00000050: e70e 223c 0662 72bd f7e1 8fbe 9279 ccbc

_model.layers.1.conv._module_list.0.wsv.bias f4 [4]
-0.011404756 0.29549938 -0.13590346 0.12355055
00000000: 04db 3abc b24b 973e 472a 0bbe 1208 fd3d

_model.layers.1.conv._module_list.1.wh.weight f4 [4, 4]
0.21557508 -0.5207656 -0.4407304 0.23638971 -0.2586185 -0.052414484 0.6384968 0.52145106
0.027208375 -0.30953842 0.20697056 0.052729912 -0.6636075 0.30070478 -0.12499758 -0.08001615
00000000: b7bf 5c3e e550 05bf 6aa7 e1be 2510 723e
00000010: a569 84be 92b0 56bd 8774 233f d17d 053f
00000020: 19e4 de3c d27b 9ebe 17f0 533e 52fb 573d
00000030: 2ee2 29bf faf5 993e bbfe ffbd 82df a3bd

_model.layers.1.conv._module_list.1.ws.weight f4 [6, 10]
-0.21581617 0.15097749 -0.24642804 -0.09769674 0.010016361 -0.24732184 -0.0409482 0.03524922
-0.033238485 0.27096647 -0.32060796 -0.15122268 0.10258937 0.25655216 0.2757895 0.21514064
0.42425558 0.17981738 -0.10769164 0.060192488 0.19108188 0.1995892 0.25112465 -0.048125707
-0.64939696 0.29438025 0.051981594 -0.1181535 0.35481316 -0.113285996 0.5136303 0.17632617
-0.23584826 -0.1250358 0.29837444 0.13185732 -0.09640099 -0.32321092 0.05762004 0.2105843
-0.42684034 0.06406865 0.105525434 0.14559257 -0.05095192 0.13497508 -0.22545797 0.034474675
-0.055539332 -0.0019105935 0.051623795 0.11901054 0.06480113 -0.15214413 -0.2623918 -0.10516913
0.21953304 -0.1884677 0.25958404 -0.17415449
00000000: eafe 5cbe d899 1a3e a257 7cbe 3a15 c8bd
00000010: aa1b 243c f041 7dbe 4db9 27bd 7c61 103d
00000020: 1425 08bd 1ebc 8a3e ba26 a4be 1eda 1abe
00000030: 601a d23d ce5a 833e 4834 8d3e d44d 5c3e
00000040: 0738 d93e 0c22 383e 6f8d dcbd 668c 763d
00000050: f8aa 433e 1c61 4c3e 6993 803e 761f 45bd
00000060: e13e 26bf 02b9 963e a7ea 543d 76fa f1bd
00000070: 12aa b53e 7d02 e8bd 467d 033f d98e 343e
00000080: 3582 71be 6209 00be 89c4 983e 9b05 073e
00000090: e26d c5bd e77b a5be fe02 6c3d 69a3 573e
000000a0: d18a dabe 6d36 833d b81d d83d 3816 153e
000000b0: f6b2 50bd e836 0a3e 74de 66be 5135 0d3d
000000c0: 367d 63bd e16c faba 7973 533d ccbb f33d
000000d0: 74b6 843d accb 1bbe 3858 86be ea62 d7bd
000000e0: 45cd 603e adfd 40be 33e8 843e 8e55 32be

_model.layers.1.conv._module_list.1.ws.bias f4 [6]
-0.24625881 -0.19455075 0.16607328 0.04917648 -0.13222608 0.062367935
00000000: 452b 7cbe 5038 47be 1d0f 2a3e 476d 493d
00000010: 4666 07be 8575 7f3d

_model.layers.1.conv._module_list.1.wv.weight f4 [4, 4]
0.5374629 -0.59337395 0.05872297 -0.46187964 -0.05017076 -0.1539858 0.12341875 0.15695237
0.17619087 -0.479334 0.1211815 -0.05190805 -0.018122125 0.3053556 0.04587788 -0.07774909
00000000: 2b97 093f 5be7 17bf 7f87 703d 7d7b ecbe
00000010: db7f 4dbd 74ae 1dbe f8c2 fc3d 1fb8 203e
00000020: 616b 343e 446b f5be 022e f83d 899d 54bd
00000030: da74 94bc 9257 9c3e 72ea 3b3d ea3a 9fbd

_model.layers.1.conv._module_list.1.wsv.weight f4 [4, 6]
0.04221227 -0.19143175 0.19571453 0.06284053 -0.07800169 0.09325509 -0.0039504464 0.007338725
0.0031513146 0.0032147449 0.0036260737 -2.7188988e-05 -0.011317074 -0.0058196527 0.0937496 -0.024671402
-0.044743698 0.05919838 0.001216993 0.009158072 -0.010917598 -0.0041487115 0.008795641 -0.0070685125
00000000: c6e6 2c3d af06 44be 6469 483e 89b2 803d
00000010: 5abf 9fbd 86fc be3d bf72 81bb b079 f03b
00000020: 4986 4e3b 78ae 523b 6ca3 6d3b e813 e4b7
00000030: 406b 39bc c9b2 bebb caff bf3d ae1b cabc
00000040: 2b45 37bd 007a 723d 8283 9f3a bd0b 163c
00000050: badf 32bc eaf1 87bb 981b 103c fb9e e7bb

_model.layers.1.conv._module_list.1.wsv.bias f4 [4]
0.31845683 -0.030160319 0.19843885 -0.01211182
00000000: c60c a33e c612 f7bc 8e33 4b3e a870 46bc

_model.layers.1.norm.0.scalar_norm.weight f4 [6]
0.9538755 1.0582314 0.98351294 0.97429186 0.8743267 0.7977202
00000000: 2f31 743f 2074 873f 81c7 7b3f 316b 793f
00000010: e0d3 5f3f 6437 4c3f

_model.layers.1.norm.0.scalar_norm.bias f4 [6]
0.05102157 -0.015856214 -0.10613376 -0.094952 0.051974967 0.1521716
00000000: fefb 503d e4e4 81bc a85c d9bd 3276 c2bd
00000010: b4e3 543d dfd2 1b3e

_model.layers.1.norm.1.scalar_norm.weight f4 [6]
0.9441893 0.8043639 0.98808354 0.9246308 0.70336986 0.7480124
00000000: 64b6 713f cbea 4d3f 0bf3 7c3f 9bb4 6c3f
00000010: 0c10 343f be7d 3f3f

_model.layers.1.norm.1.scalar_norm.bias f4 [6]
0.0029254225 0.244255 -0.16786002 -0.49528924 -0.14356534 0.55548185
00000000: 72b8 3f3b fc1d 7a3e 7fe3 2bbe 8d96 fdbe
00000010: cb02 13be 0f34 0e3f

_model.layers.1._module_list.0.wh.weight f4 [8, 4]
-0.23782307 0.43620732 -0.38021672 0.052005857 0.2081418 -0.29676232 -0.19550805 0.5347948
0.44203264 -0.4620236 0.27688223 -0.05032687 -0.4126458 0.45471293 0.16205344 0.1947472
-0.29632023 -0.39251432 -0.18153965 0.26173648 0.43699628 -0.3109017 0.081882074 0.038602788
-0.3926069 -0.2603004 0.28850463 0.29293305 0.012340268 -0.25223637 -0.5065 -0.2683296
00000000: e487 73be 9156 df3e c4ab c2be 1804 553d
00000010: 2023 553e 3bf1 97be 4333 48be 50e8 083f
00000020: 1a52 e23e 5b8e ecbe 82c3 8d3e 8c23 4ebd
00000030: 4f46 d3be 22d0 e83e 56f1 253e cf6b 473e
00000040: 49b7 97be a3f7 c8be 88e5 39be 5302 863e
00000050: fabd df3e 822e 9fbe cab1 a73d f51d 1e3d
00000060: c603 c9be 1846 85be e1b6 933e 52fb 953e
00000070: d62e 4a3c 2025 81be fca9 01bf 7f62 89be
