reaction/train_ff/model.pt (torch, 9275 bytes, 7 tensors)

norm_in.mean f4 [21]
0.14533092 0.16185197 0.15912637 0.19438235 0.24019927 0.23199666 0.23456238 0.24012873
0.20515239 0.16258197 0.13298516 0.26571056 0.30187175 0.33065847 0.2870324 0.2861329
0.31536666 0.3298073 0.3072173 0.26907197 0.24089979
00000000: a1d1 143e 86bc 253e 06f2 223e 2b0c 473e
00000010: ccf6 753e 8890 6d3e 1f31 703e 4ee4 753e
00000020: 7813 523e e37b 263e 432d 083e 370b 883e
00000030: ef8e 9a3e 114c a93e e9f5 923e 0380 923e
00000040: bd77 a13e 81dc a83e 964b 9d3e cdc3 893e
00000050: 6fae 763e

norm_in.range f4 [21]
0.004026315 0.031351935 0.027367013 0.047107283 0.038027313 0.0052742185 0.033077497 0.03042343
0.046271052 0.03111168 0.004487494 0.030152407 0.05070139 0.04023049 0.04578749 0.036080237
0.03522497 0.050304685 0.056426365 0.043886174 0.02601223
00000000: 2eef 833b e36a 003d c930 e03c 91f3 403d
00000010: 87c2 1b3d 5ad3 ac3b 457c 073d 8f3a f93c
00000020: b786 3d3d ecdd fe3c d40b 933b 2e02 f73c
00000030: 43ac 4f3d bac8 243d aa8b 3b3d dfc8 133d
00000040: 0f48 103d 490c 4e3d 551f 673d fdc1 333d
00000050: 9a17 d53c

nn.nn.0.weight f4 [48, 21]
-0.061468977 0.02145661 -0.23882364 0.04052042 -0.40126237 0.08708344 0.03704078 -0.09456743
0.0023345996 0.22320068 -0.14560986 -0.10528223 0.022017822 -0.16195644 0.113216065 -0.14032514
-0.25635698 -0.16789728 -0.16821745 0.28807577 0.093705274 0.09994001 -0.2086295 -0.35341585
0.013555175 0.0067464183 -0.00040583167 -0.037272945 0.07510097 0.24163371 0.021738213 -0.09981703
-0.15910174 -0.34324473 0.22923994 0.1504241 -0.19307025 0.22880198 0.10657187 0.0650718
-0.14666066 -0.099710375 0.09514101 0.13746327 -0.15280898 0.013481189 -0.022096973 -0.11394283
-0.014046106 0.32938644 0.19193229 -0.30884677 -0.2036148 -0.08534334 -0.2019689 0.034908198
0.09069584 -0.23952465 0.003950607 0.070379846 0.12666881 0.09587931 0.12382655 -0.19809441
-0.09582727 0.242405 0.13297874 0.0388385 -0.0544073 -0.12542838 -0.21623312 0.06877815
0.06694277 -0.10076686 0.122427195 0.020446183 -0.025669986 0.19783013 0.12873496 0.21638487
-0.1593532 -0.0712513 0.03268759 0.020251188 -0.17560159 0.12676689 -0.22341476 -0.32574698
-0.13361147 0.022631478 -0.19660963 -0.103536256 -0.117609546 -0.06047662 -0.17999831 0.050418884
-0.14941728 0.19624068 -0.21439739 0.004791501 0.16016683 0.08196184 0.017935945 0.098032594
-0.11413293 0.10383606 0.047115702 0.07485399 -0.20292744 0.03555729 0.08854516 -0.09883249
0.01763843 -0.15520656 0.08019152 0.12687014 0.022904003 0.018959057 -0.23670758 -0.056623604
0.2283073 -0.18610933 0.07644262 0.17509024 0.16996634 -0.11165164 0.072413355 0.14643124
0.22798507 0.09233715 -0.0063052285 -0.0387443 -0.12495174 -0.16982135 -0.32940334 -0.14277576
-0.1528368 0.14180025 0.17002538 -0.012144177 -0.16969904 -0.106227644 -0.17398235 -0.022505838
-0.0139657715 -0.24215376 0.118369736 -0.1490587 -0.04715377 0.06154817 0.28023237 -0.019737983
0.14269377 -0.0039535286 0.2196805 -0.357699 -0.35151812 0.1273136 -0.15130268 0.28823084
0.04041169 0.086276375 -0.12895413 0.19833827 -0.019529823 -0.3227912 -0.3927618 -0.0014736323
0.0310337 -0.24407953 -0.27281883 -0.38223046 0.29008013 -0.034007527 0.40481934 0.26217288
0.009494959 -0.23672627 0.012776174 -0.060164776 -0.13351193 -0.027203701 -0.104723744 -0.29046193
0.009947557 0.19413558 0.22290717 -0.07426982 0.19547942 0.08833434 0.0065026297 0.16620368
-0.10347057 0.064139746 0.101448216 0.065411955 -0.11593075 -0.09663806 0.12338998 0.3196823
0.021241076 0.20736724 -0.21086235 0.112006426 0.08848949 -0.100552954 0.23097849 -0.03802667
0.01032713 -0.07060479 -0.014622758 -0.31069177 0.10814877 -0.22288103 -0.062328305 -0.041950505
-0.015711589 -0.20473342 0.2951168 -0.08342276 -0.20239353 0.08523536 -0.05273078 0.12791204
0.24563265 0.10409613 0.19106305 0.0024387091 -0.016803505 -0.13624805 -0.084455505 -0.2267341
-0.11332055 0.163139 0.058605496 -0.28513 -0.006576902 0.04848021 -0.1498446 0.11485396
0.03332863 -0.12112715 -0.22047685 0.06253748 -0.14454173 -0.106803365 -0.0879407 -0.27825296
0.07411249 0.347548 0.15695429 0.046014696 -0.15845108 -0.3000233 -0.04462171 -0.012106654
00000000: e5c6 7bbd c6c5 af3c 2f8e 74be bdf8 253d
00000010: 4372 cdbe cd58 b23d 13b8 173d 92ac c1bd
00000020: 1500 193b b88e 643e c01a 15be 369e d7bd
00000030: b85e b43c e9d7 25be d3dd e73d 65b1 0fbe
00000040: 3941 83be 44ed 2bbe 3241 2cbe ab7e 933e
00000050: 8de8 bf3d 59ad cc3d f9a2 55be ecf2 b4be
00000060: 8616 5e3c 0f11 dd3b cec5 d4b9 84ab 18bd
00000070: 8ace 993d d46e 773e 5614 b23c df6c ccbd
00000080: 91eb 22be c6bd afbe e0bd 6a3e c608 1a3e
00000090: 35b4 45be 114b 6a3e 5a42 da3d 5d44 853d
000000a0: 362e 16be f434 ccbd 4ad9 c23d 2cc3 0c3e
000000b0: f579 1cbe 34e0 5c3c b604 b5bc dc5a e9bd
000000c0: a321 66bc 57a5 a83e e689 443e 2a21 9ebe
000000d0: 6680 50be 7dc8 aebd efd0 4ebe e6fb 0e3d
000000e0: bebe b93d f345 75be 1874 813b 4f23 903d
000000f0: 78b5 013e 5f5c c43d c698 fd3d 43d9 4abe
00000100: 1641 c4bd 0439 783e 942b 083e 1e15 1f3d
00000110: 30da 5ebd 4c70 00be 376c 5dbe 8fdb 8c3d
00000120: 4a19 893d db5e cebd 1cbb fa3d c17e a73c
00000130: dd49 d2bc fb93 4a3e 19d3 033e ff93 5d3e
00000140: 7c2d 23be 34ec 91bd 6ce3 053d d2e5 a53c
00000150: e7d0 33be 2ecf 013e d7c6 64be 4fc8 a6be
00000160: 72d1 08be a665 b93c 0954 49be d10a d4bd
00000170: 46dd f0bd 55b6 77bd 7a51 38be 0884 4e3d
00000180: d800 19be 51f3 483e fd8a 5bbe 0602 9d3b
00000190: c602 243e 9cdb a73d 67ee 923c 50c5 c83d
000001a0: 87be e9bd 00a8 d43d 65fc 403d 0c4d 993d
000001b0: 36cc 4fbe 85a4 113d 2a57 b53d b068 cabd
000001c0: 787e 903c 78ee 1ebe 743b a43d 3fea 013e
000001d0: 2da1 bb3c 0650 9b3c 7963 72be 27ee 67bd
000001e0: 64c9 693e 7293 3ebe f38d 9c3d db4a 333e
000001f0: a80b 2e3e 9da9 e4bd 744d 943d 12f2 153e
00000200: eb74 693e 421b bd3d 179c cebb 58b2 1ebd
00000210: b3e6 ffbd a6e5 2dbe 8ea7 a8be cf33 12be
00000220: 4081 1cbe 1634 113e 221b 2e3e 5ff8 46bc
00000230: 96c5 2dbe e18d d9bd 6e28 32be 2a5e b8bc
00000240: b1d0 64bc 28f7 77be d56b f23d d8a2 18be
00000250: 5024 41bd ef19 7c3d 9e7a 8f3e 8db1 a1bc
00000260: 511e 123e 9a8c 81bb edf3 603e 5324 b7be
00000270: 2ffa b3be 7f5e 023e 17ef 1abe fe92 933e
00000280: ba86 253d abb1 b03d 8d0c 04be 3019 4b3e
00000290: 02fd 9fbc e344 a5be 1318 c9be e526 c1ba
000002a0: 633a fe3c fcef 79be e9ae 8bbe b6b3 c3be
000002b0: 6285 943e 7a4b 0bbd 7b44 cf3e 863b 863e
000002c0: bf90 1b3c 5f68 72be 2853 513c 576f 76bd
000002d0: 5ab7 08be 4cda debc 6779 d6bd 6db7 94be
000002e0: 14fb 223c 7acb 463e c741 643e c61a 98bd
000002f0: c22b 483e a2e8 b43d 0314 d53b 4c31 2a3e
00000300: 61e8 d3bd b35b 833d 15c4 cf3d b4f6 853d
00000310: 1a6d edbd 2dea c5bd e3b3 fc3d 66ad a33e
00000320: c401 ae3c 1458 543e 4dec 57be a063 e53d
00000330: fa39 b53d b5ee cdbd a085 6c3e dbc1 1bbd
00000340: 1f33 293c 3e99 90bd 4b94 6fbc fe12 9fbe
00000350: 1a7d dd3d ed3a 64be f74b 7fbd 4bd4 2bbd
00000360: 97b5 80bc a3a5 51be 8d19 973e 8dd9 aabd
00000370: 4040 4fbe e08f ae3d 3bfc 57bd 60fb 023e
00000380: 2087 7b3e 5a30 d53d 08a6 433e c0d2 1f3b
00000390: 81a7 89bc 9c84 0bbe 02f7 acbd fc2c 68be
000003a0: 9b14 e8bd e90d 273e 510c 703d 8ffc 91be
000003b0: 0d83 d7bb 2f93 463d dd70 19be 8e38 eb3d
000003c0: 9a83 083d 8311 f8bd afc4 61be a613 803d
000003d0: bf02 14be b9bb dabd 411a b4bd 2c77 8ebe
000003e0: 4ac8 973d d0f1 b13e a0b8 203e e879 3c3d
000003f0: 0041 22be a79c 99be 41c5 36bd fd5a 46bc

nn.nn.0.bias f4 [48]
0.1939542 0.2873531 0.24375331 -0.11062502 0.17544936 -0.24491286 0.030705018 0.35258994
0.09537776 -0.0006223694 0.29485774 0.17645952 0.035323516 -0.12777206 0.26006213 0.34119356
-0.06553784 -0.011640118 0.11268709 0.31398648 0.18152696 -0.13799936 0.031834915 -0.12928024
0.13471808 -0.0054107774 0.54378974 0.12303137 0.21499647 0.04955048 0.20615418 0.08253022
0.16899726 0.056287162 -0.18443705 0.06486415 -0.13273989 0.26166898 0.5016733 -0.026233178
0.16969976 0.21910723 0.10606316 -0.008827491 0.27194393 0.01734231 0.011468689 0.43486014
00000000: ee9b 463e f21f 933e 789a 793e 5f8f e2bd
00000010: ffa8 333e 70ca 7abe 1789 fb3c ab86 b43e
00000020: 6a55 c33d 8126 23ba 98f7 963e ceb1 343e
00000030: 64af 103d aed6 02be dd26 853e ecb0 ae3e
00000040: b438 86bd 32b6 3ebc 7dc8 e63d d6c2 a03e
00000050: 34e2 393e b44f 0dbe 5465 023d 0a62 04be
00000060: 89f3 093e e44c b1bb ce35 0b3f dff7 fb3d
00000070: 0928 5c3e 72f5 4a3d 151a 533e 9b05 a93d
00000080: 9e0d 2d3e 5e8d 663d 11dd 3cbe 7fd7 843d
00000090: f7ec 07be 7af9 853e a96d 003f f6e6 d6bc
000000a0: c6c5 2d3e a55d 603e a437 d93d 2ea1 10bc
000000b0: 3c3c 8b3e 7611 8e3c 2be7 3b3c fda5 de3e

nn.nn.2.weight f4 [12, 48]
-0.21569657 -0.09417711 0.057689525 -0.106380396 -0.047249794 -0.06966495 -0.024590513 0.059099205
-0.18450779 0.01219966 0.0005283167 -0.23012035 -0.063151844 -0.080010265 -0.16302943 0.20803934
0.26991218 0.33374354 -0.17906244 -0.08004274 0.16009198 0.051524624 0.23281339 0.053300228
-0.240727 -0.14408766 0.23265444 -0.11565479 -0.032812946 0.25674522 0.2763745 -0.4402294
0.1546115 -0.12087342 -0.24580316 -0.05461046 -0.2014986 0.3192552 0.08232051 -0.075533725
-0.05321823 0.15257134 0.074935146 0.12153153 0.19955282 -0.007850626 -0.24613833 0.0918063
0.13681361 -0.022917254 -0.04049162 0.18370639 -0.08574245 0.0608807 0.10271296 0.045472838
-0.09796661 -0.075958334 0.01945719 0.12567109 0.22598822 -0.0023925286 0.05079676 0.10058697
0.13956392 0.12228136 -0.28399518 0.11428262 0.114957914 0.08150936 0.16467217 0.17911549
-0.17664336 -0.1484682 0.26284224 -0.10324036 -0.26904252 0.12630711 0.018056884 -0.09163606
0.030804206 -0.25640807 0.1117061 -0.28894272 -0.059298046 0.20670176 0.23573427 -0.058118824
0.028638177 0.104881324 -0.11202988 0.2028427 0.16900097 0.118838154 0.02254858 -0.03439112
0.037827432 0.1794732 0.14888136 0.0028935228 -0.20356119 0.101234436 0.13447559 0.18185282
0.3243919 0.16859789 0.26803473 -0.113064766 -0.34632948 0.085856296 0.25038725 0.035089683
0.33121783 -0.9236531 0.3350161 0.13307701 0.11345717 -0.14704861 -0.30924353 0.09871963
0.027212324 -0.21306674 0.37156114 0.10890378 0.22352359 -0.35884383 -0.14457525 0.33925644
0.07522064 0.036072 0.14168696 0.3134012 -0.011520479 -0.03209201 0.47995248 0.088768475
0.25540254 0.3038012 0.23543286 -0.64534897 0.006448914 -0.13010952 0.30197006 0.15098938
-0.37222993 -0.0627824 -0.040310342 0.004747052 -0.24664377 0.049568154 0.19918054 0.33132073
0.0079391 0.026049579 -0.15254155 -0.7521756 0.017861685 -0.13036546 -0.2128378 0.32576922
0.244733 0.41745865 -0.24151854 -0.025972651 -0.025437456 0.037767585 0.21489702 0.15842484
-0.61297876 -0.19470897 0.088425554 0.16063048 0.0453048 0.14311457 0.15889187 -0.309118
0.20058505 -0.3470461 -0.23022388 -0.14268464 -0.30612105 0.18602996 0.097128555 -0.22801149
0.0654132 0.12751907 -0.08569947 0.184888 0.022291094 -0.27463463 -0.33493555 0.16779816
-0.23086914 0.20605151 0.15686125 -0.10114796 -0.014376143 -0.12999573 -0.1572218 -0.0057778466
0.2250424 0.42327034 0.12601882 -0.033685908 -0.27447242 0.061036736 0.176645 0.14829008
0.26553425 -0.688384 0.31314418 0.15042894 -0.07803205 0.014182555 -0.4816862 0.13780382
-0.055451114 -0.015000934 0.31213465 0.008946012 0.21700346 -0.32477826 -0.08279965 0.40194786
0.03714199 -0.027087422 0.21973461 0.14986424 -0.21037608 -0.023356138 0.32080245 0.042392883
0.35774466 0.31999475 0.10681495 -0.49563625 0.10972069 -0.06248072 0.3040051 0.14324197
-0.29981652 -0.106823556 -0.008919102 0.16514094 0.04268463 -0.069276184 0.022729376 0.15840805
-0.16700034 -0.10100927 0.1505415 -0.38570333 0.1806049 0.0046824454 -0.092648454 0.014620703
00000000: 90df 5cbe eedf c0bd da4b 6c3d f7dd d9bd
00000010: 0089 41bd 7fac 8ebd 0b72 c9bc 0212 723d
00000020: 9cef 3cbe 15e1 473c bc7e 0a3a aba4 6bbe
00000030: c155 81bd 6cdc a3bd 30f1 26be 4408 553e
00000040: ee31 8a3e 6fe0 aa3e 255c 37be 73ed a3bd
00000050: 27ef 233e 7c0b 533d a266 6e3e 5751 5a3d
00000060: 2481 76be b78b 13be f73c 6e3e 6bdc ecbd
00000070: de66 06bd 1c74 833e f580 8d3e bf65 e1be
00000080: 7a52 1e3e 7c8c f7bd d3b3 7bbe 38af 5fbd
00000090: a655 4ebe 6b75 a33e a897 a83d 6db1 9abd
000000a0: 5cfb 59bd a93b 1c3e 9977 993d 86e5 f83d
000000b0: 9357 4c3e e99f 00bc b00b 7cbe f104 bc3d
000000c0: de18 0c3e f7bc bbbc 8ada 25bd 871d 3c3e
000000d0: bd99 afbd 0a5e 793d 2c5b d23d ba41 3a3d
000000e0: b8a2 c8bd 0b90 9bbd af64 9f3c ecaf 003e
000000f0: 7569 673e f8cb 1cbb 4310 503d 8b00 ce3d
00000100: d8e9 0e3e a66e fa3d d167 91be 020d ea3d
00000110: 0e6f eb3d 61ee a63d d29f 283e 0d6a 373e
00000120: ffe1 34be 0c08 18be 4293 863e af6f d3bd
00000130: f1bf 89be a756 013e 08ec 933c b0ab bbbd
00000140: 1a59 fc3c eb47 83be 2bc6 e43d 4df0 93be
00000150: 82e2 72bd a0a9 533e 5364 713e 010e 6ebd
00000160: 9c9a ea3c 05cc d63d ec6f e5bd ffb5 4f3e
00000170: 970e 2d3e 6b61 f33d cdb7 b83c b4dd 0cbd
00000180: f0f0 1a3d d3c7 373e 5b74 183e 42a1 3d3b
00000190: 5872 50be 0054 cf3d f8b3 093e a037 3a3e
000001a0: b216 a63e eda4 2c3e d93b 893e 808e e7bd
000001b0: 1952 b1be 6dd5 af3d c232 803e 33ba 0f3d
000001c0: 6295 a93e 8874 6cbf 3b87 ab3e 5745 083e
000001d0: 3c5c e83d e993 16be 2b55 9ebe 842d ca3d
000001e0: 61ec de3c 2b2e 5abe 433d be3e f208 df3d
000001f0: 5ee3 643e 61ba b7be 890b 14be 05b3 ad3e
00000200: 470d 9a3d 3cc0 133d 6316 113e 1f76 a03e
00000210: 64c0 3cbc e972 03bd 55bc f53e 3fcc b53d
00000220: 1fc4 823e d58b 9b3e 5015 713e 9735 25bf
00000230: 6951 d33b 6e3b 05be d29b 9a3e f69c 1a3e
00000240: ec94 bebe 0f94 80bd 751c 25bd 298d 9b3b
00000250: 2f90 7cbe fa07 4b3d fcf5 4b3e dfa2 a93e
00000260: 0013 023c ed65 d53c da33 1cbe 958e 40bf
00000270: ab52 923c 867e 05be 27f2 59be 39cb a63e
00000280: 4a9b 7a3e 24bd d53e a350 77be 99c4 d4bc
00000290: 3662 d0bc 2fb2 1a3d f70d 5c3e 1f3a 223e
000002a0: 2dec 1cbf ca61 47be 7518 b53d 517c 243e
000002b0: 8791 393d a08c 123e 8db4 223e b744 9ebe
000002c0: 2b66 4d3e 07b0 b1be cfbf 6bbe ec1b 12be
000002d0: e6bb 9cbe a37e 3e3e 56eb c63d d87b 69be
000002e0: 5bf7 853d 5c94 023e 3483 afbd 4853 3d3e
000002f0: d09b b63c e99c 8cbe ac7c abbe 48d3 2b3e
00000300: f668 6cbe 2bff 523e 3ca0 203e a926 cfbd
00000310: ea89 6bbc 9a1d 05be c0fe 20be 1754 bdbb
00000320: 8471 663e e4b6 d83e 140b 013e 3cfa 09bd
00000330: a687 8cbe a801 7a3d 6de2 343e 5bd9 173e
00000340: 1bf4 873e ef39 30bf 6f54 a03e 0b0a 1a3e
00000350: 44cf 9fbd f25d 683c 939f f6be 721c 0d3e
00000360: b520 63bd 7ac6 75bc 1dd0 9f3e 4b92 123c
00000370: 2836 5e3e 5649 a6be dd92 a9bd 1ccc cd3e
00000380: 3322 183d 71e6 ddbc 1c02 613e 0376 193e
00000390: d46c 57be 5f55 bfbc 3840 a43e 29a4 2d3d
000003a0: 4f2a b73e 5ad6 a33e ccc1 da3d 09c4 fdbe
000003b0: 3eb5 e03d c9eb 7fbd 8ea6 9b3e 06ae 123e
000003c0: 8d81 99be 4fc6 dabd 6d21 12bc b51a 293e
000003d0: 14d6 2e3d ace0 8dbd f532 ba3c b835 223e
000003e0: 2302 2bbe f3dd cebd 8d27 1a3e e87a c5be
000003f0: 7ef0 383e 336f 993b 79be bdbd ac8b 6f3c

nn.nn.2.bias f4 [12]
0.102653064 0.20031737 0.044244025 0.24862288 0.12470371 0.1077571 -0.047134575 0.18024553
0.032972768 -0.03503823 0.27645293 0.07928625
00000000: c53b d23d ff1f 4d3e 3939 353d ff96 7e3e
00000010: a964 ff3d c1af dc3d 2f10 41bd 4992 383e
00000020: 740e 073d 3f84 0fbd 3d8b 8d3e d460 a23d

nn.nn.4.weight f4 [1, 12]
-0.36073342 -0.19915202 0.3023393 -0.36200473 0.38012704 -0.20520003 0.38248026 -0.35076386
0.23102558 0.47111303 0.23996624 0.3722516
00000000: 0db2 b8be 82ee 4bbe 37cc 9a3e af58 b9be
00000010: 03a0 c23e f51f 52be 74d4 c33e 5297 b3be
00000020: f891 6c3e ba35 f13e b6b9 753e c397 be3e
