reaction/train_gnn/model_2_states.pt (torch, 51548 bytes, 52 tensors)

cutoff f8 []
0	0x4024000000000000	10.0

_model.cutoff f8 []
0	0x4024000000000000	10.0

_model._radial_embedding.bessel_fn.bessel_weights f8 [8]
0	0x3fd41b2f769cf0e0	0.3141592653589793
1	0x3fe41b2f769cf0e0	0.6283185307179586
2	0x3fee28c731eb6950	0.9424777960769379
3	0x3ff41b2f769cf0e0	1.2566370614359172
4	0x3ff921fb54442d18	1.5707963267948966
5	0x3ffe28c731eb6950	1.8849555921538759
6	0x400197c987c952c4	2.199114857512855
7	0x40041b2f769cf0e0	2.5132741228718345

_model._radial_embedding.bessel_fn.cutoff f8 []
0	0x4024000000000000	10.0

_model._radial_embedding.bessel_fn.prefactor f8 []
0	0x3fdc9f25c5bfedd9	0.4472135954999579

_model._radial_embedding.cutoff_fn.p f8 []
0	0x4018000000000000	6.0

_model._radial_embedding.cutoff_fn.cutoff f8 []
0	0x4024000000000000	10.0

_model.W_e.0.scalar_norm.weight f8 [8]
0	0x3ff47a3d2e7832d1	1.279843503495773
1	0x3ff19ea768cdb3d7	1.1012338727843962
2	0x3ff07a66ccf71c54	1.0298831945854277
3	0x3ff72a54f5ad481f	1.4478349301102822
4	0x3ff257a030e4c615	1.1463930044086557
5	0x3ff27d65fc19bd13	1.1556148383786577
6	0x3ff20c41283312a6	1.127991826085386
7	0x3ff48b0cd0ac88ee	1.283947768337892

_model.W_e.0.scalar_norm.bias f8 [8]
0	0x3fafec638055cdc3	0.06235037747947161
1	0x3fab81dcbd330be2	0.05372514543116559
2	0xbfb7cd7877f3ec72	-0.09297898224387938
3	0xbfb34d9b1be3e482	-0.07540292197144718
4	0x3f97f761d5f08df4	0.023404625590172715
5	0xbfb62eab03d4a2ac	-0.08664959758301433
6	0xbfaa30495c181ccf	-0.05114964722820902
7	0x3fba8ca5b76ae845	0.10370860794037735

_model.W_e.1.wh.weight f8 [1, 1]
0	0x3fd52ba2fe9bfd1c	0.330788372651982

_model.W_e.1.ws.weight f8 [8, 9]
0	0x3fc1a072ba695b42	0.13770898916365054
1	0x3fd4230acafa7adc	0.3146388036929417
2	0xbfccb98b6c5ff4a3	-0.22441237251033383
3	0xbfdfef208eb915f5	-0.49897016465942495
4	0xbfcd886efa8c34e1	-0.23072612031720666
5	0x3fa0f1228aa9a587	0.03308971350345318
6	0xbfd7a865ed27d392	-0.3696532073948272
7	0x3fad140a602c52c5	0.056793522109875684
8	0xbfb78bdda63bc228	-0.09197793301041968
9	0x3fddc01342dfffa7	0.46484834223519517
10	0x3fcc87fb4bec1915	0.2228998299326085
11	0x3fc03b7f6b782255	0.12681572673342836
12	0xbfb6080c8a5c2952	-0.08606031778268644
13	0xbfb75d7571854096	-0.0912698175573062
14	0xbfc64e19e0b0be4f	-0.17425845595561149
15	0xbfc5429d8a09a4ea	-0.1660954402935098
16	0x3fc573d607f1dc39	0.1675975359719091
17	0x3fc91cde8b02a807	0.1961935213815311
18	0xbfc75801b4f4edb9	-0.1823732503488438
19	0x3f7cdba079cf71a9	0.007045389994314291
20	0x3fbd1d9314e2ba11	0.1137325216284142
21	0xbfb74c7a824c2e18	-0.09101072007268163
22	0xbf9cc80a36bbe995	-0.028106841650676968
23	0xbfda342f4cc7cf85	-0.40943510530564026
24	0x3fcb05445eb34bc1	0.21109823822061283
25	0x3fe73344f64c48be	0.7250084696300048
26	0xbfd4e6c3e9878d65	-0.32658479505172117
27	0xbfd1f7c64be7723a	-0.28074796116360157
28	0xbfd83e78aa6ede42	-0.378812948645166
29	0x3fc185640d66444f	0.1368832650591991
30	0xbfd229040b199552	-0.28375340541818617
31	0xbfd7841bb95f8ac8	-0.36743825056889223
32	0x3fc3a977255425a3	0.1536091739911117
33	0x3fd2ce5a2a42c873	0.29384473921812243
34	0x3fe18b7e1a87fe64	0.548277904337692
35	0xbfb36d25258a17df	-0.07588417211999808
36	0xbfd32ac559940c87	-0.29948552844889104
37	0xbfcb0cc816837037	-0.21132756327904342
38	0xbfc96c36240c7031	-0.19861485252556713
39	0xbfe090d955ae741a	-0.5176817582574842
40	0x3fc6d5b17115230c	0.17839639684304875
41	0xbfc5aa3d9de5896a	-0.16925783357425966
42	0x3fdaab4ea3d508d3	0.41670576094851447
43	0x3fb0ef228626f293	0.06614890837858871
44	0xbfc7bb3825d615df	-0.1854009804484766
45	0xbfdbfb3cb5274bb3	-0.437209298045839
46	0x3fbc3d75c3fbae1d	0.11031280550712848
47	0x3fd2f64bd9c52a1a	0.29628273264521143
48	0x3fdc239a4cdb9579	0.4396730185092888
49	0xbfaa485d5b450fc4	-0.051333348647431915
50	0xbfb34be99c958bff	-0.07537708351951265
51	0xbfb5a4dca266d09b	-0.08454684224017443
52	0xbf8094fee2048dbc	-0.008096686623111242
53	0xbfb430ca94c15011	-0.07886949664799682
54	0x3fca5be3fb180be5	0.2059292770428264
55	0x3fc8e86195ffed51	0.19459171127514677
56	0x3fd11e3ac2256326	0.26747006377768157
57	0x3fe89eaeb3cee209	0.7693704139592806
58	0x3fcb5ad7160f6213	0.21370972230103344
59	0x3fc0f055bbfff44b	0.13233443908385065
60	0xbf81600d3115c251	-0.00848398500485917
61	0xbfe2b2217a740b29	-0.5842444793382572
62	0x3fc27bd8ca77e5a9	0.14440450559758958
63	0xbfd7f8190ca18978	-0.37451769097801657
64	0xbfc771f6713c8dce	-0.1831653645432269
65	0xbfc147bc4031d980	-0.13500168928630885
66	0x3fc2a02a14447b03	0.1455128287279522
67	0x3fc4b9fd24f03105	0.16192592910409345
68	0x3fdc47254dd70261	0.44184239007521425
69	0xbfcd989117f2ca21	-0.23121846837382612
70	0xbfe219e2d1ef78da	-0.5656599140454788
71	0x3fc8fb847eaab081	0.19517570671940024

_model.W_e.1.ws.bias f8 [8]
0	0x3fd00401a9b4cfb3	0.250244537094882
1	0x3fbfcb8fa939c364	0.12419984704480452
2	0x3fc8e9e337577c7b	0.1946376819823604
3	0xbfcafa07c0a1a978	-0.21075531869730546
4	0x3fd2e77cf1e79a58	0.29537891028886554
5	0xbfc1ec4d5e11fd3c	-0.14002387135767858
6	0x3f8e45ae156df2ed	0.014781341580368113
7	0x3fa3270e6f468e8c	0.03740735157341843

_model.W_e.1.wv.weight f8 [1, 1]
0	0x3fead07799b4ff8a	0.8379476549234692

_model.W_e.1.wsv.weight f8 [1, 8]
0	0xbfda3fee153e90fd	-0.41015197825096533
1	0xbfb1e58d61eb444f	-0.0699089397487722
2	0xbfe0eab7c2858073	-0.5286520766494632
3	0xbfba65475b88fe9e	-0.10310789093727599
4	0xbfd6942112a89d34	-0.3527910883153311
5	0x3fdc4dd7fa7fc8af	0.4422512003212757
6	0x3fc050f991e925b3	0.1274711573080772
7	0x3fe88ae508038fbe	0.766954913761303

_model.W_e.1.wsv.bias f8 [1]
0	0xbf9442cdd8bec655	-0.0197860873738079

_model.W_v.0.scalar_norm.weight f8 [2]
0	0x3fee1e91e58a75db	0.9412316783161104
1	0x3fece381082c41ad	0.9027714881540781

_model.W_v.0.scalar_norm.bias f8 [2]
0	0xbf912cedce5b4815	-0.016772952766423616
1	0xbf95d44637a28baa	-0.021317574639976

_model.W_v.1.ws.weight f8 [8, 2]
0	0xbfa1fdf254830f07	-0.0351405838169097
1	0xbfe30f2daa912f6e	-0.5956028300656564
2	0xbfce573a483260bc	-0.23703697705491844
3	0xbfc3952ff96be26f	-0.1529903381231352
4	0xbfd33f0546cc6aec	-0.30072147287289286
5	0xbfc5f9b01dbcbc3a	-0.1716823716355707
6	0xbfdbb35b50a28ac5	-0.4328220641565788
7	0xbfd750eb59e25319	-0.3643139245771621
8	0xbfd3a40a26218156	-0.3068871853229401
9	0x3fd4d91ea3248976	0.3257519334021234
10	0x3fb27054cb2e147e	0.07202653847169135
11	0x3fe22bffb7afb35b	0.5678709590552943
12	0x3fd75daa7dbb7a8f	0.3650919177870628
13	0x3fe6660531d605a6	0.6999536488876188
14	0x3fcb35f39570ffd4	0.21258396908706223
15	0xbfb4d9b1f7da13a3	-0.08144676495619634

_model.W_v.1.ws.bias f8 [8]
0	0x3fdc86f929af2dea	0.4457381159852206
1	0x3fe27c1230a2e502	0.5776453924110287
2	0xbfe1ebf438f10a16	-0.5600529777660224
3	0xbfbdbdb8f2044ad3	-0.11617618473637074
4	0xbfc0c4a9a8152069	-0.13100166995195942
5	0xbf7acd2e83b7d330	-0.006543332764967144
6	0xbfe400b79d711358	-0.6250875544579726
7	0x3fe19ec58a6d7e83	0.5506313041368717

_model.layers.0.conv._module_list.0.wh.weight f8 [17, 17]
0	0x3c98ff418cf406a3	8.672609149147652e-17
1	0xb85794751278eb64	-2.771805261932513e-37
2	0xbd26b40109f9f55c	-4.0328879530855575e-14
3	0x3d1208cf64131c75	1.6017777801247205e-14
4	0x3e140539b3afd891	1.1653413362306488e-09
5	0xb8563296d6c7ce1b	-2.6093170000115254e-37
6	0xbd141eb5bb68d3e8	-1.7870114731351805e-14
7	0xbdcfce29e48f94ea	-5.7853552304806344e-11
8	0x3fbecc2dc66e79d6	0.1203030213787096
9	0x3c19a7afa590dbd6	3.476904081835182e-19
10	0x3cdf869c79cba33b	1.7500348465187468e-15
11	0x3df22dcbba11b880	2.645376644034628e-10
12	0x3d213b9e75fdac71	3.06117561014899e-14
13	0xb8a0d22856a99bb4	-6.327329875082528e-36
14	0x383825b8e3fa83fa	7.096269099767951e-38
15	0x3870c5f2ac39f593	7.886736791786255e-37
16	0x3812ff6d1c1e10c7	1.3957348720299693e-38
17	0x39d02faf47fbf918	3.1921785714787185e-30
18	0xb8f8ed6660b84435	-3.0005198193814355e-34
19	0xb86703ebf50983ae	-5.4108755335254376e-37
20	0x38344186ca49f436	5.952692514860065e-38
21	0xbd7f4f0af01c9891	-1.7796969956215996e-12
22	0x384a89650fd6992a	1.5596869489211944e-37
23	0x3880dbaef73fa385	1.5853317273183794e-36
24	0xb7efebcd66178fd0	-2.9314903215303525e-39
25	0x3fa0c1d7605e785c	0.03272889186267555
26	0xb9dc7b709cfc3918	-5.617120972903903e-30
27	0xb813e12a0f395dc4	-1.4605185251331107e-38
28	0x3a9143544326ed54	1.394494397387873e-26
29	0xbd01f00c6cbe5cc2	-7.965934395267636e-15
30	0xbd5ac6fc0da2bdf2	-3.8052808587843075e-13
31	0x3d5bd44b8931b690	3.954778206120688e-13
32	0xbcbeb772539f1bb3	-4.2627829372177e-16
33	0x3a842bb5eebc623c	8.146898953293062e-27
34	0xb9498937dcca948b	-9.836112741363165e-33
35	0xb8664e2bc06c0cca	-5.243963781963765e-37
36	0x3d45a1e656740cb9	1.5370759544810931e-13
37	0xba325cc20ac28720	-2.317652620444231e-28
38	0xbb47940f0a4deaac	-3.9007115430026765e-23
39	0x3c2de2f764e91370	8.100775756472043e-19
40	0xb967ab72ea035d48	-3.6468981408589957e-32
41	0xb925c1562ab8b485	-2.0949515835655057e-33
42	0xbfcfceaf25dacade	-0.24849500034687017
43	0x3870cdc7d726bca0	7.9011231643139e-37
44	0xb8c9e07d3c004d2d	-3.8935248139580814e-35
45	0xb92823e8e0bacc5b	-2.3246236532407392e-33
46	0xbda295a053ca5eb1	-8.45124197919787e-12
47	0xb899d330b0039074	-4.8571354472323954e-36
48	0xb8f701035b2b3b18	-2.7690006570313165e-34
49	0x3c4addf1b2ff9d13	2.9129226469397953e-18
50	0xbc59266e05df506f	-5.45356214979068e-18
51	0x38c8b1033c53da36	3.7151573244722173e-35
52	0xb93a1de27eedcf2c	-5.02990064193909e-33
53	0xb8d155b0bfcbaecc	-5.216480027130185e-35
54	0x3850748892b4fe63	1.93430051502548e-37
55	0xb821bacecc3c8a27	-2.605147916481555e-38
56	0xb8a2916e3fa3859b	-6.98453860768929e-36
57	0xb8736fabe6e32909	-9.138865203393248e-37
58	0xb8a1caa5f29449f7	-6.69245408442497e-36
59	0xbfd18f707ac8bc4e	-0.2743798445762352
60	0xbb4830913a48db0e	-4.001852819415749e-23
61	0x38282350f08653a7	3.5467535399980583e-38
62	0x3dfed6a077e62950	4.4875757961987037e-10
63	0x382c16ddc746c78e	4.1273548530231456e-38
64	0x3d71b648437f99c5	1.0068129174688377e-12
65	0xb8f830271789186d	-2.911536208662784e-34
66	0xba776e95a08e35d4	-4.73204878383101e-27
67	0x38b4ddc9526781f7	1.5698099381333377e-35
68	0x388e03b7b518c78d	2.822552075131855e-36
69	0xbc7daa50de165be9	-2.5730543078627063e-17
70	0xb9c05066242877b7	-1.6086903746127373e-30
71	0xbcd76cb402565dfc	-1.3003277189088365e-15
72	0xb842c6496e85e63a	-1.103469342191948e-37
73	0xb880fbffe80d920a	-1.5972028149522598e-36
74	0xb830c70544487f43	-4.930441816821731e-38
75	0xb99f7348b29b1c36	-3.8765522247035334e-31
76	0x3f9676e7324c7d0c	0.021937954373354038
77	0xbce375401e4f5168	-2.1602730292510367e-15
78	0x382585aa5ec758ae	3.1623929103548963e-38
79	0xbaa98621ac056af4	-4.1236167315556704e-26
80	0x384097e2d7d548b3	9.752668203839726e-38
81	0xbd04fdc8d6de8421	-9.322030176679455e-15
82	0x391bb290d2815eca	1.3335871901851114e-33
83	0xba6d47d07262a458	-2.956577405490092e-27
84	0xbe2ad063c5f2b2b2	-3.1215630493522327e-09
85	0x382463b37194c7d6	2.99596141694069e-38
86	0xbdfdd5602714a316	-4.3413454001909245e-10
87	0xbd766657a618021b	-1.2732797878589577e-12
88	0xbb38159ca7e84ce9	-1.992216663619072e-23
89	0x38b72f2c8b938b86	1.7441908784374454e-35
90	0x384597635aaf7986	1.269026072127191e-37
91	0xb8fcc686a8ece147	-3.4637238863721697e-34
92	0x3899aa0d06c72515	4.8269110622173265e-36
93	0x3fc2106124859672	0.14112486155788734
94	0xb847c267555155f0	-1.3964513915659911e-37
95	0x3ba832921ba70da2	2.5620144073104112e-21
96	0x383be416074d521c	8.196416811416719e-38
97	0xbaa5f2bb82742a0d	-3.5459186992408817e-26
98	0x386384ee119d9599	4.5889554180282116e-37
99	0x3899475531bc4115	4.754384460696318e-36
100	0xb93589671d1b4bf0	-4.147823251816327e-33
101	0x38a65b81604bc932	8.409935294914573e-36
102	0x3e0f910c9b845bb4	9.187089344779303e-10
103	0xb841cd268ce0a2e3	-1.0462704630870773e-37
104	0xb8a655a092021234	-8.401298133139955e-36
105	0xbde8e75af3bf3f5f	-1.8119849533448428e-10
106	0x3906be39414012a2	5.475192809616788e-34
107	0xb8695e0afd1e64d5	-5.963836540689457e-37
108	0x3e0b5b26cb92277f	7.961661530936969e-10
109	0xb95966bea44131c6	-1.9568485510229998e-32
110	0x3fcb02ccae5ccd07	0.21102293504518618
111	0xb913edcd51b982ca	-9.59542314119066e-34
112	0xb8d293cac14f8a0e	-5.590406644011812e-35
113	0xb7e2f36319937c61	-1.7403497742596413e-39
114	0xb86e5731e319d3a7	-7.133041947831768e-37
115	0x3dd8cf5a97f1f338	9.025816724770403e-11
116	0xb87bae20c250205f	-1.301516155006091e-36
117	0xb885873625677a8f	-2.0244993731645113e-36
118	0xb8ead45d29450071	-1.614744595348128e-34
119	0x3de5eccdd31b69cb	1.5952548444853532e-10
120	0xbcc1b549d7522537	-4.915001177087694e-16
121	0xb90f9c4d6a364c62	-7.609964606880261e-34
122	0xbdfe78f185e530b5	-4.434322959997274e-10
123	0xbbafe8414c84ac0c	-3.378311117728317e-21
124	0xb8e539e3723c1114	-1.277501037976434e-34
125	0x3e062bc25e0bfe71	6.452591205221625e-10
126	0x3cf20f589a453121	4.01011351206799e-15
127	0x3f9e0d4a8c7bcd67	0.029347576927603394
128	0x39469eddc8baf25f	8.713127262612569e-33
129	0x382229a589ad995e	2.66876628383609e-38
130	0x3df4e7d55b649d1c	3.042165090958434e-10
131	0xb86ce9eca479143d	-6.79759398389027e-37
132	0x3ae61b46f7a78abd	5.714409661224465e-25
133	0x3db725136622e97b	2.1050097761685307e-11
134	0xb870ae9a4204934e	-7.843858117920473e-37
135	0xbaf3cdeaa8d4c371	-1.0238615114155566e-24
136	0x3de63dfe0c0660bc	1.6183299666709045e-10
137	0x3ccf67ed2dc9140e	8.716905756110401e-16
138	0xbc9b8e3d6c08e392	-9.560277821307773e-17
139	0xb842fe6f4ebf7b38	-1.1163602799168261e-37
140	0x3bd4cdc4f123b9b4	1.762149246244163e-20
141	0x3cd5994a9c7cc5a5	1.1989739605459108e-15
142	0x3cb0d6f4b4bdab62	2.3369738668577407e-16
143	0x3df84819ddbaa960	3.53344435073284e-10
144	0xbfc0da87e5ebb2e8	-0.13166903235050786
145	0x38a74c351e7fe091	8.763615274284073e-36
146	0xbdf00a4c2bf99340	-2.334159913746004e-10
147	0x3cc0fb5e74ac0341	4.713426879454779e-16
148	0xbda091a3451904e1	-7.534662268500542e-12
149	0x3cf8b574eeea4356	5.486459178079066e-15
150	0x3db3a56c95c95cf6	1.786810401171745e-11
151	0x38921f65b7901c2a	3.408490847011731e-36
152	0x387cd421aeb8b4ec	1.3555160893047726e-36
153	0xbd9213d9a1cbc5f3	-4.110356610685591e-12
154	0x392874757bfb1901	2.3549229112311953e-33
155	0x3b2433cc6a316582	8.355491108214582e-24
156	0xbe14f6ce6b150c24	-1.2202704786989111e-09
157	0x3ca53d3a3df30180	1.473763469055656e-16
158	0xbc5d539174f513d8	-6.359157611431426e-18
159	0x3aad48c06658c173	4.731115378535385e-26
160	0x3d5038b4bc957506	2.305214909270982e-13
161	0xbfc4f6712182a3ed	-0.1637708104729251
162	0x394a6ebe421f8d8c	1.0181463553158136e-32
163	0x385b7a8029d5a200	3.230084281730071e-37
164	0x3d607937b47d7eb1	4.682052076945397e-13
165	0x3dd7e542d5aef02f	8.69315083640629e-11
166	0xb8270fb8c6053bad	-3.388570112932667e-38
167	0xbde2bc918a811d86	-1.3632667672876448e-10
168	0x3a285ed13f6b1524	1.5379872253474966e-28
169	0x386b7ebb5a9b6711	6.464054318875343e-37
170	0x3de551a5e5672c0d	1.5511568652932027e-10
171	0xbce14da918514196	-1.9210590268305926e-15
172	0xb7f13346a66e8a8e	-3.1591955786933134e-39
173	0xbd88f0c97fb54757	-2.835415060485352e-12
174	0x3da3625cc51c4a83	8.814926358034334e-12
175	0x3d0d7d71700a1b9d	1.3096196203593679e-14
176	0x3971abbe170cce5b	5.445257010608366e-32
177	0xbba570a3cc9f4b3f	-2.2700482328962283e-21
178	0xbfc8f07540fa5c40	-0.19483819649460266
179	0x3d4b80d63329aafc	1.9542247592879267e-13
180	0x3da6e6667c218c06	1.0413714924321125e-11
181	0x3d968d0858f51297	5.127482978100865e-12
182	0x3d80d6b9639a5dbc	1.9143460932329578e-12
183	0x3e135b5e8da15909	1.1267205419713572e-09
184	0xbc63736e294cecac	-8.435483075289919e-18
185	0x3b330266a900957b	1.5724189740496185e-23
186	0x3dd939c059cfc2d6	9.177016651187489e-11
187	0x38487fc635b56e63	1.4399287517131582e-37
188	0xbb9459a3f5d5d8f5	-1.0773283987681535e-21
189	0xb7fffea6af4e0c9b	-5.876503974749585e-39
190	0xb84cf256ce6265c9	-1.7013304168095001e-37
191	0x3b938666fd975f10	1.0336453705218685e-21
192	0xb81fb6578cbaa8f6	-2.3298498897921836e-38
193	0xbab9746d29d25f21	-8.22488647042174e-26
194	0xb8633901f803c1c2	-4.519231828684652e-37
195	0xbf978cf90ea0b979	-0.022998706357776542
196	0xb8420171c10ff9d9	-1.0582765227305268e-37
197	0xb859ac76e90aaf32	-3.017927688676775e-37
198	0xbd9c1d2c3cdd4f92	-6.392373567115414e-12
199	0xbbb0527d2205db2f	-3.4563649254590875e-21
200	0x3871b557b2d07b14	8.326435287517699e-37
201	0x3a4e4bedf4344584	7.6479369651560245e-28
202	0xbd5a9e83ef17abed	-3.7828159310590705e-13
203	0x3df96d1f96801349	3.7000082728594885e-10
204	0xb84785d7f442a8c4	-1.3825474802911191e-37
205	0xb8d0c08bd8321a5f	-5.041161910844725e-35
206	0xbc909dc844557ec8	-5.764950003773423e-17
207	0xb811cb4e6e7213cd	-1.3073088152957993e-38
208	0x3da12dfa0f6e7958	7.812376164591582e-12
209	0xb9b0d7657ac98665	-8.303447438193448e-31
210	0xbd86c8a6d42d8c81	-2.5902176737161237e-12
211	0xb81eda79b5db70f0	-2.2667512816039045e-38
212	0x3fcf13ca7ba30896	0.24279147183375888
213	0x3dc83918f4bccb12	4.4061447712788645e-11
214	0xbd99409075453a40	-5.7416864946132435e-12
215	0x3b70b01b8f34c2c5	2.2086278912792655e-22
216	0xbafb3999c007a658	-1.4074996294684778e-24
217	0xbe0b7da0a34913da	-8.000856145757073e-10
218	0x38e85ce3b17f92ff	1.4662856576658911e-34
219	0xbe2df757a5c00415	-3.488522621817191e-09
220	0x3d686e081dcbfd25	6.943369995253207e-13
221	0xb9ebbcb9dba6d989	-1.0940400676356584e-29
222	0x393f1df0a6a155f1	5.992907212183275e-33
223	0x3a8428808dfde31f	8.141836821113027e-27
224	0xbe2012cf728ce449	-1.8711991022654525e-09
225	0x39b116e417d06587	8.425733557938497e-31
226	0xb84151a38d48a120	-1.0179135645783456e-37
227	0xbc072048de445a26	-1.5670862964048514e-19
228	0xb84395716111e50d	-1.1510300375647238e-37
229	0x3fbb3db4183bf219	0.10641027061132781
230	0xb9826f1a4a0a00e2	-1.136082648204529e-31
231	0xb8573f26ac6364df	-2.7326345551753387e-37
232	0x39129490c8b4df9b	8.946105516928145e-34
233	0x38c63c012b7cdabd	3.34545960833893e-35
234	0xba4181c4f5ad64dd	-4.41936580644886e-28
235	0xbe1a15389ea2bbd7	-1.5182243193040356e-09
236	0x39f5910b0643b030	1.7013027458973772e-29
237	0xb7c9b644a27e9e4d	-5.9031821994043236e-40
238	0xb8760531da8757da	-1.0353891519088852e-36
239	0xb89d514cfa6c9e00	-5.5140241059825055e-36
240	0x3c705d7a76b48ba7	1.4194504857666654e-17
241	0xb7fb533c644a0692	-5.018835625817268e-39
242	0xbe1c34366455db80	-1.6416862464430795e-09
243	0x38677e1c012588c1	5.523087200083054e-37
244	0x3c5883e2ea505b23	5.3158825437305386e-18
245	0x38307e95aa4f539b	4.847289432032758e-38
246	0x3fcb22dacd92821b	0.21200118100843288
247	0x3a7ffa208b681438	6.4577156557977645e-27
248	0x3872c15569893be1	8.818657143932645e-37
249	0x39d7f104de6b0384	4.721624503233188e-30
250	0xb92ca0f6778a6b53	-2.7568493835470784e-33
251	0x3d22f6d1c9441679	3.368707727578017e-14
252	0x3912c5799f71fedc	9.038094112580114e-34
253	0xb8700ee8b78bffff	-7.550547446633821e-37
254	0xbab4e0e585b31a97	-6.74620791613344e-26
255	0x3e2ebf86fcd92b4f	3.5795561851314848e-09

_model.layers.0.conv._module_list.0.ws.weight f8 [8, 41]
0	0xbfa953afaf1f8ab6	-0.049466600539536484
1	0x3fc1102c4743852e	0.13330605964351022
2	0x3fb4b0669868b1a5	0.0808166620342435
3	0x3fc81806c002902b	0.18823322654236682
4	0x3f97b9515a526c75	0.02316786874562778
5	0xbfbd999bb071db84	-0.11562512452824875
6	0xbfb65b839e96d7a1	-0.08733389493758505
7	0xbfb89d0758dcb0a9	-0.09614606780513903
8	0x3fc86e0e3fb8b1da	0.19085863219642257
9	0x3fa9432395a09dc7	0.04934035493380012
10	0xbf85c5122a1b2b48	-0.010629789266564452
11	0xbf90ab58b4b098e2	-0.016278635052139452
12	0xbfc9c8763cf41c04	-0.2014301107048767
13	0xbf9a6484e9a469b7	-0.025774075279608257
14	0x3fb45a8edf4d33ba	0.0795068068666315
15	0x3fb9f6807aa08faa	0.10141757005527433
16	0x3fc84f920d28e9ab	0.18992829935616604
17	0xbfb1ab8d23c44141	-0.06902391551216615
18	0xbfbc5e1a7f77aef2	-0.1108109055709823
19	0x3fcb78cefef2a500	0.21462428520798227
20	0xbfc26d9240521de8	-0.14396885052359143
21	0xbfcde39ccab44db5	-0.2335086812750952
22	0xbfc7bd69436edd0c	-0.18546787064199355
23	0x3fb0e0dbcac48a96	0.06593106937774915
24	0xbfaaf7c36a7bfe1d	-0.052671534298493784
25	0x3fc92059f6fd6607	0.19629978714037596
26	0x3fc608c7842840e2	0.17214292481413113
27	0x3fb2aed76d510648	0.07298036974773325
28	0x3fb14300605773c6	0.06742861129846664
29	0x3fcb28eb0754abc1	0.21218622072168894
30	0x3fc95f91f536e352	0.1982290694557159
31	0xbfa664bb36e73e12	-0.043737268878995775
32	0x3fa53bf75d390ec3	0.04147313130354526
33	0x3fca2811bea0fc6a	0.20434781845139877
34	0x3fa640f62edbf64f	0.04346436807643938
35	0xbf907f096a16a0d4	-0.01610960683834224
36	0x3f932f4c1bea377b	0.01873511238459667
37	0xbf9b098f239892e8	-0.026403652713400755
38	0x3f5bba9ec14b1878	0.001692442926626762
39	0x3fb35bd60911d981	0.07562005731037937
40	0x3fb3f5e56620e961	0.07797082656262468
41	0x3fc344efc0fd5f80	0.1505412762005527
42	0x3fabf2280b0231a2	0.05458188185102421
43	0x3fb78ce35afcdd2b	0.09199353190785035
44	0xbfccef033e5a8c52	-0.22604408783544955
45	0xbfb792169c9d14cf	-0.09207288096975506
46	0xbfc679e2b66b1684	-0.17559465319770962
47	0xbfa21a48e55a179a	-0.0353567867251023
48	0x3f89ac2201390d7d	0.012535348570174016
49	0xbfdaea7966e42b6d	-0.4205611710355502
50	0xbfd50740ee177170	-0.3285677266228708
51	0x3fc01a07db80edf3	0.12579439371062015
52	0x3fd28f4e86503fe2	0.28999674908209105
53	0x3fd9024b465fb5f3	0.3907650172467065
54	0x3fb5631ee7d4dfc7	0.08354371223401734
55	0xbf9bbbc5c1228d63	-0.0270834826593619
56	0x3fcecd4d96bec5a0	0.2406403528271257
57	0xbf95fbf76c1a5662	-0.021468988392902573
58	0x3fbf202be256874c	0.12158464694814802
59	0x3fbc47ef116fb9d8	0.11047262359327392
60	0xbfc20fd59d6de5f7	-0.14110822855927527
61	0xbfaa6b0040f66a01	-0.051597602777480496
62	0xbfa6be60aee609c3	-0.04442121634476195
63	0x3fb8a216a0b96d57	0.09622327255185802
64	0xbfb9ee46b802d850	-0.1012920569654352
65	0xbfabc1f49149c173	-0.054214136824955704
66	0xbfafee80d7dec3f7	-0.06236651072629933
67	0x3f9d09575020b59e	0.02835594584046463
68	0xbfb24fe3f3bc35d2	-0.07153153133932413
69	0x3fbd5698a3ce3603	0.11460260390432357
70	0xbfc18dc228e7f451	-0.13713862416617187
71	0xbf80e5c6c2a9a2b6	-0.008250763717300696
72	0x3fa2ed5edeea8ff8	0.03696724387307876
73	0x3fbeb1d459175ee7	0.11990096259193771
74	0x3fa1001103934cdd	0.033203632055710953
75	0xbfb284f43e50f423	-0.07234121819870203
76	0xbfb81df31e3ac9ff	-0.09420699584988056
77	0xbfc604c74008d5cb	-0.172020822779514
78	0xbfaf106b9b0bd658	-0.06067215221075334
79	0x3fb6fe9186f807b0	0.08982190652025568
80	0x3f99ade107bacabe	0.025077358338146942
81	0xbfc3396d9550f7d1	-0.15019006529649784
82	0xbf978acac82f8ade	-0.02299038740955949
83	0x3fc036cc9400120d	0.12667233683181714
84	0x3fae1781e71b998d	0.058773097478297044
85	0x3fce20858ef0a000	0.23536748389710738
86	0x3fcaac053b6a4fea	0.2083746471513444
87	0x3faf7ce001049e1e	0.06149959576060503
88	0x3fc4fe61f1f377c2	0.16401314081207202
89	0x3fb296a47bc8bce5	0.07261112234185736
90	0x3fa5f85449a4991f	0.04291022681199962
91	0x3fcd9239c663262a	0.2310249537170404
92	0xbfc77988b42385e3	-0.18339642330015157
93	0xbfcdc5b896417c24	-0.23259646736821182
94	0xbfbfe0d184ce1d7b	-0.12452420704186366
95	0xbfcaf3a87e3fcd9f	-0.2105608574343991
96	0x3fcd1e7898453c36	0.22749240336494986
97	0x3fbc560c1744b135	0.11068797653269231
98	0xbfbe4ac29d2a92ed	-0.11832825028484324
99	0xbfafca60fcb893bb	-0.062090903138858754
100	0x3fb9788afd6be9cc	0.0994955891327784
101	0x3fa3e156ad601705	0.038828571952803904
102	0x3fd20efd1ce43fd3	0.28216483899541095
103	0x3fbe6d08104a5873	0.11885118863787784
104	0x3faa5e29013d519d	0.05149963512545528
105	0xbfb18a100d5e36a9	-0.06851291967742647
106	0x3fa5fe13ff044f35	0.04295408714292962
107	0x3f91bdecf9efed27	0.017326071505505383
108	0x3f6ea70fa1b514d6	0.003741770296672979
109	0x3f35f395207f255b	0.00033495322031436785
110	0xbf819f925ac861fb	-0.008605140109509959
111	0x3fc332717536da58	0.1499769041381167
112	0x3fc584bab8d52938	0.16811307930977093
113	0x3fada544ffaded70	0.057901531420578745
114	0x3fc3a929629943ec	0.15359990419759073
115	0x3f9d3d77dfdfda3b	0.028554795302591734
116	0x3f944bdd4317d3b0	0.019820649356876607
117	0x3fc721fc60b012d5	0.18072466584285132
118	0xbfbbd01f2307b22a	-0.10864443402506
119	0x3fc48d327124ad0a	0.16055899166654114
120	0x3fb22f24d82385b6	0.0710318591768758
121	0x3f6f2d3e8ffddeb5	0.0038057538912957497
122	0x3faab65573bb67ee	0.052172346475074835
123	0x3fb61aea4254f0ce	0.08634819144657799
124	0xbfb09b9dd1a82ee8	-0.06487451904848351
125	0xbfc0194b32f8b3fb	-0.12577190388529388
126	0x3f8466145215657a	0.0099603259611054
127	0xbfb4d36b7747c825	-0.08135100996131024
128	0xbfd55b5b800ea7ae	-0.33370101457205237
129	0x3fb50e7668146f68	0.08225193062793112
130	0x3fc9c59bd8ecabc9	0.20134304134384554
131	0xbfc176494b1d0ef8	-0.1364223114743408
132	0xbfc6cf0d80167ea6	-0.1781937480382016
133	0x3fc69ff7a1578bfa	0.17675681474710797
134	0x3fc3444c43937fd4	0.15052178668611182
135	0x3fa3aba6e93d2a81	0.038418975802945184
136	0x3fd26eec3d5189f7	0.2880201910794819
137	0xbfb4f162ebc5a972	-0.0818082643142242
138	0x3fcb245a20deb318	0.21204687695480895
139	0x3fb3debd9a8cec18	0.0776175024338247
140	0x3fbfa6a7a6482e51	0.1236367016755875
141	0x3fb9b11ab88aa120	0.10035864835174779
142	0xbfabf9a2ca2200f2	-0.054638945745866155
143	0xbfb98f9d75fae474	-0.09984764223453785
144	0xbfcc18c6de61739d	-0.2195061288684003
145	0x3f50f9fbe5164cad	0.0010361633215765595
146	0xbfaea8678a637549	-0.05987857403099867
147	0x3fbbd9be6f849fb8	0.108791258073892
148	0xbf99befe1b192eca	-0.02514264145274473
149	0xbf92996cc63fd18c	-0.018163394546677078
150	0xbfa76152280145af	-0.045664374717158444
151	0xbf97e3bb50490faa	-0.02332966496966519
152	0x3fb6071b08ed2111	0.0860459229271593
153	0x3f90431be1460a6c	0.015881000160798228
154	0xbfc1a4dbca41ca97	-0.13784358383016546
155	0x3fc2a55387f0c96e	0.1456703580639202
156	0xbfb9312fe95c89aa	-0.09840678641606951
157	0xbf862fa3d58fb751	-0.010833053545834
158	0xbfbf93530f8f5aa8	-0.12334174280054333
159	0x3fc55bd2b5d60da7	0.1668647182342344
160	0x3fbc47e5cd0e76d9	0.11047207123052817
161	0xbfbcdca6cc28acd9	-0.11274187549922789
162	0x3fb4e319d72afcf1	0.08159028533099268
163	0xbfbf417d40122dd6	-0.12209303678735436
164	0x3fc16b3b9dc48547	0.13608498767374952
165	0xbf98377994119748	-0.023649120008847363
166	0xbfbe5e8b115e7528	-0.11863011526152845
167	0x3fc0df2f31f3b2c4	0.1318110460191716
168	0xbfc65423632866b9	-0.17444269506159119
169	0x3f6ad285bb794af4	0.003274213024078926
170	0x3f79d510f116b2a8	0.0063067113673411015
171	0x3fb4fce6da1a152c	0.08198397469285074
172	0x3fc5ea796ffd9dff	0.17121808975501548
173	0x3fc5c4bc952aeccb	0.17006642612054743
174	0xbfc43c513b5aa8e1	-0.15809073827887857
175	0xbfc583548dd5e048	-0.16807038236197713
176	0x3fc9337b62c62293	0.19688360522220147
177	0xbfcc6fd53f28059a	-0.2221628721600098
178	0xbfbe87390dd70d5d	-0.1192508372105769
179	0xbfa3069f23fa845d	-0.03715989412490537
180	0x3fa6e77861b70499	0.04473472779091842
181	0x3f9d8e27d83fe7dd	0.028862593244390545
182	0xbfb1ca7ae942f4ee	-0.06949585146772438
183	0xbfb30e2f3400dc07	-0.07443518657315461
184	0xbfc21bb0d7b5b4d8	-0.14147005589203476
185	0xbfc822ece2347cca	-0.18856583638350904
186	0xbfc23340228a7f55	-0.1421890419633153
187	0x3fb23db6ff179610	0.07125419357142726
188	0xbfa3906e5a31dd3e	-0.038211296568017236
189	0xbf960f5dc6a63e59	-0.02154299282989167
190	0x3fce5503be680beb	0.23696944043339782
191	0x3fc01ed262217e1e	0.1259406069902846
192	0x3f887e63b58d5805	0.011959818819075716
193	0x3fcead69f10acb4b	0.23966717023503245
194	0x3fbb57b11dfebbd4	0.10680682165433036
195	0xbfae535f5315e169	-0.059229830639142396
196	0x3fb4d8819f55e283	0.08142862453486015
197	0x3fc3719704b4e18a	0.15190398912251296
198	0x3f90c7dc7405ca62	0.016387409764727308
199	0x3fc7d49f61cbd467	0.1861762263794475
200	0x3fcce1f7ee0a81af	0.22564601061914177
201	0x3fce9a95378adfa3	0.23909249507937344
202	0x3fa37a0a03ed4960	0.038040459613187805
203	0x3fd0240e0ddd541c	0.2522006163974895
204	0x3fa1de14b501894c	0.03489746770425714
205	0xbfd0736166d5259c	-0.2570422653412494
206	0x3fa5fbe1ee32c2b6	0.04293733627981082
207	0x3fc4fbde1325bb71	0.1639363854878542
208	0x3fc73d091243c53a	0.1815501536544078
209	0x3fb5904340536210	0.0842325241131976
210	0x3fd05c55f166e42f	0.25563572477728064
211	0x3fadba0eacd81e88	0.058060129737040944
212	0xbfc53635cd90b9fa	-0.165716863034916
213	0x3fbba544d27ed7a2	0.10799055232095481
214	0x3fc4bd44fffdf3ba	0.16202604770287882
215	0x3fe1f9a017f858e3	0.5617218464056147
216	0x3fc19e64550568d3	0.13764623786375427
217	0xbfc5fe119494ac7d	-0.17181606058997892
218	0x3fbaaa9b5390e72f	0.10416575231729717
219	0xbfd00db1a4136914	-0.25083580992726806
220	0xbfe5158823e01956	-0.6588783932391304
221	0xbfa17ddbd85a2aeb	-0.03416335121172217
222	0xbfc8ee6272a648a3	-0.19477491949198109
223	0x3fbae83078ba584b	0.10510542819460615
224	0xbf175af176a39809	-8.90931966384957e-05
225	0x3fb7ca72a26b6d46	0.09293285813639782
226	0x3fd2669485919894	0.28751099628278465
227	0x3f977c7e6d52b1a2	0.022935843870685375
228	0xbf84ca5aac358723	-0.010151584988026102
229	0xbfc34db1cb3cdfde	-0.15080854819984685
230	0xbfa535376a85d75b	-0.04142163443877563
231	0xbfc95e81549e716a	-0.19819656974585637
232	0xbfc6ec3d299e8ff1	-0.17908443958469847
233	0xbfd26d4ab8d575c8	-0.2879206471460205
234	0xbfba3613d3e52895	-0.10238765643331
235	0xbfc12a927fdd6cfa	-0.13411170237927889
236	0xbfd3ba1c3fea3a59	-0.30823427430815326
237	0xbfc3d96d1e38317a	-0.1550728223377396
238	0xbfd28613114f382e	-0.2894332570111854
239	0xbfd24135ee55b64d	-0.285230143307534
240	0xbfd10133cd16ebaf	-0.2656983855082968
241	0xbfcf897e3cabd809	-0.24638345682586785
242	0xbfd24acac2773349	-0.2858149432257063
243	0xbfbabf3e0017d015	-0.10448062422057121
244	0xbfbe4b59ae6e317b	-0.11833725460582471
245	0xbfc31010f4ffa44a	-0.14892780268499656
246	0xbfd5b025fc0a8e10	-0.3388762437191142
247	0xbfa457dbc17871d6	-0.03973280655575066
248	0x3fc34557dae066ce	0.15055368602116065
249	0x3fd6676bd0e2f0c5	0.35006232642241414
250	0x3fc63fbba9490a10	0.17381997838863628
251	0x3fe21d65bc5ae2b4	0.566088550454046
252	0x3fa73c634614617c	0.045382597260132024
253	0xbfb3f039e910a30c	-0.07788431110442334
254	0x3fc99f5e0580ab71	0.20017600315744802
255	0xbfb78d69a40b9199	-0.09200153594026118

_model.layers.0.conv._module_list.0.ws.bias f8 [8]
0	0x3fb01c1a47570889	0.06292881242464622
1	0xbfb13bab35e3a118	-0.06731672349599582
2	0x3fc097b667716e35	0.1296298985570147
3	0x3fc6b4b6aba3c086	0.1773899400791416
4	0x3fbc2b7355c08f5e	0.1100380024295737
5	0xbfcbb2d2bb4d317f	-0.21639475007613027
6	0xbfc146d610bfb341	-0.13497424905599512
7	0xbfb11aecefc794db	-0.06681710103983411

_model.layers.0.conv._module_list.0.wv.weight f8 [8, 17]
0	0x3fb7cc7112ea02d1	0.09296328269739297
1	0xbfc192287fc830df	-0.13727289428096065
2	0xbfcce13158e1ed4e	-0.22562233772246504
3	0xbfd070a3920b59d5	-0.2568749357427838
4	0x3fb5049f9b350d70	0.08210179843177001
5	0x3fbbd819d0bcd594	0.10876618715413705
6	0x3fc9e1b9e3900123	0.20220111476374666
7	0xbfbd058e2d5f3afb	-0.11336601836886111
8	0x3fbcfdd0a6f22d3b	0.11324791026907104
9	0x3f90d9ec302fffc7	0.016456308785563836
10	0xbfc2647b22fa151e	-0.1436914368424959
11	0x3fa48fe8357effbe	0.04016042378452721
12	0x3fd15a56e3050a8a	0.27113887948886684
13	0x3fc1e5606a4eec35	0.13981251898607785
14	0x3fd3b3aa26ff3435	0.3078408604458816
15	0xbfc25e66eeae55ca	-0.14350592283578428
16	0xbfc1b393859fa888	-0.13829273247330698
17	0xbfbf860f63aad2d3	-0.12313934500964345
18	0xbf2199f6e8d2de42	-0.00013428820640169937
19	0xbfcc3b1b94322c4a	-0.22055382476932756
20	0xbfc3da10a81573ce	-0.1550923176500007
21	0xbf3798a9cc8bf9e0	-0.00036005158885635095
22	0xbf22ba14005d0e26	-0.00014287466199834723
23	0xbfc05f35735485cb	-0.127905541719015
24	0x3fb7cafbac62e99e	0.09294102629329479
25	0xbfb8400421436b34	-0.09472680866330735
26	0x3fc12d24329a8c56	0.1341901061142347
27	0xbfca174d250a7212	-0.20383610066063845
28	0xbfc3da4175329f6c	-0.15509813520952365
29	0x3fa96a9b992e5a77	0.04964147801290591
30	0x3fca92f4143cd307	0.20760966289676494
31	0xbf72fca664e98e91	-0.004635477044391615
32	0xbfb30ee596a603c0	-0.07444605758611456
33	0xbfca7908b066d68c	-0.20681866277088934
34	0xbfa4069604905b0e	-0.039112747246852306
35	0xbf993242a41baeda	-0.024605790392270822
36	0xbfc1ae7b2a811fd1	-0.13813724112901452
37	0xbfb2280c3d2c3c76	-0.07092358106113913
38	0x3fb0012a74f19e94	0.06251778941224934
39	0xbfbdb05b46fc94da	-0.11597223742554111
40	0x3fcc0a306b4e7928	0.21906094779564822
41	0x3fbaf4ad191ad374	0.10529596197996033
42	0x3fbf365a85dbcafc	0.12192312019378088
43	0x3f93529af33fd43f	0.01886980161357976
44	0x3fcdfcbea757bcd1	0.23427565737754333
45	0xbfab120214b986ea	-0.05287176611888163
46	0x3fba86605208f111	0.10361291888051861
47	0x3fbb653ea432a7ee	0.10701362141358547
48	0xbf8e3c2c406c0ca3	-0.014763208118443954
49	0xbf933a46fc998512	-0.018776997725926732
50	0x3fa5d2e9e49cddc4	0.04262476840670673
51	0x3fcc9d06679d24f9	0.22354202327031894
52	0xbfaee17d81ec28a4	-0.060314104184798795
53	0x3fc4fbbbdd676086	0.16393230734570724
54	0x3fa40002a65cea8c	0.039062578971841594
55	0xbfc26f22db02c3f3	-0.14401660627257193
56	0x3f87630a3e5883ab	0.011419372584954809
57	0xbfc4878095a25b07	-0.16038520151479238
58	0x3fc867be42609643	0.19066599122122527
59	0x3fc99ce199daa164	0.20010013592151232
60	0x3fcb4fa9bea7f166	0.21336862382294014
61	0x3fc6b61f02636a44	0.17743289581888366
62	0x3fb6f3fe14d14af6	0.08966053016892403
63	0xbfc961820c818ab0	-0.19828820810933712
64	0xbfc5974b87d5dd89	-0.16867965824688394
65	0x3fb77a032fb91b50	0.09170551219095313
66	0xbfc658346f7b8d9c	-0.17456679767120142
67	0xbfb57c488a209ffd	-0.08392766353847488
68	0xbfbc64f4f65e4af6	-0.11091547980167235
69	0xbfc8af7785de9dd4	-0.19285482441521984
70	0xbfc80527bddb7207	-0.18765732546206967
71	0x3f794ae173b6fe5c	0.006174927398603449
72	0xbfca05ad9703c6a2	-0.20329828141944
73	0xbfc712046be05de4	-0.1802373434772867
74	0xbfc55c47b5b9ca48	-0.16687866566970144
75	0xbfc49793db124939	-0.16087578007552297
76	0xbfb45685e0bd9cc2	-0.07944523560364572
77	0x3fc34045a27a5df4	0.15039892610069183
78	0xbfa2ba7eff7ac7d7	-0.03657910221717458
79	0x3fac8d2637df5232	0.05576438362155435
80	0xbfc4173c717d8512	-0.1569591097022927
81	0xbfb44b47a8b95d51	-0.07927368039360273
82	0xbfc5774b0023f7bb	-0.16770303255901617
83	0x3f7199154cfbc1f8	0.004296382146762749
84	0x3fc37c75b7419ec9	0.15223571250975557
85	0xbfd35814515617d0	-0.30225093787191515
86	0xbfb42122897510b8	-0.07863059860125332
87	0x3fa98050c0513dba	0.04980709407447699
88	0x3fd29342012e391a	0.29023790469445176
89	0x3f9e7f8ec3c1886f	0.029783468912122076
90	0xbfc1362b2d309611	-0.1344655962613364
91	0xbfb57eaa045d2ca1	-0.08396399122755095
92	0x3fc51ed488e59f61	0.16500336346075087
93	0x3fd10b88ef4c7353	0.2663290345097284
94	0x3fb1db1e58c98df1	0.06974973361644012
95	0x3fba78893b3cad22	0.10340173431602698
96	0x3fc69120ed62bfdb	0.1763039740667399
97	0xbfd1e0d143ddcae8	-0.2793467676885215
98	0x3fac9975f0da5b91	0.055858312273975426
99	0xbfb5b6c7cf5120a6	-0.0848202592034136
100	0x3fc3da6fca4a6e2d	0.15510365846135823
101	0x3fbb9f6fae1f1ea8	0.10790155411734281
102	0x3fc8bc9faf129e52	0.1932563404891306
103	0xbfcbd66ab2619f67	-0.21748098096872612
104	0xbf942c380cf47030	-0.019699931898785106
105	0xbf89d18292e5b5d5	-0.012606639965009695
106	0xbfc8c800cd86d66a	-0.19360361133083198
107	0x3fbd5d6b84ffb456	0.11470672604601026
108	0x3fc69582fbc70704	0.17643773359127846
109	0xbfd0ad3074d6e1b8	-0.26057063493820065
110	0x3f974d9c7ae0736f	0.022757000922968226
111	0xbfa8cd341d243a81	-0.04844057899218957
112	0x3fb9411172d0fddc	0.09864911130079385
113	0x3fc030989602e38f	0.1264830334164597
114	0x3fc457fee7cc849a	0.1589354163961943
115	0xbfa5a51b7d656517	-0.042275294358385
116	0xbfd2413e4add6182	-0.2852321368314038
117	0x3fb6a19012d96578	0.08840275249658258
118	0x3fc6def172922548	0.17867868513375584
119	0x3fc1847ce5d04271	0.13685570927966098
120	0xbfa458446ed0aa8b	-0.03973592617724816
121	0xbfb3b7e0f168f49d	-0.0770245160465088
122	0xbfbe4e2373176833	-0.11837979850625473
123	0xbfc9af8b15d8ae3d	-0.20066965643614934
124	0x3fb85ba1cdefe766	0.09514819410096961
125	0x3f88f181c0ab8d26	0.012179387752843395
126	0x3f9a192e752de7dc	0.025486684705789617
127	0xbfc685ab4b4e8f4f	-0.17595425774663417
128	0x3fcabf26f30d668d	0.20895850055494627
129	0xbf87562b6f0a0196	-0.011394824339050296
130	0x3fb63be6e11710a6	0.08685153003085819
131	0xbfba6a516e1ccf79	-0.10318478525442555
132	0x3fc93acfb1262886	0.1971072783456444
133	0xbf805967ff20b4be	-0.007983028863316807
134	0x3fc3e8e2afc85023	0.15554460127953104
135	0xbfc6f386e3041e17	-0.17930685124177678

_model.layers.0.conv._module_list.0.wsv.weight f8 [8, 8]
0	0xbfcf7719b2fa4f65	-0.2458221553721344
1	0xbfdf4542dc1db2ab	-0.48860236640647753
2	0x3f757e743a6c7f43	0.005247549072720239
3	0xbfe83ee5cb012347	-0.7576779332094724
4	0xbfd2fee5bb2914d1	-0.29680770184888866
5	0x3fda2f1b9492cf2c	0.4091252280152158
6	0x3fd72babb05ec7d9	0.3620404455533595
7	0x3fd8177ad31d7678	0.37643309227664856
8	0xbfb4b2e3e6c78aa6	-0.08085464844001908
9	0xbfd4210a6b09c2c7	-0.31451664402906626
10	0x3fc7eb59ca351473	0.1868698346462768
11	0xbfde3ee03fac4e4b	-0.4725876447493859
12	0x3fc5b5c3f591d1c4	0.16960954180434673
13	0x3fd802d8ef252e9f	0.375173791446949
14	0xbf3105bcabdeed49	-0.0002597413657629733
15	0xbfc63d7732b47f27	-0.17375078178246747
16	0x3f92fc7eefc4cb1d	0.018541320213624524
17	0x3fbe00e29f069134	0.11720100767576441
18	0xbf907265f3d95dac	-0.016061394699446715
19	0x3fca9a8592139128	0.2078406298889004
20	0x3fc874840a825cd5	0.1910557795824618
21	0xbfb62623d21b354d	-0.08651946906612303
22	0xbfcc4818361b9e95	-0.22095015184389824
23	0x3fd26702b2b3294e	0.28753726435811167
24	0xbfd1b0b43dd1857c	-0.27641016041714983
25	0xbfc75e16a1712d36	-0.18255885012545442
26	0xbfd88d642c8d8d87	-0.3836298403823197
27	0x3fc19131be054628	0.13724347856855101
28	0xbf48960142ec6a58	-0.0007503038558270376
29	0x3fcaae424ae82073	0.20844296128803172
30	0xbfcf21e59ac70ec8	-0.2432219510793543
31	0x3fb20a0f6f5bc8f8	0.07046600788797608
32	0xbfbeea633980bfb9	-0.12076397088890091
33	0xbfaca3731cbf3ad9	-0.055934521922258625
34	0x3fcd7924099e7296	0.23025942296671492
35	0xbfe7bfba4bcafa57	-0.7421542625741705
36	0xbfcf8f5609163802	-0.24656176990214368
37	0xbfb6b3c83059b310	-0.08868075542859466
38	0x3fc750f95992a10a	0.18215863107366942
39	0xbf5748ccc1f7c9bd	-0.0014211654269017237
40	0xbfd04059dcb71fb7	-0.25392767481070727
41	0x3fd260127c946d2e	0.2871137825583955
42	0xbfe135f264434a00	-0.5378353079088924
43	0x3fe40cb58fc034ee	0.6265514190323793
44	0xbfc5a4839493208a	-0.16908306841492432
45	0xbfced623fcf6056d	-0.24091005183803862
46	0xbfad707f96cef227	-0.057498919638849615
47	0x3fa3f0ee1baef954	0.038947525863010896
48	0xbfc36abf05468be1	-0.1516951347121838
49	0x3fc9fe3e4b1596f4	0.20307139078357006
50	0x3fe288adcd0d0032	0.5791844372652177
51	0x3fb71dcf30d82e2f	0.09029860441676683
52	0xbfc1343d6f8c3bd7	-0.1344067377726492
53	0x3fc3429fb936117e	0.15047070067897644
54	0xbfbf8317b2cb9b04	-0.12309406390305005
55	0xbfc6b856297c535f	-0.17750050569216122
56	0xbfd3e819aade03e6	-0.3110412758470019
57	0x3fd32bbd77caa73d	0.2995446843948349
58	0x3fb06b811af9194b	0.0641403857090143
59	0xbfc2daf1ea6c3312	-0.1473066706315867
60	0x3fd0c1b72a965f75	0.26182345541882707
61	0x3fc779a52a64b4f6	0.1833998162268597
62	0x3f8c357e24efca80	0.013773904325693254
63	0xbfd8f02d5309ce64	-0.38965924367150806

_model.layers.0.conv._module_list.0.wsv.bias f8 [8]
0	0x3fc7d87f1135a662	0.1862944444686035
1	0x3fcf21efc07e79a5	0.2432231607353518
2	0xbfbec7efa10611c9	-0.1202382820247926
3	0x3fc7601448d58077	0.18261960560176124
4	0xbfc99f6e350ac1ca	-0.20017793264334066
5	0xbfc31781ab5f7ad6	-0.14915486209698398
6	0x3fd323d41f63984b	0.29906180444084346
7	0xbfb4049a32e8a252	-0.07819522612465704

_model.layers.0.conv._module_list.1.wh.weight f8 [8, 8]
0	0x3fd38464b7510939	0.30495565320974866
1	0x3fd191be63502f80	0.2745204896789275
2	0xbfb668050fa69387	-0.08752471572968377
3	0x3f9c8fb3bff787b8	0.02789193019078315
4	0x3fb5f92cc3d51597	0.0858333566767072
5	0xbfd3edcec2cd7db3	-0.31138962768269635
6	0xbfcf5af00a2036c3	-0.24496269697595183
7	0xbfc888cfb884cc95	-0.19167515287117412
8	0x3fce10d2ce3f46e8	0.234888411242131
9	0xbfb0a1153d64f508	-0.06495793103109204
10	0x3f94dd16113e2dd1	0.020374626924917486
11	0x3fd551017ec7c29d	0.3330692041481969
12	0x3fd41101a3a16f62	0.3135379884677062
13	0xbfc588697f89e27b	-0.1682254669901971
14	0xbfc58e78be9d1a07	-0.16841038996990695
15	0x3fb5fe12983b2ca2	0.08590809074955755
16	0xbfbc0610f3b4add7	-0.10946756315086446
17	0x3fc5ff337729af56	0.17185061758515968
18	0xbfc8426af0a1a8be	-0.18952690839370762
19	0x3fa7784c0768bc43	0.04583966818278686
20	0xbfd7ff0fc11c68ff	-0.3749427209710489
21	0x3fc807c33f4ee4b7	0.1877368983385048
22	0xbfd48d3268ee8403	-0.3211179756854678
23	0x3fb39271cba42745	0.07645331594190193
24	0x3faa65bbbf6c3285	0.05155741416647167
25	0xbfd536b9fb7ea3a1	-0.33146524009731065
26	0xbfca6830122a3cc3	-0.2063045586296309
27	0xbfd0a51519d22025	-0.26007583161890785
28	0x3fcd0ae2d0fbf5cc	0.22689471439654907
29	0xbfd57c0c58dba4c3	-0.33569630315339455
30	0xbfd0af9f489b9dac	-0.2607191285191799
31	0x3fd0111492e7c1e3	0.2510425028440563
32	0x3fc70b96a4e6f56b	0.1800411515413701
33	0xbfb0240f1c90019d	-0.06305021712615262
34	0x3fcd36cc03fe5230	0.2282347697734095
35	0x3f9371fd97ab836e	0.018989527113152098
36	0x3f54c03b3e38aba2	0.0012665346665794238
37	0xbfd1202276e3a05b	-0.26758634195585324
38	0xbfbd114890572d30	-0.11354497455538559
39	0xbfd04b56926d48d9	-0.25459827708722355
40	0xbfc6543e77d18e36	-0.1744459233333246
41	0xbfd27be836a5606b	-0.2888126882221573
42	0xbfc939ce14c85bb8	-0.1970765687444478
43	0xbfcc73b3fb0aeb73	-0.22228097684805057
44	0x3fc6d376b094fdeb	0.17832835790794319
45	0x3fa27c81557fc140	0.03610614937486156
46	0x3fc2ad8b561fbe67	0.14592115121148483
47	0x3fc9fd1f6b247ea9	0.2030371926457424
48	0x3fdce265b61f82b3	0.45131819520433253
49	0x3fcf924297afa9db	0.24665100485374478
50	0xbfd78c8e46a658d9	-0.36795384311097973
51	0xbfbeb9c9247c0ff2	-0.12002236500489952
52	0xbfc5218f9d96e3ab	-0.16508670038981896
53	0x3fc55637eb3d3052	0.1666936777713795
54	0x3fce3764183aceab	0.23606539900867082
55	0x3fc4a2f65a70955f	0.1612232152557835
56	0xbfcae860e2e8240e	-0.21021662787850953
57	0xbf6132d54b505004	-0.0020994344618063838
58	0xbf97c2f04ed82a73	-0.02320456963756574
59	0xbfcfef38e326c858	-0.2494879826677472
60	0x3fd82b5321f5dd41	0.3776443320889094
61	0xbfc64448d3c23e14	-0.17395887698920431
62	0xbfc907ac48a6b288	-0.1955466608755112
63	0xbfa351e2fea49543	-0.03773412092622632

_model.layers.0.conv._module_list.1.ws.weight f8 [8, 16]
0	0xbfb9eec8247d29d1	-0.10129977122156865
1	0xbfc308d8a3c1477a	-0.14870746608590563
2	0x3fd416b511f0428a	0.31388594390686164
3	0xbfae65ede5f27786	-0.05937140876743201
4	0xbfb9da34739b4ceb	-0.10098579237392229
5	0xbf9effc731f90979	-0.030272591042611794
6	0xbfb414c2f68f48af	-0.07844179648899073
7	0x3fa8e8c115fe4824	0.04865077393982656
8	0x3fcc6d44139c07b3	0.22208453137869597
9	0x3f992fb009ca9d83	0.02459597644579282
10	0xbfb120d39a59f0b4	-0.06690714376776691
11	0x3fb3492caef6e65e	0.07533530494301874
12	0x3f88837690e990be	0.011969496056913772
13	0x3fc402941c5a745f	0.15632869133415547
14	0xbfc29a555ec0fef6	-0.1453348839440804
15	0xbfc5a16635c636ed	-0.16898801446625758
16	0x3fd2c3e6eda74ad3	0.2932069130739993
17	0xbfcb3a61879b1251	-0.21271914597868372
18	0x3fcce2c22728d82b	0.2256701174935086
19	0x3fb442545da07bb0	0.07913710866749457
20	0xbfb6716c8e1eda8d	-0.08766821355571093
21	0xbfcc6bf035700b56	-0.22204401597272277
22	0x3fa6ecaae13a84bd	0.044774379724239456
23	0xbfd102c053ad915e	-0.2657929246108973
24	0xbfb4dbef5189de03	-0.08148093929946047
25	0xbfc58095423724ed	-0.16798654301809482
26	0x3fb20080411df809	0.07032014455577963
27	0xbfb8d159257a1c97	-0.09694440045324125
28	0xbfdd662ca0c53b84	-0.45936122608412
29	0xbfce48a1c8d817c5	-0.23659155184594574
30	0x3fa45d3592ee49c4	0.03977363031949069
31	0x3fcda6458417feca	0.23163670492066607
32	0xbfd0f0fc413ee8da	-0.26470857974676465
33	0xbfb31541cfb5f5b5	-0.0745431072336576
34	0xbf995caf152a4dad	-0.024767623583625987
35	0xbf8f30ff93aa9162	-0.015230175680081618
36	0xbfb2877a9a7d77c8	-0.0723797442601316
37	0xbfd5beca589f02e2	-0.3397699227753447
38	0xbf6896108311623d	-0.0030012438296973796
39	0x3fbe44fe85b976f5	0.1182402683711777
40	0xbfc3a9d5f91c7da5	-0.15362047828328432
41	0xbfc729c7357c6367	-0.18096246825805481
42	0xbfc149e4dfd0cb9f	-0.13506756714340626
43	0xbf9dcc072b723d94	-0.029098617579220568
44	0xbfced119fc770f9f	-0.2407562716235789
45	0xbf864f8bea06d64d	-0.010893910483768776
46	0xbfc6edda3fb6f81e	-0.17913368331022722
47	0x3fd3541ccae23a1b	0.30200881779538385
48	0xbfc07a48e568f1c2	-0.12873183442742514
49	0xbfbac0860dd3e8c4	-0.1045001777419286
50	0x3faaa735d8f403b3	0.05205696366647974
51	0x3f9548e2fe4093c9	0.020785853164983856
52	0xbfc7e4cdd75a5bdd	-0.18667004599839646
53	0x3fdde040bf5140c7	0.4668123119672711
54	0x3fd961a8874db803	0.39658559048882597
55	0x3fcfcf5c2e41fd81	0.24851562746696845
56	0xbfc937a4c7c36c03	-0.1970106101424279
57	0x3faf9767b2a549c0	0.06170200401051629
58	0xbfd1dccaa5746122	-0.2791010490195892
59	0x3fb4d19c6a6bd628	0.08132341001677246
60	0xbfc2647d9aed02e3	-0.1436917311166531
61	0xbfd13ae333e26279	-0.26921920840098995
62	0xbfbbb179a4601669	-0.10817680609769699
63	0xbf98f5d1fc050e20	-0.024375229842247603
64	0x3fc8725e265a2497	0.19099022743856572
65	0xbfba206d796786b9	-0.10205730642294499
66	0xbfc569a24102b0ae	-0.16728618788090927
67	0x3fb7fba6c4655780	0.0936836461526962
68	0x3fad2788c1549444	0.05694224700918274
69	0xbfdba6e9d88ad458	-0.43206258913716544
70	0xbfc24f65d8d5d3c6	-0.14304802978190717
71	0xbfd0244e2c635df3	-0.2522159036138582
72	0xbfbc2a6728a0eb33	-0.11002201787861736
73	0x3fcee989dae39b3b	0.24150202930396766
74	0x3fbf262f74d06165	0.12167641260055502
75	0xbfcda00698660719	-0.23144609872184033
76	0xbfdb092f37411528	-0.42243557353897865
77	0x3fbd2094104a8d88	0.11377835653052248
78	0xbf94ca9a70ff689e	-0.02030412020381133
79	0xbfb7a748db55351e	-0.09239631037526805
80	0x3fb0f56ab68b4ff6	0.06624476391453968
81	0x3f860e3a8a0470d3	0.010769326531367451
82	0xbfaa4eb4c30dfff6	-0.051381729898821435
83	0x3fc2728e90f9ba31	0.14412099913484291
84	0xbfcd0b0b45dec78e	-0.22689953719742245
85	0x3fdd76febf6d3833	0.4603878850365419
86	0x3fc1c59cd7d40b45	0.13884316004267752
87	0x3fd086a900baba47	0.2582190043566794
88	0x3fd151a4fa9d2134	0.2706081817055008
89	0xbfa60445240cdb72	-0.04300132813516812
90	0xbfb30d20a57bd4d7	-0.07441906013612552
91	0x3fcfcd6ca7cb9a06	0.24845655625468072
92	0xbfaf799fc4d7a2bb	-0.06147479322300372
93	0x3fc57eaadb02c482	0.1679280824078298
94	0xbfb0e303be95903a	-0.06596396830497123
95	0x3faa49cd9238c2f3	0.051344322299319865
96	0xbfbe96b4a53442f0	-0.11948708566002231
97	0x3fba97323b5574fb	0.10386957119540689
98	0x3fcc617ade120fd3	0.22172485202111022
99	0xbfbced7efb98e4ae	-0.11299890177260138
100	0xbfa87df89b8377e1	-0.04783608339651813
101	0xbfd02b4aee617492	-0.2526423767029168
102	0xbfc4fb3a0a0910e7	-0.16391683092127282
103	0xbfb58d1d7a21ebd1	-0.08418449622870063
104	0xbfb4f52d424ae8eb	-0.08186610096427997
105	0x3fc23a0498a421e7	0.14239556744747903
106	0xbfc2651d8ddc570e	-0.1437107985190597
107	0xbfbf39857ef50479	-0.12197145795382082
108	0x3f9ec8921734e73a	0.030061991373464304
109	0xbfc1a594a64e737f	-0.13786562080795403
110	0x3fc820811a726f8a	0.18849195281370285
111	0xbfcc74f4e2d82af4	-0.22231923176180823
112	0xbfd3ac33ba01a6d3	-0.30738537945454175
113	0x3fb04ea21237737c	0.06369984574071269
114	0x3fc9275e4a57422e	0.19651392583775035
115	0xbfc1a390a4bf4100	-0.13780410808841026
116	0x3fbd522c67ebdc24	0.11453511750356477
117	0xbfcb9046b78cd12a	-0.21534046137242885
118	0xbfbb791bf13c170c	-0.10731672896880812
119	0x3fc1b5ea4ab58447	0.1383641114034921
120	0xbfd196aac190f060	-0.27482098486848905
121	0xbfbf36810be798ba	-0.12192541638032398
122	0xbfbf6057955d4d43	-0.12256381413071886
123	0xbfb580ec286e19b4	-0.08399845110952847
124	0x3fbd755790b42553	0.1150717476158623
125	0x3fa1fc0fc5755bf0	0.03512620244389797
126	0x3fcb8f46cabcc325	0.21530995272908018
127	0xbfa35e231f5a373d	-0.03782758481712143

_model.layers.0.conv._module_list.1.ws.bias f8 [8]
0	0x3fcb60dc81022bd7	0.21389347361795671
1	0xbfc1b82fd4c4fe9f	-0.1384334362901329
2	0x3fcd4a1f9fca3fb7	0.22882457067725934
3	0x3f9a8b6bb6563480	0.02592247295756467
4	0x3fbd1ec21fb84b6d	0.11375058435832637
5	0xbfc0d14bbc6b1cf4	-0.1313872022640009
6	0xbfb8940f85ed0cc4	-0.09600922603299283
7	0xbf85c0a2cdbd97ed	-0.010621330169396226

_model.layers.0.conv._module_list.1.wv.weight f8 [8, 8]
0	0x3fd0a037c35ad10e	0.2597789199601416
1	0x3fb19b105ba3e028	0.06877233731563648
2	0x3fc86530b9f57d95	0.1905880840304063
3	0xbfba920c290a2117	-0.1037910080141312
4	0xbfd4dcceff7ba1d1	-0.3259770865393224
5	0x3f9f320c2af1cc3b	0.030464353676915783
6	0x3fcb6e45802afa99	0.21430271871755194
7	0xbfd69df36741ed8f	-0.3533905514120414
8	0xbfb1384e765d4e57	-0.06726541890866976
9	0xbfc6d8e781fafb5f	-0.17849439474772574
10	0x3fb781c201efa277	0.091823697540926
11	0x3f72aa5e3e638fb1	0.0045570069689552664
12	0x3fa141cf7bfe638e	0.03370521916003276
13	0xbfc7b364b0351157	-0.1851621494662463
14	0x3fa8fe11a6ff0317	0.04881339229132758
15	0x3fd9147ce45cd636	0.3918754797080938
16	0xbfc794834fc72cce	-0.1842197551289701
17	0x3fd70b3f2bbaeb42	0.3600614478161114
18	0xbfb81ed0e88db632	-0.09422021558358365
19	0x3fcbfb62f1790631	0.21860920706426293
20	0x3fd60e6071a17009	0.3446274861978514
21	0x3f8f2594b8c44452	0.015208398712760172
22	0xbfd253ba471105c3	-0.2863603300102932
23	0x3fbd31903b1fcc0a	0.11403752749883736
24	0x3fcfb69f94f2e999	0.24776072285551434
25	0xbfb7797799ebc4fd	-0.09169719226681035
26	0xbfc433836d26767c	-0.15782206372834995
27	0x3fa9acf73976f994	0.05014774872278163
28	0xbfd0a924dcf912f9	-0.2603237302721904
29	0x3fda3d3a399c9754	0.40998702646389984
30	0x3fc6cb4fa29eb6f8	0.17807956161907845
31	0x3fd38e27f8e27634	0.30555152230394644
32	0x3fc5d4dc93f48dc2	0.17055852150325107
33	0xbfbf952557ba5075	-0.12336953536788704
34	0xbf9d4fac57134876	-0.028624241652160674
35	0x3fd100bb0bbcfcae	0.2656695952063711
36	0xbfb65eb02c427df1	-0.08738232689437787
37	0x3fc319cc9fd01a4a	0.14922483256687463
38	0xbfd829d854d9bad5	-0.37755401884252865
39	0xbfc22445654603e4	-0.14173190541262592
40	0xbf9a8c79808e6ec9	-0.02592649314065801
41	0xbfd0d49317e3d798	-0.2629745229054321
42	0xbfb9e79d94083a38	-0.10119042266908529
43	0x3fb678ffee637867	0.08778380937607864
44	0xbfc644ef23b48893	-0.1739787029592362
45	0xbf998eca4b00e62e	-0.024958763912058916
46	0x3fa6db799c5371f0	0.04464321168208929
47	0xbfd17f775c56dff4	-0.2734049226523887
48	0xbfd148baf5e6dee6	-0.2700641061196464
49	0x3fb94b0a43fbfdae	0.0988012710549728
50	0xbfd08f46999ac771	-0.258744859699724
51	0x3f7347dbc850ca07	0.004707201505015585
52	0x3fc38c0cdd249cb0	0.15271149442671605
53	0x3fa6e8f75f4282cc	0.044746141794581
54	0x3fc35628fc564b5f	0.15106689759394507
55	0xbfcb79a1363c2a11	-0.21464934490389045
56	0x3fa24be32241296b	0.03573522370477885
57	0xbfc3c5c302bc1a7b	-0.15447270997556814
58	0xbfcf2107da9e0d66	-0.24319551634480802
59	0xbfd1d90491f0bb3b	-0.27887071849811534
60	0x3fcba43810afe850	0.21594906630326927
61	0xbfcad19a1760205e	-0.2095215429437784
62	0xbfbb0d0092d7473f	-0.10566714844688095
63	0x3fc7aabe9e883660	0.18489821186851696
