reaction/train_gnn/model.pt (torch, 51548 bytes, 52 tensors)

cutoff f8 []
00000000: 0000 0000 0000 2040
8.0

_model.cutoff f8 []
00000000: 0000 0000 0000 2040
8.0

_model._radial_embedding.bessel_fn.bessel_weights f8 [8]
00000000: 182d 4454 fb21 d93f 182d 4454 fb21 e93f
00000010: d221 337f 7cd9 f23f 182d 4454 fb21 f93f
00000020: 5e38 5529 7a6a ff3f d221 337f 7cd9 0240
00000030: 75a7 bbe9 bbfd 0540 182d 4454 fb21 0940
0.39269908169872414 0.7853981633974483 1.1780972450961724 1.5707963267948966 1.9634954084936207 2.356194490192345 2.748893571891069 3.141592653589793

_model._radial_embedding.bessel_fn.cutoff f8 []
00000000: 0000 0000 0000 2040
8.0

_model._radial_embedding.bessel_fn.prefactor f8 []
00000000: 0000 0000 0000 e03f
0.5

_model._radial_embedding.cutoff_fn.p f8 []
00000000: 0000 0000 0000 1840
6.0

_model._radial_embedding.cutoff_fn.cutoff f8 []
00000000: 0000 0000 0000 2040
8.0

_model.W_e.0.scalar_norm.weight f8 [8]
00000000: e02c 69aa 848b f03f f2cb 7b21 2a92 f13f
00000010: ad3f f7a6 675e f73f 37e4 177b e376 f33f
00000020: c5e5 f775 6d8f f23f 7ddd 0597 d863 fa3f
00000030: 26f6 d882 fac1 f53f eb3f 9f79 53b4 fb3f
1.0340620667146183 1.0981847103073474 1.460548069200722 1.2165255363781975 1.1600164993418371 1.6493764781315285 1.359858046649046 1.7315249205457757

_model.W_e.0.scalar_norm.bias f8 [8]
00000000: 4b8a 3c0e 32fd c3bf eca8 c9c2 7b79 a1bf
00000010: b949 8d39 65c2 b5bf 8224 d45b 93fe b9bf
00000020: 38b3 93fd 1364 b13f a59c 10fd 1ccc c43f
00000030: 509a aac5 e73b b43f fbf1 8687 fce3 aebf
-0.15616441435948256 -0.034129970100211654 -0.08499748854709467 -0.10154076568518813 0.06793332043498601 0.16247904164012997 0.07903908325042974 -0.060333148521269885

_model.W_e.1.wh.weight f8 [1, 1]
00000000: 5e7d 3903 a96d f3bf
-1.214272511096929

_model.W_e.1.ws.weight f8 [8, 9]
00000000: e1a7 0ce2 9d47 ba3f c829 5939 0439 ce3f
00000010: a817 a0a1 7e7c d2bf 35cf f30a 5773 d5bf
00000020: cd33 66b1 9611 c33f 1a5b 8c27 9a99 e73f
00000030: cf70 b8b0 c42d d93f 3db4 d54f 579b e3bf
00000040: bc94 9dcc 4f27 d1bf 15b4 c944 9e7d a03f
00000050: dcca 391b 8026 e03f 5b75 9b1b 7dee e13f
00000060: fd25 3d56 53cf 9abf dba4 5477 7b52 e7bf
00000070: 94d3 7d3b 4bef bfbf f0ca ee35 0949 d6bf
00000080: a6b9 0f49 4cf6 dbbf 54e9 02e5 4296 c3bf
00000090: cfef f96e d76a dd3f a942 cc80 54f6 ca3f
000000a0: 3b22 83c4 7581 d1bf d0aa 0867 b979 c3bf
000000b0: dfc9 178f 7226 c1bf 94f2 9d5f d9d7 d5bf
000000c0: ab4b 2a42 9ff3 eabf 6e7b aaca 821c d23f
000000d0: 5e75 a359 42e9 c7bf 8b4e 4587 a008 b83f
000000e0: 5522 e3c4 9ce7 b63f c8c0 85cd cf5a a93f
000000f0: 66bb c409 c788 e03f f1df 3c35 19ba ba3f
00000100: 6073 4426 b629 c23f f547 1345 4dcb a33f
00000110: 8fb7 0fe0 669b e6bf 53a7 3dce 51cb a23f
00000120: bf50 b64e ca9f cbbf 583d d760 52ce d3bf
00000130: a043 ec01 92cd dc3f 6752 fe51 3fbf e33f
00000140: a667 cc7c 0f99 d63f 7aa1 157e 8c08 dbbf
00000150: b585 fe0a b731 dabf 6ad2 28d5 6297 e63f
00000160: 8d07 21b3 9315 9e3f 2793 8963 7744 bd3f
00000170: cfd1 7615 e0e6 d53f 588c 3e38 31a0 e73f
00000180: 4d06 4817 7111 d73f 3928 fa30 5911 c8bf
00000190: ce8a 16af 90f2 e4bf 04bd e7c0 d11a e4bf
000001a0: a0eb c24c b563 e93f 7c73 11f5 6321 cc3f
000001b0: 7a62 84a4 89ff c83f 38dc fd69 4621 a0bf
000001c0: 8ca7 559d 455a e53f fcdd c1e7 5187 dd3f
000001d0: 5637 f224 2ee1 cbbf bd78 3088 70bc e8bf
000001e0: 74ec ddbf 6062 dabf 7e3d 55ae 613f cd3f
000001f0: 7c54 f3e7 1081 b53f 6a48 1726 02ad d73f
00000200: 8eb5 68f4 ef6d bdbf 9466 16e2 1398 cf3f
00000210: a091 be2c 127c c9bf d62d 8be1 54ec dabf
00000220: d732 9b8b 1f82 dbbf 3b7f 6c22 8dcc c9bf
00000230: 122b 4844 fbac e93f f9a2 b48f f11f d2bf
0.10265528458390306 0.2361150054951635 -0.2888485506413141 -0.335164795585331 0.14897426282951046 0.7375002643992474 0.39341847665651825 -0.6127125319741321
-0.26802439672458056 0.0322083910913095 0.5046997577431642 0.5603623904423033 -0.026181509150125837 -0.7288186388660977 -0.12474508478574214 -0.34820776240228124
-0.43690783629326757 -0.15302311117359102 0.45964608991175465 0.21064239777526453 -0.2735266131462912 -0.1521522286505701 -0.133985824460594 -0.34129938447566954
-0.842239026287975 0.2829901675376537 -0.18680600525741914 0.09388163855083513 0.08947162443940589 0.04952096351451157 0.5166964712897026 0.10440213727713378
0.14189793461346323 0.03866044491009283 -0.7064699531745066 0.036707455087550266 -0.21581391185157447 -0.3094678827009907 0.4500470179346454 0.6170956231531591
0.3530920714125564 -0.4223967772764109 -0.40928436349539804 0.7059797442694393 0.029379184539954962 0.11432596378433556 0.3422165116892559 0.7383047197839785
0.3604395606381317 -0.18802943126166996 -0.6546100063026985 -0.6282738464050515 0.7934214114423987 0.2197689959165493 0.1952983907038009 -0.03150386852114945
0.6672695229474228 0.46138427383945646 -0.2178094559098393 -0.7730028781841366 -0.412254512186059 0.22849675190307644 0.08400064146856495 0.3699345943433686
-0.11495876042382333 0.24682854213169902 -0.19909884629045127 -0.42067453408955424 -0.4298170913068992 -0.2015549104771653 0.8023659070616722 -0.2831996825575938

_model.W_e.1.ws.bias f8 [8]
00000000: 554d 7b45 b9ed cf3f 724f 8540 2a07 d23f
00000010: 6d2f d95e 0b32 c0bf a318 3f02 869e ba3f
00000020: 0c58 6cc5 a064 d7bf 6050 b4f7 a98d d7bf
00000030: 1e7f ee4c 7ce7 cebf 0c27 5721 cbe7 d5bf
0.2494422520891059 0.2816873197636972 -0.12652723437565375 0.10398137621732188 -0.3655168464623564 -0.3680214804637725 -0.24143937832285983 -0.3422725511160116

_model.W_e.1.wv.weight f8 [1, 1]
00000000: 859f ee77 e676 f6bf
-1.4040283856247424

_model.W_e.1.wsv.weight f8 [1, 8]
00000000: 8f5d f0e5 4946 e53f 542d f4c7 6e38 cdbf
00000010: 8296 47a4 8d62 e9bf 1172 db89 f7e7 ce3f
00000020: b95e 85ce f055 d7bf 9041 e4c2 581b efbf
00000030: a665 d442 17a5 ecbf 4a4e 8417 a526 e1bf
0.6648301592821769 -0.22828469050760225 -0.7932804306589818 0.24145406943615957 -0.364620401077882 -0.9720882231213626 -0.8951526932971106 -0.5359673938095935

_model.W_e.1.wsv.bias f8 [1]
00000000: e983 e8dd cfeb 993f
0.025313613814549916

_model.W_v.0.scalar_norm.weight f8 [2]
00000000: a636 cf56 352a f03f 1131 e4c5 6dcc f13f
1.010304774379088 1.1124093752033029

_model.W_v.0.scalar_norm.bias f8 [2]
00000000: f3f2 8631 dd25 b8bf a00c ca25 cf1e c2bf
-0.09432775935324482 -0.1415652212636802

_model.W_v.1.ws.weight f8 [8, 2]
00000000: 774e a6ba c4a0 e8bf 0083 e86c a324 a4bf
00000010: fa32 ac9a 86da ca3f d39a bff9 1af3 e73f
00000020: 5b73 d3ac 6716 e4bf eadd 809a 42d9 cb3f
00000030: 59e6 683b cc75 d43f 3558 9d64 f5c9 be3f
00000040: 8bf8 4f53 bbad bc3f 222e 55ad 6d4a ac3f
00000050: b4ef 6e38 8d92 e0bf 3dc6 fa7c 5b08 d93f
00000060: 1b87 3179 0e04 a43f 6c22 eac4 08cd d6bf
00000070: 9f24 3096 feac b23f 5e56 140e 27bc eb3f
-0.7696250577450446 -0.03934202866026304 0.20979387810111644 0.7484259488963637 -0.6277349830157662 0.21756775421248103 0.31968980600104185 0.12026914316570088
0.112025935974062 0.05525534382703891 -0.5178896047796031 0.39113509373700933 0.039093448919414985 -0.35626429777088364 0.07295218626690535 0.8667178416241759

_model.W_v.1.ws.bias f8 [8]
00000000: c653 4dc5 5333 d03f c18a 897f c004 cebf
00000010: 58ad 3075 4f89 debf 00ba 55c6 d92a d23f
00000020: 9a31 2f3c 21cf d23f f75c 04f3 76a6 a6bf
00000030: 130e 73f2 8d96 c9bf ff3b d81f 3746 bcbf
0.2531327654626775 -0.2345200178852647 -0.4771307606158266 0.28386539810790623 0.2938922012079047 -0.04423877445713658 -0.19990705812789197 -0.1104464009042516

_model.layers.0.conv._module_list.0.wh.weight f8 [17, 17]
00000000: 379c c838 d779 553b 9a08 4c2f da98 59bb
00000010: 3a24 dfa6 8d24 603b 1242 06e6 7a26 79bb
00000020: 32bb beb5 581c 4c3b 5397 f585 cfdb 61bb
00000030: 5e8a 3c0a e8dd 35bb 9cc5 1157 a01a 77bb
00000040: bd51 e8e0 3c36 d2bf 9d85 bf51 4fa9 0d3b
00000050: 7088 3b8f 0754 423b 2e4b c3ea 17c9 613b
00000060: afc2 6fdf abfa 353b 7c95 c4ea 3193 4d3b
00000070: aaf0 a14c ff70 31bb 2fe8 a4fe a115 d7ba
00000080: 2317 b5d7 e4e0 793b 756f 64f4 db4d 5fbb
00000090: 5cb4 fd15 eb32 62bb 173c 0d10 ebc8 4dbb
000000a0: 23ca 38b7 414d 543b 7bf4 699f c251 5e3b
000000b0: 835b 86c6 ed68 53bb f0c0 86a9 090d 3e3b
000000c0: 3cbb f3cd 4eee 50bb add9 5c6a 880b d13f
000000d0: 6de3 b844 8452 17bb ca18 2343 bbe7 403b
000000e0: cd35 1bad 1216 4abb f698 c87f f766 29bb
000000f0: e68d 4b1b 956e 153b 7d8d b2e2 5ae8 793b
00000100: be29 76c4 a737 323b b336 c80f f14a 5e3b
00000110: 2a30 7b5c 4aea 5cbb 7245 3797 6cc8 703b
00000120: 1605 9900 7927 69bb fab3 9e49 b0dd 76bb
00000130: d223 7288 62c4 37bb a518 6fa5 a857 62bb
00000140: b36f 39ac 6795 403b 9595 71e4 a394 72bb
00000150: eed1 c6eb 5df0 c73f 081d 8d7d 8588 73bb
00000160: 7433 5000 48ce 483b 6711 f23f c9b7 73bb
00000170: 79a4 4585 fb5f 413b c0f0 ee7b 4b07 203b
00000180: 5303 75bb 9f76 5bbb c1cc 84fd 1bfc 4c3b
00000190: e64d aad4 1571 4e3b 9b2e d427 3f06 503b
000001a0: 071a 541a afac 6d3b cc17 d092 b808 5dbb
000001b0: e8e2 b1ad 1831 79bb 2a02 7809 c270 3f3b
000001c0: a3a3 7fa4 d806 45bb cc69 929f 3a31 64bb
000001d0: 3e20 fb4b 95aa 593b d926 c4fa 7cb4 b93f
000001e0: 12e0 b63e 0c05 463b 47ab b084 88ba 4b3b
000001f0: ca8a afef 448e 793b 3e10 acf7 0fd9 22bb
00000200: ef76 d4ae a8a8 7d3b 09fb 0e89 52db 1a3b
00000210: a36c fbf5 1255 33bb f08f 0a70 68a8 3a3b
00000220: de82 c07e dd48 2e3b 306f d5a6 951b 6bbb
00000230: d3bf 5ad7 aea1 4ebb 1b8a f01c e064 7bbb
00000240: da18 8899 02f3 0b3b 1442 3f36 d0f2 443b
00000250: 19f7 6f09 63a1 1c3b 46b4 2259 581d 62bb
00000260: a876 4bb5 edbb c63f d1d1 a693 0a7d 0d3b
00000270: e734 2e73 9d3e 7d3b 163e 24db 6e0c 70bb
00000280: d0ce ede9 6a7a 043b d440 b817 1953 553b
00000290: 5a79 4e68 8110 803b 69e8 e8ca 8438 6fbb
000002a0: a13c 0ca7 30a4 f8ba 0393 2f1d ee30 663b
000002b0: b3fd e789 3b6d 6c3b 492b a65d 7174 58bb
000002c0: 046a 14b4 2d80 24bb 97c7 522d ee58 483b
000002d0: a81f 4139 64a5 6cbb dbf6 35d1 977a 443b
000002e0: 6eb6 9bcc 7f2f 363b 9a7b 7e74 d18c c1bf
000002f0: b31b bc41 d7ef 4fbb 5acf 4ed7 8047 103b
00000300: 6093 f366 7226 303b cc7c f669 fdb6 47bb
00000310: 553a 4fc7 9ff2 553b 9539 ff74 0847 6e3b
00000320: 6c41 bfb1 f501 42bb f6e1 c3c6 180f 683b
00000330: 7329 19f2 92d9 63bb bde0 e9e2 cb35 e33a
00000340: d4af ef3f d5d8 34bb 2318 13b1 0b5c 3abb
00000350: ee17 1a27 c36d 3b3b 3d53 07db 2c48 613b
00000360: cb5d 6d64 0e94 443b 663a 0b89 92c1 5c3b
00000370: 0631 bb24 d5f3 cebf 41ba c4f9 7a86 703b
00000380: e4f2 4cbf 86ae 32bb 6bc4 3056 39e9 5abb
00000390: 5599 021e 1bab 40bb 0479 499e 4d6b 3dbb
000003a0: 8820 5cae 536c 373b 0764 487e 39b3 813b
000003b0: 6cd9 caec 66e8 693b c970 38dd 6c5c 75bb
000003c0: c405 f498 3c9b 433b aee2 b061 6750 67bb
000003d0: 3d81 5b4f 88e7 393b 7896 d729 18a9 523b
000003e0: e2e4 da64 02e1 1fbb 5182 120f 7a5c 4dbb
000003f0: 784e 1cc5 1895 4f3b c44d 1d28 78aa d1bf
00000400: dbe8 717a 64e4 333b 9f7c b232 3bb3 113b
00000410: 9020 0b81 1e16 713b 8281 3a18 0dfd 503b
00000420: 5cb3 da23 5e57 7e3b 369b 8601 b045 643b
00000430: bbed d6da 432b 443b 41a0 243b 8c62 77bb
00000440: 1e59 a1f3 8236 353b c8d1 4df1 8656 3abb
00000450: 76f8 d60f 56e0 423b 047e a0a3 dbd0 413b
00000460: 5772 3c30 af3d 423b 0390 fcbf 3ea3 683b
00000470: dd0a 49c7 c18c 44bb ef4f 1431 6c3e 40bb
00000480: e5cd d1fb 8637 b1bf 032a 229f eff4 53bb
00000490: ee3f f6bb 15cb 323b 6038 1206 d690 44bb
000004a0: 4c40 7120 0895 1a3b 88f3 55fd e3d4 4d3b
000004b0: b3dc 3ab5 849b 343b 37bb 09db 4e8c 67bb
000004c0: 03e6 c40b 3f5c 333b 6ef0 a521 158c 393b
000004d0: d871 7e17 e2bb 1ebb ea3c 28f3 b0c5 28bb
000004e0: 7db5 6256 6ff4 4b3b 923b 2b35 96f7 1bbb
000004f0: 19f4 7469 5ab5 41bb 7753 075c 74b4 6d3b
00000500: fc65 c756 d8e1 4dbb 95b2 55da ee0a c73f
00000510: 9579 2134 786f 523b df09 8658 9bcc 583b
00000520: efdd 539e d71e 5abb 3c10 c9b6 facb 7e3b
00000530: 8d85 dc0c 986a 46bb bdf3 4729 bab5 5e3b
00000540: 61bf 5b9f 2d18 683b 1be7 3cff e95a 713b
00000550: 93a7 ba0c 0781 5d3b 353e 655c 7b22 38bb
00000560: 7293 8b71 aeea 5cbb 3c04 9852 7ebf 5ebb
00000570: 3f9c c329 ecea 243b 755e 78ab e758 3fbb
00000580: 2097 fba2 c718 043b c2a9 f6a7 8d48 d03a
00000590: 1690 c94c e3d3 cd3f 2fb6 b569 d34b 203b
000005a0: 0e59 70e6 886c 0bbb ea1e b57c 75ea 763b
000005b0: bec9 5f78 da3c 4fbb 0105 57e8 6379 503b
000005c0: a984 242e 15eb 723b 28e9 c615 0372 3c3b
000005d0: 48b2 4edd 3b98 5dbb 581a 4335 931b 5b3b
000005e0: e684 b57b f8d0 f9ba cf3d 3853 9d4c 7a3b
000005f0: c81c 1044 7dda 493b 272c 363b 0752 5cbb
00000600: ddf1 58ff e87f 52bb 6011 6d2c 299e 7f3b
00000610: c9c5 2a79 f0e3 233b 05df b2c9 c921 9f3f
00000620: 676c 233f 176b 63bb dda6 9efe b14b 72bb
00000630: 4a1d a829 2e7e 753b d1cf b4f6 6e62 1b3b
00000640: 0c87 65cb 69ae 53bb 9a6b 7f55 bac4 55bb
00000650: 97a8 6031 1671 11bb 5697 a639 0a17 32bb
00000660: e8cc 74f0 77db 543b 3595 4297 78d6 31bb
00000670: 94c9 ab36 cb73 583b 1e39 80ef 5cdb 263b
00000680: 5c5f c1be 2db0 30bb e53a 1b42 2042 1dbb
00000690: 3c76 454d 324e 68bb d447 8e46 df83 203b
000006a0: 935f d5b9 37d2 873f 54cc a838 e310 4e3b
000006b0: b97b 5a52 e4aa 5cbb 3a40 2544 4e76 50bb
000006c0: e239 ec96 c59e 38bb 209d a9cc ae68 64bb
000006d0: 765a f167 bc6d 303b 4e59 a8cd 3a21 783b
000006e0: ac58 db48 94f5 53bb b62e 58a8 ee5b 33bb
000006f0: 9a98 1ae2 9795 3abb 01a7 fc04 8620 50bb
00000700: 1ee9 ea1f d59f 3abb 1d5b 1f79 5841 5abb
00000710: 25cc 86e8 7e9b 413b 6408 fee7 1b8d 4a3b
00000720: c919 86e8 d110 12bb e234 7f51 fa7e ba3f
00000730: 951b 9525 ff89 51bb 3a42 51f7 d8fa 123b
00000740: 063d 84cc 62a6 403b 00ee d1df 83bc 28bb
00000750: ef53 c5d0 84cd 7dbb 13e3 3277 2285 16bb
00000760: e109 0a2b fad1 753b 2f86 92ab 5e86 66bb
00000770: f65c 4317 b666 7c3b 8ca4 9cb4 d039 433b
00000780: 3c30 75fe 8769 65bb ceeb 216f 639c 7dbb
00000790: c7cc 1efa 204c 62bb eacc 4dc2 962d 503b
000007a0: b019 7e6a d303 4dbb bf7b a42c ffca 50bb
000007b0: 68ac 3033 94e4 dbbf 9bbe a925 64e5 52bb
000007c0: 214d 6d61 7246 2bbb 4fd4 c743 911e f1ba
000007d0: 8644 d6f3 23ae 3ebb bf37 dd75 3350 7e3b
000007e0: 7146 0b61 7c7f 263b 227b bf33 5648 55bb
000007f0: e192 81d6 3d6b 533b 9efa 6a8a 0de1 253b
7.10579257247154e-23 -8.469363072515564e-23 1.068239997767862e-22 -3.328616181371088e-22 4.6505299415719606e-23 -1.181785351205595e-22 -1.8087811133172046e-23 -3.057790143432534e-22
-0.28456041301367546 3.0669134207464782e-24 3.032153015755963e-23 1.176947065339389e-22 1.8180755770269735e-23 4.892770084660671e-23 -1.442718426216455e-23 -2.983602095150277e-25
3.4249898799339183e-22 -1.0357670250338869e-22 -1.2043021552471236e-22 -4.9274879052016614e-23 6.717296847422132e-23 1.0031839990497072e-22 -6.42218996437592e-23 2.4857545596338313e-23
-5.601961571684943e-23 0.26632891070348813 -4.822944960294227e-24 2.796730927729941e-23 -4.3156034974019446e-23 -1.0506109483827166e-23 4.432026005805503e-24 3.428847180912588e-22
1.5069083133324904e-23 1.0023027159269728e-22 -9.567236200453475e-23 2.221199241851099e-22 -1.6645646699561904e-22 -3.0262860882238763e-22 -1.965970790640518e-23 -1.2137993441511599e-22
2.743528660167363e-23 -2.459125348795356e-22 0.18702291500598228 -2.585208996013745e-22 4.1037730767290784e-23 -2.609644265431013e-22 2.874441321011073e-23 6.629230382097833e-24
-9.086868482808401e-23 4.795133270863419e-23 5.0361633222642254e-23 5.30202959278434e-23 1.963696787738228e-22 -9.606566721247224e-23 -3.3341046942964764e-22 2.600693959823266e-23
-3.4785828645830864e-23 -1.3362143776484394e-22 8.49227973195913e-23 0.10041028139326204 3.6428567801711684e-23 4.5873196112394514e-23 3.382273945269446e-22 -7.795308689929796e-24
3.9253126590272793e-22 5.553841208509501e-24 -1.599132077106516e-23 2.2050851391973485e-23 1.2525429292694084e-23 -1.7938405691278275e-22 -5.067568848052098e-23 -3.625571627204382e-22
2.8898855874057854e-24 3.4656368855091577e-23 5.9206315573925124e-24 -1.1987256152477913e-22 0.17761012413295885 3.049033505630456e-24 3.870489258571398e-22 -2.124010094683e-22
2.117395619176584e-24 7.055718816670112e-23 4.252231021040261e-22 -2.0660176661277607e-22 -1.2739288351535677e-24 1.4684860209856195e-22 1.8811205304535394e-22 -8.091432717643763e-23
-8.478889707902814e-24 4.027936850755785e-23 -1.8956372724781626e-22 3.387946342913217e-23 1.8351451720077626e-23 -0.13710992992579635 -5.283513312326849e-23 3.366482344122938e-24
1.3359118381214647e-23 -3.9232852677544686e-23 7.261901490110695e-23 2.003595079375644e-22 -2.979116659715799e-23 1.5920892030205103e-22 -1.313556093604698e-22 4.965705400819947e-25
-1.7244237483168982e-23 -2.1804111528985472e-23 2.2688537708018508e-23 1.1436224894162958e-22 3.4044015397958796e-23 9.514609328410354e-23 -0.241816180167355 2.1871070918007753e-22
-1.5453176098176782e-23 -8.904113288575138e-23 -2.757552573633103e-23 -2.4334953091477828e-23 1.9375177113527952e-23 4.685176407904695e-22 1.714435747177192e-22 -2.8271095927848574e-22
3.2436056995317764e-23 -1.5427962311560321e-22 2.142763704363776e-23 6.17424978510983e-23 -6.592410853870658e-24 -4.85740927925657e-23 5.2248713191866e-23 -0.2760296241515017
1.645440758601351e-23 3.6602994478987994e-24 2.2613666020578114e-22 5.621016867290233e-23 4.015635000390886e-22 1.34150278264599e-22 3.33668183861786e-23 -3.0949726610190056e-22
1.754692911665636e-23 -2.1786280128393913e-23 3.1228240631005804e-23 2.947385379428571e-23 3.0177127690096666e-23 1.630384649808678e-22 -3.3996844953101566e-23 -2.687317635378774e-23
-0.06725352905214484 -6.603145043933484e-23 1.5545453726816863e-23 -3.4023205409386067e-23 5.497060866501946e-24 4.9352248684065444e-23 1.7046119272124516e-23 -1.558281102722169e-22
1.6014495423199374e-23 2.1132146427564123e-23 -6.355625411009967e-24 -1.0245554726455004e-23 4.624737667275408e-23 -5.783468117668825e-24 -2.9296108229996476e-23 1.965705423635231e-22
-4.9435965112216054e-23 0.18002114926220672 6.099771421144666e-23 8.205381996598269e-23 -8.642541056831944e-23 4.075921793374132e-22 -3.708479418477991e-23 1.0161044241770977e-22
1.5944366976421164e-22 2.2969327288251087e-22 9.762059289839012e-23 -1.9963751660087735e-23 -9.567741486847263e-23 -1.017366683100488e-22 8.651343913814835e-24 -2.5929866408747803e-23
2.077960025285103e-24 2.104581609308195e-25 0.23302880525000153 6.739948138622223e-24 -2.8355714103369052e-24 3.0328881841596062e-22 -5.1678453853906565e-23 5.450849159266724e-23
2.5038150897850308e-22 2.3529449957024504e-23 -9.792052739493329e-23 8.969190508414531e-23 -1.3346709913077791e-24 3.480680142779515e-22 4.277098476355062e-23 -9.370441885288951e-23
-6.12102039969769e-23 4.1845830730529523e-22 8.226471698584564e-24 0.030402329383576027 -1.2849968559148634e-22 -2.421413712615052e-22 2.844560556290319e-22 5.662983043981848e-24
-6.511996510259663e-23 -7.2025819542069e-23 -3.6068683048005314e-24 -1.496369709425966e-23 6.901101304911035e-23 -1.4755063777343723e-23 8.090593863111494e-23 9.453386826184356e-24
-1.3804153856795846e-23 -6.050475605447664e-24 -1.6084000954124051e-22 6.830495882153422e-24 0.01163142715328983 4.9739970202411336e-23 -9.485295440771641e-23 -5.446862489075971e-23
-2.0365354166222472e-23 -1.3505488523450657e-22 1.3589465814414986e-23 3.1935529047572447e-22 -6.603976379542851e-23 -1.6013480779225896e-23 -2.1990057928008247e-23 -5.335991576429066e-23
-2.2023142646581712e-23 -8.687135576695535e-23 2.912900846587456e-23 4.39252874483035e-23 -3.735899807354027e-24 0.10350002755804469 -5.803184677415721e-23 3.9249457724698346e-24
2.754502349328982e-23 -1.0230729975626745e-23 -3.9443687770178145e-22 -4.657038667766988e-24 2.887882536191781e-22 -1.490571658721739e-22 3.758869637874575e-22 3.180648561143469e-23
-1.416942611761828e-22 -3.9189689575586676e-22 -1.2108189199178514e-22 5.352878195597443e-23 -4.800119946349345e-23 -5.556323102592082e-23 -0.43582634924923136 -6.252181587063253e-23
-1.1280751211743869e-23 -8.850524462859944e-25 -2.537809648338384e-23 4.0119298943460275e-22 9.304951246426025e-24 -7.041810173948695e-23 6.425179115749459e-23 9.04898899073113e-24

_model.layers.0.conv._module_list.0.ws.weight f8 [8, 41]
00000000: b0af 4b27 bc30 d33f 4563 9e83 62a7 c13f
00000010: b4de 1ab2 9be7 9fbf f9c4 8558 8348 c0bf
00000020: 7f0a 396e c65d b4bf 951a 37c4 bca0 c13f
00000030: 1301 2773 9315 ccbf 1fd9 27ee 2b5f ce3f
00000040: 162b 029b 61f8 ce3f 7685 7b69 438c ccbf
00000050: 56dd 8ffd 0c0c cfbf 8917 b50d 91ee d5bf
00000060: ed64 bbb4 01a3 adbf 771a 4f72 9f8c d8bf
00000070: 0c37 513b 6d77 d6bf 99bb c75b 895c 823f
00000080: 2f0b 0d1a 251f ca3f 348a 029e ebb0 ca3f
00000090: 0104 ea07 d1ad 59bf 680c 2c65 2d7f c3bf
000000a0: de56 cc68 7dd0 b73f a61c f20e 05fb a8bf
000000b0: 7dc4 5a82 3c73 b0bf 7e0c 010b c63d bc3f
000000c0: 85f7 0abf 81e6 c03f 8fd0 8fdd 7754 5ebf
000000d0: 0f1a 8ebf 7f75 c73f be5c 977e fec0 bf3f
000000e0: 0be6 a1be ba4d c33f a717 3ff4 4491 cc3f
000000f0: f121 00ea ad2e c73f 4752 f89f c66b a6bf
00000100: 8b19 e0ee 0e38 c93f 70c2 839f 5042 c53f
00000110: f5ed a07d 32c4 9e3f 9c3e 78d8 bb0d c23f
00000120: f18a 1c5c 852c b93f 151b 9e59 6ce8 a0bf
00000130: 8c8e 5eed c6fb b83f ce60 56e8 b10f bd3f
00000140: 0091 73a1 229e bb3f b19c 9df4 e143 e53f
00000150: c85a cf8a d5d3 e23f ef0b ca61 5d4c d73f
00000160: 28de b106 19da d1bf 01e4 e66a 8ae3 d0bf
00000170: 4abc 8a61 7068 e33f 0469 2270 6c4d dcbf
00000180: 7558 a456 d96c e13f ec5d c685 b79c cebf
00000190: 7771 9dac 1e63 d6bf da16 7920 119a 7a3f
000001a0: 8b72 102b 4f9b a73f ee3b 208e edaa d53f
000001b0: b99f f6d4 8b46 cd3f 92ba 8f86 112f b93f
000001c0: f9dc 7ed1 8f05 ce3f 782c 7081 0abe d43f
000001d0: 3050 c761 c7c8 cd3f da1b 6f59 3864 c73f
000001e0: fb08 a0e1 cc6d d4bf 499c 6c2f a153 c0bf
000001f0: 17b9 8853 7984 c93f 42d2 a9c8 3f12 d7bf
00000200: f9da 1e81 69cf cd3f 8af0 edac f72d bebf
00000210: cd5a dc30 a7e8 8dbf 4265 dfb3 ad89 d5bf
00000220: b9a5 2e9f 40b4 c6bf f9d2 c3db c9b5 cbbf
00000230: 87db 0c56 95c7 c6bf d9da b20e ae39 a5bf
00000240: c9f5 f493 ec3a d2bf dab1 e103 9be3 c2bf
00000250: 0491 746b 9ee7 cbbf 54a8 9779 1cc5 97bf
00000260: 28fc 3d5b ffad c4bf e325 66e7 2472 d1bf
00000270: e3c6 a351 1696 c6bf 88bf 6423 96f1 c0bf
00000280: fa90 9e6d 8236 d2bf fb9d 1f0c cdab a8bf
00000290: c87f a1d6 a898 d43f 7da8 39d4 cdfe c13f
000002a0: 86b9 096a 7f73 a93f 7864 3b0e b449 d4bf
000002b0: 02fc e4cd 0136 8ebf abfe df4e ecb1 d03f
000002c0: f53d 397e 2477 cbbf 6621 6e1b b9c2 d43f
000002d0: c819 2f96 03e9 c7bf b2ac b6ef 3560 ba3f
000002e0: 0ba1 75ea 883d c03f fcd3 fa14 fb3b d93f
000002f0: 7738 ea0e 2a7f e63f a0ff 09f0 64fa d53f
00000300: 002f b5cb a470 de3f 1712 e860 defc a03f
00000310: 0171 00c6 4f01 d83f 72a7 d6af 8b0e d93f
00000320: 0426 7a0c 592a d83f 16fa 11c0 f26f cebf
00000330: 7cc8 df60 afc3 cabf 89ba 7d05 b620 e73f
00000340: d64d c605 c0b3 e1bf 2b05 8f02 9110 de3f
00000350: 97fb 399a a7fe e0bf 40e1 d9b2 035f e4bf
00000360: bccd fbcb 2571 e6bf 6348 4ed6 7a9a e7bf
00000370: cf45 d77c cd19 e9bf fcfd 227d 0126 e8bf
00000380: e988 d2a9 0e2f e8bf 11e4 9432 d2c5 e5bf
00000390: b317 bfe4 c30f e4bf 0950 6047 2cf5 e8bf
000003a0: 8faf 0801 380d e7bf 6f56 7547 0f83 e8bf
000003b0: ca74 9141 cb80 d8bf 6b77 3fff 6803 e0bf
000003c0: afc8 3dc0 cb6a e8bf 247e d789 0309 e1bf
000003d0: 2832 357b dfe0 e6bf b2d4 cc49 0568 e13f
000003e0: 556d b91e 7d28 aebf fa22 8fad f564 c4bf
000003f0: 5830 56c7 f273 b2bf 3b75 0045 c6b9 d23f
00000400: ab7b 9c6c 8766 c03f ad6b 389a 7b16 d1bf
00000410: 89c9 374d c0c1 bf3f db12 93cc facc cb3f
00000420: 11c7 6115 b6da a5bf efe5 9a33 c173 e03f
00000430: 3ab1 cf1d a1b5 c13f 3662 3352 cbe3 b4bf
00000440: 2bbc 0c8a 1976 e1bf 0170 e6f8 fa03 ddbf
00000450: 30b0 5927 66ae d9bf 831c 68df 6b8a eb3f
00000460: f731 0225 a28a ce3f 90d7 e2cb 5ffe d43f
00000470: 95d3 dbdc 82ac d4bf 0597 fceb 1de3 933f
00000480: 7d62 8265 cdd5 dd3f e664 dd09 379b e6bf
00000490: 9b78 d1f4 df6d d63f 5c19 5290 b77e d03f
000004a0: 562b 206d e5ac cf3f 07de 1ef1 3ad3 cd3f
000004b0: b05d c0e2 406f cf3f bd10 29a8 86ee d13f
000004c0: def6 872f 4c24 d23f f96b 6230 2efb bc3f
000004d0: c066 64c6 2a28 d83f 58bb e37b 62f8 cd3f
000004e0: d4fd 8e8c 1791 ca3f 2277 f4ad bad2 ca3f
000004f0: 5566 be9f 9166 be3f f52a 54ce 873e 843f
00000500: 3527 06ef 46e5 d43f 43e5 34eb 81ad c63f
00000510: 1000 4314 a509 c63f 8ef5 7ff7 b626 d63f
00000520: 407f f125 365e e2bf a464 081d 01b6 c0bf
00000530: e8b9 eee8 2cb0 65bf a807 c5cc 854f d13f
00000540: 00c8 8060 a7e7 b13f 79bd f837 63b3 ddbf
00000550: 9f7f 72cc 5844 e03f 1ded 5353 e62f d3bf
00000560: 8a45 3eb1 5575 d23f d540 2087 4a79 d43f
00000570: 8460 e3f4 41a9 d5bf 8efb 297c 010f d33f
00000580: 5f47 5893 55c7 bfbf 12b8 46b3 d6e9 cdbf
00000590: 811d 189a 2ecd b63f c5ae 20dc f9af cebf
000005a0: bfac 1cc3 3c84 e0bf 18a7 4d4c 60c9 b2bf
000005b0: ee52 fe8e 82b6 9ebf cb36 c603 b722 d13f
000005c0: f0c2 fdf4 7d83 be3f 06ad 79b9 6ee1 d8bf
000005d0: 99f9 1391 55a8 e03f d66c 6af0 cfb6 aabf
000005e0: 815f 3673 e12f a7bf cc86 f23d 538e c2bf
000005f0: 1d6b df58 b1f4 a2bf 318a cc9e f13f bd3f
00000600: 627a 5c54 4733 c6bf f8ec c453 eeb1 b53f
00000610: bb4d ea33 f3c9 b7bf d7d3 b55a 386f a7bf
00000620: 4e1e 7dfb 6328 b9bf 1b3a 9e5a 91f3 9bbf
00000630: 3830 0d40 0a69 a9bf 5f2a 6175 b183 6d3f
00000640: a7ca ca70 1f62 c23f 9170 f51b 5fde b93f
00000650: 4019 eb64 7c1e abbf 5d32 5a04 a7b8 b0bf
00000660: 941d 74c6 086c c3bf c1df df4a 4cbb c33f
00000670: ac0d 2cb8 eca5 d03f 7a8c 703a 4412 cc3f
00000680: 1b49 c6cd e259 d0bf dda9 6215 92c1 a13f
00000690: d878 5cef 3a95 cd3f a693 7b00 320e cfbf
000006a0: 4382 f4dc c4c4 d73f 3291 3dd9 884d b53f
000006b0: 728d da4f c334 d6bf 2653 eb39 e0d3 cdbf
000006c0: c7ac 2dc8 e05d b03f 5b82 d653 d98d bf3f
000006d0: e725 0b7a 6b68 e0bf 30e9 b2b3 ad9b e0bf
000006e0: 2d44 d975 5cd8 78bf 8352 e8db ee4f bc3f
000006f0: 8903 fc00 732e c33f eb1b 496c be17 cf3f
00000700: f67f 975f 5e2f cdbf 3544 93b5 d4ff bbbf
00000710: e59b e5b9 7420 cd3f c91c 3a52 7ac2 d8bf
00000720: d96b 2593 ad54 c93f 0781 68dc 1fa0 a43f
00000730: 5aa2 9005 2ea0 a2bf 6c8c f852 4d56 983f
00000740: 6d6c 39ae b7af bc3f b4b9 f5ec 918c b73f
00000750: 5a76 c96e c338 babf 448a d2dc b3ee 8c3f
00000760: 8f93 3386 c9ab b4bf 101f 9609 fe16 bd3f
00000770: e124 2b23 7c57 c63f 11bd 32cc 7be0 a93f
00000780: 6daf 2021 7214 c0bf 5c89 75c6 cd84 afbf
00000790: 66d3 c446 a25d c53f 8797 2ae9 3b68 bdbf
000007a0: dba1 9efa 9a53 b4bf da1b b18f 07ac c03f
000007b0: 7a33 8a02 3a83 ed3f c135 c222 0949 e13f
000007c0: 855a 21e7 adfe d73f d1cb bce2 2aa0 d2bf
000007d0: 1341 ff79 5ccf c6bf b363 b0a3 16cb e23f
000007e0: bad9 4e90 6fd6 e7bf f2e5 5393 46be e13f
000007f0: ed5e a58a 2444 c1bf c69f 80d9 06b5 d4bf
0.2998495467897966 0.1379206793469853 -0.03115695261541758 -0.1272129232634496 -0.07955589476572732 0.13771781521628115 -0.21940844652818522 0.2372794068211954
0.24195499485753008 -0.22303049707901906 -0.24255525952296847 -0.3426859506474718 -0.0578842671508911 -0.38358293688762707 -0.3510392264623625 0.008965561974916091
0.20407546779650818 0.2085241815121478 -0.0015673199956440789 -0.1523186439518185 0.0930250531058294 -0.04879012877886994 -0.06425836737141029 0.11031759041456898
0.13203450992835655 -0.0018511934815679564 0.18327328542018548 0.12403860655409724 0.15080961521361788 0.22318326879593295 0.18111204076582468 -0.04379101469763618
0.1970232645400752 0.16608627117922792 0.030045308034670943 0.14104412145433265 0.09833558558288381 -0.0330232486149297 0.0975918130412145 0.11352073595333254
0.10788170282063803 0.6645364549302909 0.5883586608059312 0.3640359358761875 -0.27893663076199227 -0.2638879817928342 0.6064988999477319 -0.44222556067110497
0.5445372287965841 -0.23915761978126626 -0.349799793786381 0.006494585897206051 0.04610679054915064 0.33855761413081964 0.22871539972879676 0.0983744576949255
0.23454473237300258 0.3240991844219887 0.23268978380531413 0.18274597517867514 -0.31920167955117024 -0.1275521737636345 0.1993552835351202 -0.3604888400653047
0.23289221577370947 -0.11788890811834754 -0.014603906801807476 -0.33652823033988366 -0.17737586758202697 -0.2164852450438486 -0.17796580030127648 -0.041455687803524995
-0.2848464436427461 -0.14757096948177556 -0.21800594565241493 -0.023212857171451454 -0.16155998187238763 -0.27259180638847463 -0.17645529733959284 -0.13237263420296252
-0.28457699494380473 -0.04818573735229489 0.3218175979618505 0.1405885015731804 0.04970930261048338 -0.3169984950050728 -0.014751447769070229 0.2608595628989671
-0.21457344210874366 0.3243849532959956 -0.18679852326586244 0.1030305586088385 0.12687789390771118 0.39428593682106317 0.7030229846293555 0.3434078544742025
0.4756252278645974 0.03317923481884948 0.3750800546274747 0.3915127961323527 0.3775847074362846 -0.23779138925961324 -0.20909683447058913 0.7227430445908151
-0.5531921494279526 0.4697611355769193 -0.5310857784496531 -0.636598443335096 -0.7013119682364315 -0.7376074014339448 -0.7843997419642451 -0.7546393817974031
-0.7557442967265874 -0.6803980815813039 -0.6269244640068251 -0.7799283403460332 -0.7203636188692019 -0.7659984965964223 -0.38286096003669157 -0.5004162774382456
-0.7630366091455211 -0.5323503200742761 -0.7149503141786839 0.5439478341492274 -0.05890265464833059 -0.15933104490820665 -0.07208173147790953 0.2925887750478357
0.12812893679889945 -0.26699724255166296 0.12405015835955714 0.21719298352231572 -0.042684259519672925 0.5141302116309684 0.13835538821821008 -0.08160086399892283
-0.5456664749416452 -0.4533679419198507 -0.40126947253043266 0.860647140828306 0.23860575491961786 0.32802576933624383 -0.32302924698097374 0.01942106964920411
0.4661744586278827 -0.7064471428558619 0.35045622737914933 0.25773419469660097 0.24746387318040303 0.23300873540368647 0.24558268615576884 0.28018347188868714
0.28346542970380806 0.11320770913373214 0.3774516045974501 0.23414259957595607 0.20755285609446494 0.20955594533818905 0.11875257635110732 0.009884892448572805
0.3264939626902675 0.17717002854059602 0.17216933717099936 0.34611295862108526 -0.5740004292565359 -0.1305543319474839 -0.0026474835535374892 0.27047867772136636
0.06994100671798265 -0.46407394853573397 0.5083431237326187 -0.2997985662220389 0.28841154393111224 0.31990302272698773 -0.33845566668379257 0.2977908813990603
-0.12413534972463712 -0.23369868997309645 0.08906832944932398 -0.23974536178990583 -0.5161422549039328 -0.07338525641321458 -0.02999309537661337 0.26774382942754177
0.11919390898925619 -0.3887593089372817 0.5205486138873311 -0.05217599687349554 -0.045287175477994 -0.14496841931127447 -0.037023107622834873 0.11425695540359794
-0.17343989962769785 0.08474626107356531 -0.09292526261770366 -0.045770417283087 -0.09827256097661882 -0.027296324878586114 -0.04962951690558309 0.003602835272464674
0.14361947066716604 0.10104937012278216 -0.05296696407235624 -0.06531757217653351 -0.15173444452396423 0.15415338188154062 0.26012723908953705 0.21930744985101908
-0.25548620314761344 0.03467995177318859 0.23111664474067228 -0.24262070678301234 0.3713848264469883 0.08321433356974664 -0.34697039411749764 -0.23302843883598107
0.06393246543091201 0.12325819298576716 -0.5127465613997487 -0.5190037259810989 -0.00606571309397545 0.11059468144260091 0.1498550181204588 0.24291210448629327
-0.22800807635849168 -0.10937241967191443 0.2275529773425823 -0.38686998395901334 0.19789666828987043 0.040284152655887744 -0.036378324679678456 0.023766716183797262
0.1120562363006898 0.09198867831376029 -0.10242864088783091 0.014127164055314563 -0.08074626470950207 0.1136320851711583 0.17454482762540294 0.050540798832452556
-0.1256239568477854 -0.06156008765789764 0.16691997962484634 -0.11487173502481883 -0.07940071695941901 0.13024992481424996 0.9222688722235113 0.5401654890899225
0.37491939135853897 -0.29102584974606055 -0.17820316273583411 0.587291068749542 -0.7449262445941749 0.5544770123953511 -0.13489205140898922 -0.3235489963576551

_model.layers.0.conv._module_list.0.ws.bias f8 [8]
00000000: db5d c52d 186f b2bf ea9d b892 4f46 cebf
00000010: 4c41 9ec7 1938 ad3f e389 2144 6c55 bc3f
00000020: c282 45bd 5ab6 b4bf da44 3e2c ad03 c1bf
00000030: baa4 3782 0631 d3bf a788 a600 9bb7 953f
-0.07200766675429497 -0.23652071632498856 0.05706863939042481 0.11067845023493521 -0.08090750809561612 -0.1329246965438305 -0.29986727444208905 0.021208211817459823

_model.layers.0.conv._module_list.0.wv.weight f8 [8, 17]
00000000: af2d cf07 9e3d c33f b5e6 45d5 2fe8 cd3f
00000010: 5764 83e6 62a0 73bf 1d24 3b3a ea1e bfbf
00000020: a49f 027e 0103 c23f 992a 5008 bf61 cdbf
00000030: 0b96 5602 7b0a c83f 73d4 89f4 f05a c8bf
00000040: 29a8 4609 f6af cfbf 360e 766e f324 d03f
00000050: 271b 4eb7 a72a b03f 982c 9547 c318 c0bf
00000060: 2a66 25e6 cbc1 c53f 73ce c440 7693 c73f
00000070: 4ad9 34e9 0976 a03f 771d b9ab 1ed5 ab3f
00000080: adbe fe40 a0bd d03f e095 20f4 3796 d2bf
00000090: f281 d718 88b9 b73f d9c0 a6a9 5946 a63f
000000a0: 45fa cc7e cd52 d23f 2b08 96b7 daea bd3f
000000b0: ff13 6cf4 478c adbf 627b 6cd5 c63f b13f
000000c0: 8768 500b 1025 c0bf 1cf7 7cb2 956c a43f
000000d0: 65c1 6bb8 f277 7abf cc67 c59f d4cd b03f
000000e0: 43b3 1193 1146 c4bf c0af 32a4 0842 c5bf
000000f0: 3937 6fbf fe57 cc3f 646d 13fa f6fa babf
00000100: 21eb c9fd 4bcd b23f 05e1 fb97 d5fe d23f
00000110: d0af 50ba a743 d23f 72b8 8ad0 59e2 d2bf
00000120: dec4 4d15 c7df bbbf e960 b0ca a35d d4bf
00000130: d7a6 e28a eca6 acbf 6e4b 10e6 bf1a 99bf
00000140: f78e 7671 5f86 a73f c34d ec74 86f3 c23f
00000150: 84a7 2d92 7d08 b73f 2a24 834e d028 b73f
00000160: aa09 2bbc edcc cfbf 1776 8c65 c212 91bf
00000170: a853 c20a 8f55 94bf 6382 dafe ad2d c5bf
00000180: 2885 199a 83f3 8c3f d20b 6f2e f1ba cf3f
00000190: 9d57 f138 b294 a83f 7fd8 45d5 602e cf3f
000001a0: 4c10 ce01 e4ac 933f 7c4c fa87 069d d0bf
000001b0: 712a f6fb 9d12 c23f 50ad 876c fb22 9e3f
000001c0: d225 e535 145e b0bf eb9c 6033 8f9a c43f
000001d0: 6a0b 3409 5e9a d33f 0222 1431 080b c0bf
000001e0: 383c 124f e50f cdbf 5149 8bf4 2ddf b7bf
000001f0: fcfa f9f0 312d c03f 19eb a7bc b7a5 b33f
00000200: f0e9 502f 8979 d3bf 59b8 da3a 7fce a93f
00000210: 5054 29d9 5ccb a8bf b3c5 e735 2cc6 cabf
00000220: e601 d448 ab59 babf 543e 671e d854 d83f
00000230: 816d db11 856d d53f 9d31 742a 7fc8 b7bf
00000240: 90ac 2257 068f d23f 0cf2 a189 7b11 d7bf
00000250: 064a dc9d 5e39 a7bf 43c8 6259 0596 d7bf
00000260: ea12 8eff 4fbb 69bf 30ca 5ee7 7b3a b73f
00000270: 642f a613 a30b b6bf e29f b3a0 8f78 bc3f
00000280: 779f 004c 6752 c43f c569 fb42 bf28 c73f
00000290: cde2 fac8 89a6 d4bf f496 0d43 d273 d4bf
000002a0: d18e 0741 c685 d83f 3ba7 7653 699e bcbf
000002b0: 0c84 b9c6 c0e9 aa3f a0c0 5fe6 090a cabf
000002c0: 6669 ced5 2a9b b73f f280 0294 7d98 d0bf
000002d0: a45c b69b af71 c1bf 09cf 5b20 3d53 d13f
000002e0: fbf6 de38 c000 c33f fbc8 5458 20c4 c1bf
000002f0: 7440 7a2a cabd 92bf 8adb 1282 bd6d 643f
00000300: f5f5 0edc f59c c3bf 7ca4 cdfd 2926 b13f
00000310: 661d f19a 1f6f c9bf 417c 9200 b1c7 c73f
00000320: 1e47 fd52 b570 d13f 2ca7 8434 812f b0bf
00000330: 340f 6db7 5248 ac3f be1d f5ec 5af4 acbf
00000340: ae49 4fd3 b8c4 c4bf 5f5c 9a35 3306 c0bf
00000350: 798b 397e bb14 c63f 43af e7cd 7533 a2bf
00000360: 37ce 6a48 42dd c5bf d9c1 91a0 cf39 b63f
00000370: 889b 6109 9a5b b8bf 358b 13d5 3af9 c4bf
00000380: e727 7ac5 5859 ccbf db1c dcd4 e3cb bb3f
00000390: 9730 98dc a46f acbf 9277 6636 906e c7bf
000003a0: 8b5b 34be de7e a6bf 19d5 80f9 5935 c33f
000003b0: 3ce7 058b de3c c43f 4a55 2e9e 1f62 c13f
000003c0: 2a0c 0afe 6684 753f 1f07 744d 376b bdbf
000003d0: e49e 2a94 e315 c83f 07d9 a041 9751 c3bf
000003e0: 01d6 8f48 0136 cc3f f552 5a59 f229 6b3f
000003f0: 114c 76f3 64ae c9bf 2733 9885 c0fc c13f
00000400: 3c57 6ae5 5ec0 a23f d6e6 d5ef 9e18 c7bf
00000410: 8200 c031 49c3 b9bf 8710 1611 4b5e a3bf
00000420: bf5c 2fc9 6516 c13f 8e55 a6a9 86c8 cf3f
00000430: 1d65 993b d28a b8bf 4f99 5938 7546 c7bf
0.15031791096985844 0.23364828027461262 -0.00479162819848352 -0.12156547471671826 0.14071673062175905 -0.22954547792354132 0.18781983961268653 -0.19027530613280738
-0.24755740597658019 0.25225530421468834 0.06315086579534733 -0.12575570101976008 0.16997669923402842 0.1841876808408532 0.03215056392439182 0.05436035009602851
0.2615738520353073 -0.29041861382060397 0.09267473799219042 0.04350547977390002 0.28630387671356444 0.11686484319764705 -0.057710884653751286 0.0673794051221939
-0.12613106300779384 0.03989093593416568 -0.006462047697582162 0.06564072514211644 -0.15838832551107815 -0.16607769029121577 0.22143539760002698 -0.10539191823356969
0.07344508119596728 0.2968038543908878 0.2853793448909956 -0.29506535878579776 -0.10888332624542182 -0.3182153205284651 -0.05596102900865468 -0.02451610414216126
0.04594705829665984 0.14805679997571816 0.0899733049278933 0.09046651760867577 -0.24844142616173076 -0.016673123786963808 -0.01985763075989025 -0.1654565328981504
0.014136341228722829 0.24789252059244277 0.048009461833017776 0.24360285199844964 0.01921421299950081 -0.2595840766818538 0.14119314959346554 0.029430321215767663
-0.06393553081320327 0.16096677788411937 0.3062968339801758 -0.1253366698877159 -0.22704759941959352 -0.09324919910730968 0.12637924448423365 0.07674740177018825
-0.3042929613181107 0.05040357201993179 -0.048426534184422665 -0.20917275077912975 -0.10293074157744506 0.38017847985336073 0.3348095583330278 -0.09290308748695116
0.28997953900643214 -0.3604420513218265 -0.04535957028396713 -0.36853154877747246 -0.003141075369457948 0.09073614500702187 -0.0861150668117126 0.11121461556797343
0.15876475535446463 0.18093100329026704 -0.32266468646006957 -0.3195691733184127 0.38316494322337485 -0.11179216659243434 0.05256464410627623 -0.20343135594112471
0.09221141548042552 -0.2593072839172371 -0.13628192046301024 0.2707054916383958 0.1484604146661964 -0.13879780114218207 -0.018302115290282875 0.0024937344865877996
-0.15322755093613663 0.06698858686799442 -0.19870371881027465 0.18578159835758082 0.2725041685526878 -0.06322486431295421 0.05523928155028415 -0.05655178206012178
-0.16225347822053265 -0.12518921010334602 0.1725077024776416 -0.03554885996331205 -0.17081478630062616 0.08681962652349941 -0.09514773110423225 -0.16385589031332307
-0.2214766468280793 0.10857986399433932 -0.055539276054419044 -0.18306162506354134 -0.04393669196922819 0.15006565745140035 0.15810758388743718 0.135806991802989
0.005253221811133671 -0.11491723671863639 0.1881679986447501 -0.15092745499141122 0.2203981022172883 0.0033159001712398336 -0.20063459289357913 0.1405258800808948
0.03662392187577132 -0.18043886862488162 -0.10063607658958243 -0.03782877524921085 0.13349602054106488 0.2483070686691175 -0.09586824374254772 -0.1818377041956389

_model.layers.0.conv._module_list.0.wsv.weight f8 [8, 8]
00000000: 2ee8 f8c9 df01 bcbf af64 64b3 a225 d7bf
00000010: 3f45 a464 fa3d ca3f 35da 7352 2364 c8bf
00000020: 48e4 5a0f 753f c43f 7f20 54d2 33b5 d4bf
00000030: 6331 b87d 83bd d5bf 5a3a 63e5 4eee b13f
00000040: 04f8 a62a 39e8 e03f e3d6 6c40 aee3 aebf
00000050: a501 b2dc 5c2d bf3f 2ff3 62f1 c68b ef3f
00000060: d69d 2f4f ab79 d7bf ab4e 1a74 be9f d23f
00000070: bb0e f9e6 d075 c9bf 9cc4 6090 3f02 e3bf
00000080: 6725 29ed c17a e0bf d4e1 8ac1 74bb b33f
00000090: 6b57 1a97 198f e33f e147 476e d174 c7bf
000000a0: dcfd edf1 218a c83f cc0f 253d 2125 aabf
000000b0: 2944 0c6a d22e a3bf f731 ffeb 2c3c abbf
000000c0: ef82 5f1f ef3f cc3f 8860 d660 913b d93f
000000d0: e853 ec34 eb18 bcbf 74a5 b71d 72b4 e73f
000000e0: b2cd 09e6 e26d d2bf 6b1b a46f 5d1f e03f
000000f0: 8ba6 24a2 1c85 d73f 79a3 c2f2 4714 e5bf
00000100: 6f47 b7c0 4044 d33f 78ae 9f57 2ebd d63f
00000110: 58e7 f0bf a6c2 cc3f 81aa 9ac6 37af cb3f
00000120: 44f5 7bf7 a73d b4bf 2d9d aad5 deb2 b13f
00000130: c6c2 c55d 9c91 96bf 49d1 6837 f020 c1bf
00000140: 00da bef4 8158 e33f 55c0 5e99 97d9 c3bf
00000150: 007b 25ea 5d42 e4bf beb1 ebd9 da56 ef3f
00000160: df03 8473 8920 a7bf da41 2a3e 6f43 d63f
00000170: e5c7 ea56 e1f8 d0bf dd82 96d2 f33e cebf
00000180: 0a5a 9fcd 9b23 d53f 48a4 cf90 02e3 af3f
00000190: 7da1 dc2a 1d44 cabf 5043 a5a8 17c7 d93f
000001a0: 3fb9 ff10 23fa d13f b969 71d2 fb22 d23f
000001b0: f202 a076 05be b23f d2c0 d7d4 9796 d8bf
000001c0: 31bf bbc2 c524 e2bf b1e8 3be1 6fe8 9f3f
000001d0: 7ea0 4f91 ef28 d03f 09eb f1c4 dab8 cdbf
000001e0: 479a b5a3 edd7 d03f 148b 538f 2257 d23f
000001f0: 5392 04eb fa6a c9bf 6fb8 47dc 3640 d9bf
-0.10940359765018634 -0.361672091663034 0.2050164214529477 -0.19055596853259407 0.15818656205900283 -0.32355971851257687 -0.33969199445052406 0.07004254436763216
0.5283475716639718 -0.060330815662764235 0.12178593051976934 0.9858126368122607 -0.36680109723098775 0.29099999750290334 -0.19890795972798067 -0.5940244502909482
-0.5149850494428109 0.07707910275610824 0.6112182570675321 -0.1832525051564167 0.19171547234507968 -0.05106452819248339 -0.037466597981741075 -0.05319347744771002
0.22070111305131188 0.39426073509958615 -0.10975523035115453 0.7407770710389472 -0.28795692886998403 0.5038287334908608 0.3674995025090559 -0.6587257138645405
0.3010408288947621 0.35529669339187064 0.22469028827782256 0.21628472516507105 -0.07906579773039818 0.06913559643236473 -0.022039836142939938 -0.13381769853152495
0.6045541553674525 -0.15507788647437573 -0.6331014226123841 0.9793524032843874 -0.04517011199096265 0.3478658778267608 -0.265190443878167 -0.23629615576375942
0.3302983768493567 0.06227882402146939 -0.20520367234099615 0.40277663678448494 0.28089214954424685 0.2833852343661892 0.07321199556464444 -0.38419147286823574
-0.566988830889363 0.03116011440486294 0.25249852362185965 -0.23220381370978085 0.2631792162632433 0.2865682983084963 -0.19857727504235587 -0.39454432975515535

_model.layers.0.conv._module_list.0.wsv.bias f8 [8]
00000000: c96a edae fc2c d1bf 4bb0 165f 1ae0 a2bf
00000010: 0e8e 9bfb 6e51 843f 90a2 12dd a17b d1bf
00000020: b829 470d 22bf a93f f8e3 d365 a22d d33f
00000030: 65a7 9323 a623 bb3f 0276 eaf2 5228 a23f
-0.26837079127078006 -0.036866020305155255 0.009920947125869464 -0.2731709155000681 0.050286354180190285 0.29966030067549765 0.10601271027158317 0.03546389785081418

_model.layers.0.conv._module_list.1.wh.weight f8 [8, 8]
00000000: f46d b502 d97e b8bf e70e 9c93 d372 cd3f
00000010: f08e 70c7 3a4e c23f e719 47f8 d123 cebf
00000020: 6b63 431a 8798 d8bf f856 e565 5ab8 d3bf
00000030: c73c ce76 a5a4 d2bf 018a 0b37 f799 d3bf
00000040: 8ac0 bfb9 e9f9 9d3f 52b8 a4b8 8e60 d33f
00000050: 35bc 115a 48db d5bf 9a28 e8b5 91ae c4bf
00000060: 7697 330a 135f b2bf 9ad1 e1f5 2001 d73f
00000070: b6ee cc96 b65c d53f 68aa 1492 f517 d2bf
00000080: 8e52 412a 1024 d23f 9d38 eaf7 5087 d7bf
00000090: 80ec 3ca1 ec93 c93f 7304 35e8 3d79 863f
000000a0: 63d6 bdfc a9d1 d6bf af94 201b 07fe d93f
000000b0: efc2 cc17 f95f cb3f d038 e0fa 7547 cfbf
000000c0: 8875 a377 37f7 b9bf f4aa 2c62 f9e6 86bf
000000d0: 93b5 97fe 7153 bbbf e3e8 9a63 ea80 8fbf
000000e0: e872 cb99 9530 debf 16c4 aaa3 eb50 d23f
000000f0: 5a9c 87da c385 d33f 9147 6829 1193 a53f
00000100: ab9a 439d 02f0 d93f afbd 7d11 9bc3 d3bf
00000110: be5a 0610 7aa7 ddbf 9cfc f852 2b3b d33f
00000120: bed0 39b5 eb19 d03f f49a 80d9 5573 d23f
00000130: 67fb e351 e7b7 9f3f 172e 870b af36 d2bf
00000140: 6d0a bc37 67c0 c73f 5d72 0043 351c d23f
00000150: 0aee e01b c08e b33f 68f6 daea af04 cdbf
00000160: 80bc c466 f481 c1bf a2ae b075 d24e b8bf
00000170: 11a6 3b89 b146 b4bf cbda 11fe 653a d7bf
00000180: 86ac bedc b99a 99bf 9bb0 1177 3f98 babf
00000190: 7b45 f123 f1a5 b9bf 0345 9ff5 8c36 d03f
000001a0: 491d 5717 8506 da3f cb72 9d0f 8046 c1bf
000001b0: 53e9 a0b1 f8ec b63f 3eea 538d 8139 d83f
000001c0: 7c6c 83b0 5b2b c13f 2944 839a eb79 c4bf
000001d0: 25e7 ad83 1858 bc3f 1481 abe1 6693 cb3f
000001e0: 0765 2af6 97a9 d43f 62f1 2803 46b4 b5bf
000001f0: 2012 b67d 55a7 993f 6dce 05f0 ab23 403f
-0.09568554226046172 0.23006672580242268 0.14301237810388256 -0.23546814558922266 -0.38430955471772305 -0.3081270213200322 -0.2912992153369029 -0.3062723195600086
0.02927365490171544 0.302768402400834 -0.34150894923999725 -0.1615774286477219 -0.071763219824417 0.3594438935463359 0.33378376700032264 -0.28271235719390697
0.28345111967545555 -0.3676340504688456 0.19982679245899604 0.010973437928102769 -0.3565468757800316 0.40612962388179147 0.21386636411764168 -0.24436831235693157
-0.10142847700941193 -0.011182735737369033 -0.10674202409400939 -0.015382605709750091 -0.47171535510078266 0.2861889932929115 0.3050393709258451 0.04213765745602339
0.40527406080074496 -0.3088138266384374 -0.463346973084679 0.300486403491911 0.25158207605205607 0.28828951111283563 0.030974974034502802 -0.2845876324251732
0.18555917951023862 0.2829716829599301 0.07639694862967175 -0.22670554130120313 -0.136778402500088 -0.09495272992415463 -0.0792036972085486 -0.3629393559598781
-0.025004295442766743 -0.10388561875305628 -0.10018832328321096 0.25332950579202435 0.40664794234586005 -0.1349639965291288 0.08955339752802631 0.37850989152471815
0.13413568610016913 -0.1599707130867796 0.1107192346079527 0.21543584841766317 0.3228511718712785 -0.08478200509211356 0.025052390859416573 0.0004925336398131204

_model.layers.0.conv._module_list.1.ws.weight f8 [8, 16]
00000000: 573c 260e 4a54 d3bf e180 9211 0b95 dfbf
00000010: bd6e b971 ce35 e5bf 8587 5449 57b3 c43f
00000020: 63e5 6d89 4ce4 d0bf af62 49e5 d708 d43f
00000030: 56c2 4897 695d c0bf 75ac ebeb 7d32 b03f
00000040: ece6 4b19 58cf 9ebf 5f33 3b0c 3fc4 77bf
00000050: 53ae 966d b15b d63f 0209 2d04 70ba d43f
00000060: 14eb a085 1889 cabf c36f 2d4d db3d 883f
00000070: b9ba 4d20 e912 b5bf d3a4 92e6 78b3 c2bf
00000080: 061f 3190 b44c ba3f ff91 9202 71a9 d43f
00000090: e8b7 93e9 7b2c ec3f e2e0 aab9 c5e3 cfbf
000000a0: 53fe 94b6 bb91 d53f 85c6 57e1 3bbd a5bf
000000b0: 8c9a a160 75be e23f fd17 b876 d94f c7bf
000000c0: e91c eaa9 e210 c33f 4e80 5c1c e6e9 bebf
000000d0: a820 a46a 4e3d c13f 0dfc 1e69 4a53 c1bf
000000e0: 5dd7 1547 5138 ca3f 0836 5a87 30c3 c33f
000000f0: 9b92 46e2 7299 df3f 26fa 86b0 0840 b23f
00000100: 632c e544 5c27 b5bf f76c eea2 d06a e2bf
00000110: 9d8a ddee b057 edbf 62bc 4fee b7d9 ce3f
00000120: d914 07ac 4f3d d4bf 13b2 f9b8 de1c ab3f
00000130: fc3b 4e9a 78cb eabf 229b 5ba2 fa62 d43f
00000140: 0ce5 6c4c f828 c23f 809b 3ee7 ae00 a83f
00000150: a6a8 3de9 bb60 abbf a73d 2ebf 82ba c23f
00000160: 9a7a 7559 a531 d6bf 3aa0 4b6d 4e7b 843f
00000170: 649f d358 0eac c4bf 19d1 76df 630f d1bf
00000180: f0b2 f880 5f24 d2bf a6f8 b115 b83a cabf
00000190: dc93 a762 5a60 9abf bf81 ad56 dd64 d03f
000001a0: 5557 7693 33eb d13f e83f 1ac0 c58a bdbf
000001b0: d3a7 e6ba 8078 d6bf f7a7 c44d d160 d2bf
000001c0: 1b35 9d7c 257c c03f c7fd cb8b 2445 d6bf
000001d0: 8d8b a2ba a579 b3bf 94d0 06b3 7671 d5bf
000001e0: 35da 0936 0839 cebf b487 f9ee b34c b2bf
000001f0: 6a85 13c4 4b3e c73f ab05 3fe0 0236 ddbf
00000200: fddc 5474 ddd0 c43f a903 983f 62b6 d83f
00000210: b234 bd2f a5b5 d93f bfe1 feed 5ce7 af3f
00000220: 7bfa a734 b665 da3f 2e01 7670 3a41 d9bf
00000230: 1535 1fe1 b583 d73f ef07 c553 dbb4 cdbf
00000240: 39b0 d123 89ad d5bf e117 f5f6 cdbb d5bf
00000250: 980d 67ee 0518 d7bf 7a18 41a7 30a7 debf
00000260: 19c6 2ec6 36d3 a6bf 6b7c aa2b c5c1 dcbf
00000270: 74fe e863 c52e d0bf df8a 7391 6129 d8bf
00000280: 2a76 e98f 4b5e cb3f 7e7e 3480 28e8 e23f
00000290: 67cf b608 fa10 ec3f 4755 667a a625 c2bf
000002a0: 89cd 7733 1851 d73f 6155 6a8d 9f90 d5bf
000002b0: 4eec 83be 8f77 dc3f 1974 fdf3 188f d0bf
000002c0: bece 4bde 4e02 d4bf 2f84 eafe a25d b0bf
000002d0: ba92 b2f3 4258 cdbf 1e5b 6bbe 1095 d6bf
000002e0: db2b 3b15 6b11 ce3f 69a6 f1e1 37dc d6bf
000002f0: aac3 ca62 6a09 ae3f a510 de75 5ee7 d2bf
00000300: c693 68dd 573e b3bf ad01 906d 9872 cc3f
00000310: 8e43 ce78 12fe f03f 4707 77e8 9fb2 ad3f
00000320: de63 04f8 8c74 e3bf a5ee 3b28 774c d8bf
00000330: 38db 20d8 64ec e53f a506 efaa b85c dd3f
00000340: 99ad 1fd0 7f51 cbbf 6fca 6a07 b0ac b9bf
00000350: 3ff6 1500 54fb cbbf 9b3d fb5a 536b d03f
00000360: d39d fb05 8c29 b0bf 4ddd 9850 63d3 d5bf
00000370: 3e74 2854 387f ca3f 8ca3 8e15 5204 e13f
00000380: 4553 4533 bf49 c1bf 795b c07c 2906 bcbf
00000390: 1864 0066 d9bc c0bf 5661 35b4 75a4 d1bf
000003a0: 4b33 e7bd ac69 ddbf c128 ea7d 09d4 db3f
000003b0: c145 7bf4 f929 c03f 3a03 d8c9 6133 d93f
000003c0: 4774 895a 95df d53f fa9c 7e17 9b65 c13f
000003d0: 4fce 105b c17d de3f d6bf 885d f302 e03f
000003e0: 1677 ed26 af13 9b3f 3102 f328 dd4b b1bf
000003f0: 82d4 41f4 efab cb3f da6f d39e 3b98 c33f
-0.30201960927747024 -0.49347187725108027 -0.6628181668451912 0.16172305183959793 -0.2639342634280039 0.31303975478435125 -0.1278507221882303 0.06327044496326713
-0.030087830108619082 -0.005802389412292579 0.3493465013695857 0.32387924583248673 -0.20730883145173407 0.011836732189912774 -0.08231980360663273 -0.14610205896796077
0.10273293037709771 0.32284188510155326 0.8804301797915715 -0.24913856092258074 0.3370198519732856 -0.042459365136790196 0.5857493293122658 -0.18212431237060392
0.14895280167204497 -0.1207565135232482 0.13468342024885271 -0.13535432942259754 0.20484367342913404 0.15439421280864019 0.49374076935991135 0.07128958043811248
-0.08263184244167258 -0.5755389387371953 -0.9169544854488155 0.24101924072553788 -0.31624213981224397 0.0529546356964127 -0.8373377813130669 0.3185412011647931
0.14187530261714476 0.04688021252450536 -0.05347239706209565 0.14631685576430906 -0.3467801450368967 0.010000813208037685 -0.1615007337306863 -0.26656433890026815
-0.2834700355040658 -0.20491696414314226 -0.025758182784460945 0.256156286855937 0.2799805584012252 -0.11539874973300324 -0.35110491039324393 -0.28715927691030124
0.12878864845917168 -0.3479701390460516 -0.07607494169728408 -0.3350502727801168 -0.23611548079107228 -0.07148289284080428 0.18158862184558738 -0.45642158412018813
0.16262405567406538 0.38613182268459895 0.4017117468072896 0.062312034656716524 0.41245799200252237 -0.3946062181712645 0.36741396889267836 -0.23208180990519575
-0.33871677873571887 -0.3395876800244633 -0.36084125787257326 -0.4789544709532333 -0.04458018464300668 -0.4493267942834282 -0.252854678696145 -0.3775257034705372
0.21381516005469453 0.5908396247868521 0.877072350520831 -0.14177399612951033 0.36432461763544005 -0.33695210275739923 0.444797454881784 -0.25873397662309255
-0.3126408739910679 -0.06392878268754097 -0.22925602816862584 -0.3528482303203634 0.23490656410862595 -0.3571910578235476 0.05866558509786242 -0.2953716422127946
-0.07517003207665515 0.22224717473728842 1.0620293349240657 0.05800342285830467 -0.6079773754200877 -0.37966708115684816 0.6851066800362338 0.45878426258796373
-0.21342466032306787 -0.1002912538631706 -0.21860742572964573 0.2565506351938553 -0.06313395639482815 -0.3410270964700047 0.2070074473312235 0.531777422050355
-0.1350630760522568 -0.10946902557075856 -0.13076322060149503 -0.2756628284310144 -0.4595748762629241 0.43481671615939993 0.12628101766180858 0.3937611075526096
0.34177144853112335 0.13591326377102303 0.4764254941285104 0.5003601862754248 0.026442276717140244 -0.0675638413404236 0.216184610620676 0.1530832791821684

_model.layers.0.conv._module_list.1.ws.bias f8 [8]
00000000: 7a11 ccf5 f0e6 d33f b929 2b4b 612a c9bf
00000010: 6b0b b277 202e cdbf aed3 905a 4f1b aebf
00000020: 6138 ffb7 92cf d1bf 7eec a24d af69 9abf
00000030: de8c 8560 ebf5 c33f 57f1 8fe7 8fe3 cb3f
0.3109705353129112 -0.19660583658544598 -0.22797017902857006 -0.05880210857905098 -0.27829425781681577 -0.02579378043513402 0.15594236577007953 0.21788214499236844
